…
I0903 18:00:12.188904 23978 net.cpp:58] Initializing net from parameters: 
name: "SHG_MPII_SHG_256x256_train"
state {
  phase: TRAIN
  level: 0
  stage: ""
}
layer {
  name: "data"
  type: "DataHeatmap"
  top: "data"
  top: "label"
  include {
    phase: TRAIN
  }
  transform_param {
    mirror: false
  }
  visualise: false
  heatmap_data_param {
    segmentation: false
    multfact: 1
    batchsize: 2
    root_img_dir: "data/MPII/images/"
    data_augment: false
    sample_per_cluster: false
    source: "data/MPII/train.txt"
    outsize: 256
    label_width: 64
    label_height: 64
    angle_max: 30
  }
}
layer {
  name: "conv1"
  type: "Convolution"
  bottom: "data"
  top: "conv1"
  param {
    lr_mult: 0
    decay_mult: 1
  }
  convolution_param {
    num_output: 64
    bias_term: false
    pad: 3
    kernel_size: 7
    stride: 2
    weight_filler {
      type: "gaussian"
      std: 0.01
    }
  }
}
layer {
  name: "bn_conv1"
  type: "BatchNorm"
  bottom: "conv1"
  top: "conv1"
  param {
    lr_mult: 0
    decay_mult: 0
  }
  param {
    lr_mult: 0
    decay_mult: 0
  }
  param {
    lr_mult: 0
    decay_mult: 0
  }
  batch_norm_param {
    eps: 0.001
  }
}
layer {
  name: "scale_conv1"
  type: "Scale"
  bottom: "conv1"
  top: "conv1"
  param {
    lr_mult: 0
    decay_mult: 1
  }
  param {
    lr_mult: 0
    decay_mult: 0
  }
  scale_param {
    filler {
      type: "constant"
      value: 1
    }
    bias_term: true
    bias_filler {
      type: "constant"
      value: 0
    }
  }
}
layer {
  name: "conv1_relu"
  type: "ReLU"
  bottom: "conv1"
  top: "conv1"
}
layer {
  name: "res1_branch1"
  type: "Convolution"
  bottom: "conv1"
  top: "res1_branch1"
  param {
    lr_mult: 0
    decay_mult: 1
  }
  convolution_param {
    num_output: 128
    bias_term: false
    pad: 0
    kernel_size: 1
    stride: 1
    weight_filler {
      type: "gaussian"
      std: 0.01
    }
  }
}
layer {
  name: "bn1_branch1"
  type: "BatchNorm"
  bottom: "res1_branch1"
  top: "res1_branch1"
  param {
    lr_mult: 0
    decay_mult: 0
  }
  param {
    lr_mult: 0
    decay_mult: 0
  }
  param {
    lr_mult: 0
    decay_mult: 0
  }
  batch_norm_param {
    eps: 0.001
  }
}
layer {
  name: "scale1_branch1"
  type: "Scale"
  bottom: "res1_branch1"
  top: "res1_branch1"
  param {
    lr_mult: 0
    decay_mult: 1
  }
  param {
    lr_mult: 0
    decay_mult: 0
  }
  scale_param {
    filler {
      type: "constant"
      value: 1
    }
    bias_term: true
    bias_filler {
      type: "constant"
      value: 0
    }
  }
}
layer {
  name: "res1_branch2a"
  type: "Convolution"
  bottom: "conv1"
  top: "res1_branch2a"
  param {
    lr_mult: 0
    decay_mult: 1
  }
  convolution_param {
    num_output: 64
    bias_term: false
    pad: 0
    kernel_size: 1
    stride: 1
    weight_filler {
      type: "gaussian"
      std: 0.01
    }
  }
}
layer {
  name: "bn1_branch2a"
  type: "BatchNorm"
  bottom: "res1_branch2a"
  top: "res1_branch2a"
  param {
    lr_mult: 0
    decay_mult: 0
  }
  param {
    lr_mult: 0
    decay_mult: 0
  }
  param {
    lr_mult: 0
    decay_mult: 0
  }
  batch_norm_param {
    eps: 0.001
  }
}
layer {
  name: "scale1_branch2a"
  type: "Scale"
  bottom: "res1_branch2a"
  top: "res1_branch2a"
  param {
    lr_mult: 0
    decay_mult: 1
  }
  param {
    lr_mult: 0
    decay_mult: 0
  }
  scale_param {
    filler {
      type: "constant"
      value: 1
    }
    bias_term: true
    bias_filler {
      type: "constant"
      value: 0
    }
  }
}
layer {
  name: "res1_branch2a_relu"
  type: "ReLU"
  bottom: "res1_branch2a"
  top: "res1_branch2a"
}
layer {
  name: "res1_branch2b"
  type: "Convolution"
  bottom: "res1_branch2a"
  top: "res1_branch2b"
  param {
    lr_mult: 0
    decay_mult: 1
  }
  convolution_param {
    num_output: 64
    bias_term: false
    pad: 1
    kernel_size: 3
    stride: 1
    weight_filler {
      type: "gaussian"
      std: 0.01
    }
  }
}
layer {
  name: "bn1_branch2b"
  type: "BatchNorm"
  bottom: "res1_branch2b"
  top: "res1_branch2b"
  param {
    lr_mult: 0
    decay_mult: 0
  }
  param {
    lr_mult: 0
    decay_mult: 0
  }
  param {
    lr_mult: 0
    decay_mult: 0
  }
  batch_norm_param {
    eps: 0.001
  }
}
layer {
  name: "scale1_branch2b"
  type: "Scale"
  bottom: "res1_branch2b"
  top: "res1_branch2b"
  param {
    lr_mult: 0
    decay_mult: 1
  }
  param {
    lr_mult: 0
    decay_mult: 0
  }
  scale_param {
    filler {
      type: "constant"
      value: 1
    }
    bias_term: true
    bias_filler {
      type: "constant"
      value: 0
    }
  }
}
layer {
  name: "res1_branch2b_relu"
  type: "ReLU"
  bottom: "res1_branch2b"
  top: "res1_branch2b"
}
layer {
  name: "res1_branch2c"
  type: "Convolution"
  bottom: "res1_branch2b"
  top: "res1_branch2c"
  param {
    lr_mult: 0
    decay_mult: 1
  }
  convolution_param {
    num_output: 128
    bias_term: false
    pad: 0
    kernel_size: 1
    stride: 1
    weight_filler {
      type: "gaussian"
      std: 0.01
    }
  }
}
layer {
  name: "bn1_branch2c"
  type: "BatchNorm"
  bottom: "res1_branch2c"
  top: "res1_branch2c"
  param {
    lr_mult: 0
    decay_mult: 0
  }
  param {
    lr_mult: 0
    decay_mult: 0
  }
  param {
    lr_mult: 0
    decay_mult: 0
  }
  batch_norm_param {
    eps: 0.001
  }
}
layer {
  name: "scale1_branch2c"
  type: "Scale"
  bottom: "res1_branch2c"
  top: "res1_branch2c"
  param {
    lr_mult: 0
    decay_mult: 1
  }
  param {
    lr_mult: 0
    decay_mult: 0
  }
  scale_param {
    filler {
      type: "constant"
      value: 1
    }
    bias_term: true
    bias_filler {
      type: "constant"
      value: 0
    }
  }
}
layer {
  name: "res1"
  type: "Eltwise"
  bottom: "res1_branch1"
  bottom: "res1_branch2c"
  top: "res1"
}
layer {
  name: "res1_relu"
  type: "ReLU"
  bottom: "res1"
  top: "res1"
}
layer {
  name: "pool1"
  type: "Pooling"
  bottom: "res1"
  top: "pool1"
  pooling_param {
    pool: MAX
    kernel_size: 2
    stride: 2
  }
}
layer {
  name: "res4_branch2a"
  type: "Convolution"
  bottom: "pool1"
  top: "res4_branch2a"
  param {
    lr_mult: 0
    decay_mult: 1
  }
  convolution_param {
    num_output: 64
    bias_term: false
    pad: 0
    kernel_size: 1
    stride: 1
    weight_filler {
      type: "gaussian"
      std: 0.01
    }
  }
}
layer {
  name: "bn4_branch2a"
  type: "BatchNorm"
  bottom: "res4_branch2a"
  top: "res4_branch2a"
  param {
    lr_mult: 0
    decay_mult: 0
  }
  param {
    lr_mult: 0
    decay_mult: 0
  }
  param {
    lr_mult: 0
    decay_mult: 0
  }
  batch_norm_param {
    eps: 0.001
  }
}
layer {
  name: "scale4_branch2a"
  type: "Scale"
  bottom: "res4_branch2a"
  top: "res4_branch2a"
  param {
    lr_mult: 0
    decay_mult: 1
  }
  param {
    lr_mult: 0
    decay_mult: 0
  }
  scale_param {
    filler {
      type: "constant"
      value: 1
    }
    bias_term: true
    bias_filler {
      type: "constant"
      value: 0
    }
  }
}
layer {
  name: "res4_branch2a_relu"
  type: "ReLU"
  bottom: "res4_branch2a"
  top: "res4_branch2a"
}
layer {
  name: "res4_branch2b"
  type: "Convolution"
  bottom: "res4_branch2a"
  top: "res4_branch2b"
  param {
    lr_mult: 0
    decay_mult: 1
  }
  convolution_param {
    num_output: 64
    bias_term: false
    pad: 1
    kernel_size: 3
    stride: 1
    weight_filler {
      type: "gaussian"
      std: 0.01
    }
  }
}
layer {
  name: "bn4_branch2b"
  type: "BatchNorm"
  bottom: "res4_branch2b"
  top: "res4_branch2b"
  param {
    lr_mult: 0
    decay_mult: 0
  }
  param {
    lr_mult: 0
    decay_mult: 0
  }
  param {
    lr_mult: 0
    decay_mult: 0
  }
  batch_norm_param {
    eps: 0.001
  }
}
layer {
  name: "scale4_branch2b"
  type: "Scale"
  bottom: "res4_branch2b"
  top: "res4_branch2b"
  param {
    lr_mult: 0
    decay_mult: 1
  }
  param {
    lr_mult: 0
    decay_mult: 0
  }
  scale_param {
    filler {
      type: "constant"
      value: 1
    }
    bias_term: true
    bias_filler {
      type: "constant"
      value: 0
    }
  }
}
layer {
  name: "res4_branch2b_relu"
  type: "ReLU"
  bottom: "res4_branch2b"
  top: "res4_branch2b"
}
layer {
  name: "res4_branch2c"
  type: "Convolution"
  bottom: "res4_branch2b"
  top: "res4_branch2c"
  param {
    lr_mult: 0
    decay_mult: 1
  }
  convolution_param {
    num_output: 128
    bias_term: false
    pad: 0
    kernel_size: 1
    stride: 1
    weight_filler {
      type: "gaussian"
      std: 0.01
    }
  }
}
layer {
  name: "bn4_branch2c"
  type: "BatchNorm"
  bottom: "res4_branch2c"
  top: "res4_branch2c"
  param {
    lr_mult: 0
    decay_mult: 0
  }
  param {
    lr_mult: 0
    decay_mult: 0
  }
  param {
    lr_mult: 0
    decay_mult: 0
  }
  batch_norm_param {
    eps: 0.001
  }
}
layer {
  name: "scale4_branch2c"
  type: "Scale"
  bottom: "res4_branch2c"
  top: "res4_branch2c"
  param {
    lr_mult: 0
    decay_mult: 1
  }
  param {
    lr_mult: 0
    decay_mult: 0
  }
  scale_param {
    filler {
      type: "constant"
      value: 1
    }
    bias_term: true
    bias_filler {
      type: "constant"
      value: 0
    }
  }
}
layer {
  name: "res4"
  type: "Eltwise"
  bottom: "pool1"
  bottom: "res4_branch2c"
  top: "res4"
}
layer {
  name: "res4_relu"
  type: "ReLU"
  bottom: "res4"
  top: "res4"
}
layer {
  name: "res5_branch2a"
  type: "Convolution"
  bottom: "res4"
  top: "res5_branch2a"
  param {
    lr_mult: 0
    decay_mult: 1
  }
  convolution_param {
    num_output: 64
    bias_term: false
    pad: 0
    kernel_size: 1
    stride: 1
    weight_filler {
      type: "gaussian"
      std: 0.01
    }
  }
}
layer {
  name: "bn5_branch2a"
  type: "BatchNorm"
  bottom: "res5_branch2a"
  top: "res5_branch2a"
  param {
    lr_mult: 0
    decay_mult: 0
  }
  param {
    lr_mult: 0
    decay_mult: 0
  }
  param {
    lr_mult: 0
    decay_mult: 0
  }
  batch_norm_param {
    eps: 0.001
  }
}
layer {
  name: "scale5_branch2a"
  type: "Scale"
  bottom: "res5_branch2a"
  top: "res5_branch2a"
  param {
    lr_mult: 0
    decay_mult: 1
  }
  param {
    lr_mult: 0
    decay_mult: 0
  }
  scale_param {
    filler {
      type: "constant"
      value: 1
    }
    bias_term: true
    bias_filler {
      type: "constant"
      value: 0
    }
  }
}
layer {
  name: "res5_branch2a_relu"
  type: "ReLU"
  bottom: "res5_branch2a"
  top: "res5_branch2a"
}
layer {
  name: "res5_branch2b"
  type: "Convolution"
  bottom: "res5_branch2a"
  top: "res5_branch2b"
  param {
    lr_mult: 0
    decay_mult: 1
  }
  convolution_param {
    num_output: 64
    bias_term: false
    pad: 1
    kernel_size: 3
    stride: 1
    weight_filler {
      type: "gaussian"
      std: 0.01
    }
  }
}
layer {
  name: "bn5_branch2b"
  type: "BatchNorm"
  bottom: "res5_branch2b"
  top: "res5_branch2b"
  param {
    lr_mult: 0
    decay_mult: 0
  }
  param {
    lr_mult: 0
    decay_mult: 0
  }
  param {
    lr_mult: 0
    decay_mult: 0
  }
  batch_norm_param {
    eps: 0.001
  }
}
layer {
  name: "scale5_branch2b"
  type: "Scale"
  bottom: "res5_branch2b"
  top: "res5_branch2b"
  param {
    lr_mult: 0
    decay_mult: 1
  }
  param {
    lr_mult: 0
    decay_mult: 0
  }
  scale_param {
    filler {
      type: "constant"
      value: 1
    }
    bias_term: true
    bias_filler {
      type: "constant"
      value: 0
    }
  }
}
layer {
  name: "res5_branch2b_relu"
  type: "ReLU"
  bottom: "res5_branch2b"
  top: "res5_branch2b"
}
layer {
  name: "res5_branch2c"
  type: "Convolution"
  bottom: "res5_branch2b"
  top: "res5_branch2c"
  param {
    lr_mult: 0
    decay_mult: 1
  }
  convolution_param {
    num_output: 128
    bias_term: false
    pad: 0
    kernel_size: 1
    stride: 1
    weight_filler {
      type: "gaussian"
      std: 0.01
    }
  }
}
layer {
  name: "bn5_branch2c"
  type: "BatchNorm"
  bottom: "res5_branch2c"
  top: "res5_branch2c"
  param {
    lr_mult: 0
    decay_mult: 0
  }
  param {
    lr_mult: 0
    decay_mult: 0
  }
  param {
    lr_mult: 0
    decay_mult: 0
  }
  batch_norm_param {
    eps: 0.001
  }
}
layer {
  name: "scale5_branch2c"
  type: "Scale"
  bottom: "res5_branch2c"
  top: "res5_branch2c"
  param {
    lr_mult: 0
    decay_mult: 1
  }
  param {
    lr_mult: 0
    decay_mult: 0
  }
  scale_param {
    filler {
      type: "constant"
      value: 1
    }
    bias_term: true
    bias_filler {
      type: "constant"
      value: 0
    }
  }
}
layer {
  name: "res5"
  type: "Eltwise"
  bottom: "res4"
  bottom: "res5_branch2c"
  top: "res5"
}
layer {
  name: "res5_relu"
  type: "ReLU"
  bottom: "res5"
  top: "res5"
}
layer {
  name: "res6_branch1"
  type: "Convolution"
  bottom: "res5"
  top: "res6_branch1"
  param {
    lr_mult: 0
    decay_mult: 1
  }
  convolution_param {
    num_output: 256
    bias_term: false
    pad: 0
    kernel_size: 1
    stride: 1
    weight_filler {
      type: "gaussian"
      std: 0.01
    }
  }
}
layer {
  name: "bn6_branch1"
  type: "BatchNorm"
  bottom: "res6_branch1"
  top: "res6_branch1"
  param {
    lr_mult: 0
    decay_mult: 0
  }
  param {
    lr_mult: 0
    decay_mult: 0
  }
  param {
    lr_mult: 0
    decay_mult: 0
  }
  batch_norm_param {
    eps: 0.001
  }
}
layer {
  name: "scale6_branch1"
  type: "Scale"
  bottom: "res6_branch1"
  top: "res6_branch1"
  param {
    lr_mult: 0
    decay_mult: 1
  }
  param {
    lr_mult: 0
    decay_mult: 0
  }
  scale_param {
    filler {
      type: "constant"
      value: 1
    }
    bias_term: true
    bias_filler {
      type: "constant"
      value: 0
    }
  }
}
layer {
  name: "res6_branch2a"
  type: "Convolution"
  bottom: "res5"
  top: "res6_branch2a"
  param {
    lr_mult: 0
    decay_mult: 1
  }
  convolution_param {
    num_output: 128
    bias_term: false
    pad: 0
    kernel_size: 1
    stride: 1
    weight_filler {
      type: "gaussian"
      std: 0.01
    }
  }
}
layer {
  name: "bn6_branch2a"
  type: "BatchNorm"
  bottom: "res6_branch2a"
  top: "res6_branch2a"
  param {
    lr_mult: 0
    decay_mult: 0
  }
  param {
    lr_mult: 0
    decay_mult: 0
  }
  param {
    lr_mult: 0
    decay_mult: 0
  }
  batch_norm_param {
    eps: 0.001
  }
}
layer {
  name: "scale6_branch2a"
  type: "Scale"
  bottom: "res6_branch2a"
  top: "res6_branch2a"
  param {
    lr_mult: 0
    decay_mult: 1
  }
  param {
    lr_mult: 0
    decay_mult: 0
  }
  scale_param {
    filler {
      type: "constant"
      value: 1
    }
    bias_term: true
    bias_filler {
      type: "constant"
      value: 0
    }
  }
}
layer {
  name: "res6_branch2a_relu"
  type: "ReLU"
  bottom: "res6_branch2a"
  top: "res6_branch2a"
}
layer {
  name: "res6_branch2b"
  type: "Convolution"
  bottom: "res6_branch2a"
  top: "res6_branch2b"
  param {
    lr_mult: 0
    decay_mult: 1
  }
  convolution_param {
    num_output: 128
    bias_term: false
    pad: 1
    kernel_size: 3
    stride: 1
    weight_filler {
      type: "gaussian"
      std: 0.01
    }
  }
}
layer {
  name: "bn6_branch2b"
  type: "BatchNorm"
  bottom: "res6_branch2b"
  top: "res6_branch2b"
  param {
    lr_mult: 0
    decay_mult: 0
  }
  param {
    lr_mult: 0
    decay_mult: 0
  }
  param {
    lr_mult: 0
    decay_mult: 0
  }
  batch_norm_param {
    eps: 0.001
  }
}
layer {
  name: "scale6_branch2b"
  type: "Scale"
  bottom: "res6_branch2b"
  top: "res6_branch2b"
  param {
    lr_mult: 0
    decay_mult: 1
  }
  param {
    lr_mult: 0
    decay_mult: 0
  }
  scale_param {
    filler {
      type: "constant"
      value: 1
    }
    bias_term: true
    bias_filler {
      type: "constant"
      value: 0
    }
  }
}
layer {
  name: "res6_branch2b_relu"
  type: "ReLU"
  bottom: "res6_branch2b"
  top: "res6_branch2b"
}
layer {
  name: "res6_branch2c"
  type: "Convolution"
  bottom: "res6_branch2b"
  top: "res6_branch2c"
  param {
    lr_mult: 0
    decay_mult: 1
  }
  convolution_param {
    num_output: 256
    bias_term: false
    pad: 0
    kernel_size: 1
    stride: 1
    weight_filler {
      type: "gaussian"
      std: 0.01
    }
  }
}
layer {
  name: "bn6_branch2c"
  type: "BatchNorm"
  bottom: "res6_branch2c"
  top: "res6_branch2c"
  param {
    lr_mult: 0
    decay_mult: 0
  }
  param {
    lr_mult: 0
    decay_mult: 0
  }
  param {
    lr_mult: 0
    decay_mult: 0
  }
  batch_norm_param {
    eps: 0.001
  }
}
layer {
  name: "scale6_branch2c"
  type: "Scale"
  bottom: "res6_branch2c"
  top: "res6_branch2c"
  param {
    lr_mult: 0
    decay_mult: 1
  }
  param {
    lr_mult: 0
    decay_mult: 0
  }
  scale_param {
    filler {
      type: "constant"
      value: 1
    }
    bias_term: true
    bias_filler {
      type: "constant"
      value: 0
    }
  }
}
layer {
  name: "res6"
  type: "Eltwise"
  bottom: "res6_branch1"
  bottom: "res6_branch2c"
  top: "res6"
}
layer {
  name: "res6_relu"
  type: "ReLU"
  bottom: "res6"
  top: "res6"
}
layer {
  name: "reshg1_up1_branch1"
  type: "Convolution"
  bottom: "res6"
  top: "reshg1_up1_branch1"
  param {
    lr_mult: 0
    decay_mult: 1
  }
  convolution_param {
    num_output: 256
    bias_term: false
    pad: 0
    kernel_size: 1
    stride: 1
    weight_filler {
      type: "gaussian"
      std: 0.01
    }
  }
}
layer {
  name: "bnhg1_up1_branch1"
  type: "BatchNorm"
  bottom: "reshg1_up1_branch1"
  top: "reshg1_up1_branch1"
  param {
    lr_mult: 0
    decay_mult: 0
  }
  param {
    lr_mult: 0
    decay_mult: 0
  }
  param {
    lr_mult: 0
    decay_mult: 0
  }
  batch_norm_param {
    eps: 0.001
  }
}
layer {
  name: "scalehg1_up1_branch1"
  type: "Scale"
  bottom: "reshg1_up1_branch1"
  top: "reshg1_up1_branch1"
  param {
    lr_mult: 0
    decay_mult: 1
  }
  param {
    lr_mult: 0
    decay_mult: 0
  }
  scale_param {
    filler {
      type: "constant"
      value: 1
    }
    bias_term: true
    bias_filler {
      type: "constant"
      value: 0
    }
  }
}
layer {
  name: "reshg1_up1_branch2a"
  type: "Convolution"
  bottom: "res6"
  top: "reshg1_up1_branch2a"
  param {
    lr_mult: 0
    decay_mult: 1
  }
  convolution_param {
    num_output: 128
    bias_term: false
    pad: 0
    kernel_size: 1
    stride: 1
    weight_filler {
      type: "gaussian"
      std: 0.01
    }
  }
}
layer {
  name: "bnhg1_up1_branch2a"
  type: "BatchNorm"
  bottom: "reshg1_up1_branch2a"
  top: "reshg1_up1_branch2a"
  param {
    lr_mult: 0
    decay_mult: 0
  }
  param {
    lr_mult: 0
    decay_mult: 0
  }
  param {
    lr_mult: 0
    decay_mult: 0
  }
  batch_norm_param {
    eps: 0.001
  }
}
layer {
  name: "scalehg1_up1_branch2a"
  type: "Scale"
  bottom: "reshg1_up1_branch2a"
  top: "reshg1_up1_branch2a"
  param {
    lr_mult: 0
    decay_mult: 1
  }
  param {
    lr_mult: 0
    decay_mult: 0
  }
  scale_param {
    filler {
      type: "constant"
      value: 1
    }
    bias_term: true
    bias_filler {
      type: "constant"
      value: 0
    }
  }
}
layer {
  name: "reshg1_up1_branch2a_relu"
  type: "ReLU"
  bottom: "reshg1_up1_branch2a"
  top: "reshg1_up1_branch2a"
}
layer {
  name: "reshg1_up1_branch2b"
  type: "Convolution"
  bottom: "reshg1_up1_branch2a"
  top: "reshg1_up1_branch2b"
  param {
    lr_mult: 0
    decay_mult: 1
  }
  convolution_param {
    num_output: 128
    bias_term: false
    pad: 1
    kernel_size: 3
    stride: 1
    weight_filler {
      type: "gaussian"
      std: 0.01
    }
  }
}
layer {
  name: "bnhg1_up1_branch2b"
  type: "BatchNorm"
  bottom: "reshg1_up1_branch2b"
  top: "reshg1_up1_branch2b"
  param {
    lr_mult: 0
    decay_mult: 0
  }
  param {
    lr_mult: 0
    decay_mult: 0
  }
  param {
    lr_mult: 0
    decay_mult: 0
  }
  batch_norm_param {
    eps: 0.001
  }
}
layer {
  name: "scalehg1_up1_branch2b"
  type: "Scale"
  bottom: "reshg1_up1_branch2b"
  top: "reshg1_up1_branch2b"
  param {
    lr_mult: 0
    decay_mult: 1
  }
  param {
    lr_mult: 0
    decay_mult: 0
  }
  scale_param {
    filler {
      type: "constant"
      value: 1
    }
    bias_term: true
    bias_filler {
      type: "constant"
      value: 0
    }
  }
}
layer {
  name: "reshg1_up1_branch2b_relu"
  type: "ReLU"
  bottom: "reshg1_up1_branch2b"
  top: "reshg1_up1_branch2b"
}
layer {
  name: "reshg1_up1_branch2c"
  type: "Convolution"
  bottom: "reshg1_up1_branch2b"
  top: "reshg1_up1_branch2c"
  param {
    lr_mult: 0
    decay_mult: 1
  }
  convolution_param {
    num_output: 256
    bias_term: false
    pad: 0
    kernel_size: 1
    stride: 1
    weight_filler {
      type: "gaussian"
      std: 0.01
    }
  }
}
layer {
  name: "bnhg1_up1_branch2c"
  type: "BatchNorm"
  bottom: "reshg1_up1_branch2c"
  top: "reshg1_up1_branch2c"
  param {
    lr_mult: 0
    decay_mult: 0
  }
  param {
    lr_mult: 0
    decay_mult: 0
  }
  param {
    lr_mult: 0
    decay_mult: 0
  }
  batch_norm_param {
    eps: 0.001
  }
}
layer {
  name: "scalehg1_up1_branch2c"
  type: "Scale"
  bottom: "reshg1_up1_branch2c"
  top: "reshg1_up1_branch2c"
  param {
    lr_mult: 0
    decay_mult: 1
  }
  param {
    lr_mult: 0
    decay_mult: 0
  }
  scale_param {
    filler {
      type: "constant"
      value: 1
    }
    bias_term: true
    bias_filler {
      type: "constant"
      value: 0
    }
  }
}
layer {
  name: "reshg1_up1"
  type: "Eltwise"
  bottom: "reshg1_up1_branch1"
  bottom: "reshg1_up1_branch2c"
  top: "reshg1_up1"
}
layer {
  name: "reshg1_up1_relu"
  type: "ReLU"
  bottom: "reshg1_up1"
  top: "reshg1_up1"
}
layer {
  name: "reshg1_up2_branch2a"
  type: "Convolution"
  bottom: "reshg1_up1"
  top: "reshg1_up2_branch2a"
  param {
    lr_mult: 0
    decay_mult: 1
  }
  convolution_param {
    num_output: 128
    bias_term: false
    pad: 0
    kernel_size: 1
    stride: 1
    weight_filler {
      type: "gaussian"
      std: 0.01
    }
  }
}
layer {
  name: "bnhg1_up2_branch2a"
  type: "BatchNorm"
  bottom: "reshg1_up2_branch2a"
  top: "reshg1_up2_branch2a"
  param {
    lr_mult: 0
    decay_mult: 0
  }
  param {
    lr_mult: 0
    decay_mult: 0
  }
  param {
    lr_mult: 0
    decay_mult: 0
  }
  batch_norm_param {
    eps: 0.001
  }
}
layer {
  name: "scalehg1_up2_branch2a"
  type: "Scale"
  bottom: "reshg1_up2_branch2a"
  top: "reshg1_up2_branch2a"
  param {
    lr_mult: 0
    decay_mult: 1
  }
  param {
    lr_mult: 0
    decay_mult: 0
  }
  scale_param {
    filler {
      type: "constant"
      value: 1
    }
    bias_term: true
    bias_filler {
      type: "constant"
      value: 0
    }
  }
}
layer {
  name: "reshg1_up2_branch2a_relu"
  type: "ReLU"
  bottom: "reshg1_up2_branch2a"
  top: "reshg1_up2_branch2a"
}
layer {
  name: "reshg1_up2_branch2b"
  type: "Convolution"
  bottom: "reshg1_up2_branch2a"
  top: "reshg1_up2_branch2b"
  param {
    lr_mult: 0
    decay_mult: 1
  }
  convolution_param {
    num_output: 128
    bias_term: false
    pad: 1
    kernel_size: 3
    stride: 1
    weight_filler {
      type: "gaussian"
      std: 0.01
    }
  }
}
layer {
  name: "bnhg1_up2_branch2b"
  type: "BatchNorm"
  bottom: "reshg1_up2_branch2b"
  top: "reshg1_up2_branch2b"
  param {
    lr_mult: 0
    decay_mult: 0
  }
  param {
    lr_mult: 0
    decay_mult: 0
  }
  param {
    lr_mult: 0
    decay_mult: 0
  }
  batch_norm_param {
    eps: 0.001
  }
}
layer {
  name: "scalehg1_up2_branch2b"
  type: "Scale"
  bottom: "reshg1_up2_branch2b"
  top: "reshg1_up2_branch2b"
  param {
    lr_mult: 0
    decay_mult: 1
  }
  param {
    lr_mult: 0
    decay_mult: 0
  }
  scale_param {
    filler {
      type: "constant"
      value: 1
    }
    bias_term: true
    bias_filler {
      type: "constant"
      value: 0
    }
  }
}
layer {
  name: "reshg1_up2_branch2b_relu"
  type: "ReLU"
  bottom: "reshg1_up2_branch2b"
  top: "reshg1_up2_branch2b"
}
layer {
  name: "reshg1_up2_branch2c"
  type: "Convolution"
  bottom: "reshg1_up2_branch2b"
  top: "reshg1_up2_branch2c"
  param {
    lr_mult: 0
    decay_mult: 1
  }
  convolution_param {
    num_output: 256
    bias_term: false
    pad: 0
    kernel_size: 1
    stride: 1
    weight_filler {
      type: "gaussian"
      std: 0.01
    }
  }
}
layer {
  name: "bnhg1_up2_branch2c"
  type: "BatchNorm"
  bottom: "reshg1_up2_branch2c"
  top: "reshg1_up2_branch2c"
  param {
    lr_mult: 0
    decay_mult: 0
  }
  param {
    lr_mult: 0
    decay_mult: 0
  }
  param {
    lr_mult: 0
    decay_mult: 0
  }
  batch_norm_param {
    eps: 0.001
  }
}
layer {
  name: "scalehg1_up2_branch2c"
  type: "Scale"
  bottom: "reshg1_up2_branch2c"
  top: "reshg1_up2_branch2c"
  param {
    lr_mult: 0
    decay_mult: 1
  }
  param {
    lr_mult: 0
    decay_mult: 0
  }
  scale_param {
    filler {
      type: "constant"
      value: 1
    }
    bias_term: true
    bias_filler {
      type: "constant"
      value: 0
    }
  }
}
layer {
  name: "reshg1_up2"
  type: "Eltwise"
  bottom: "reshg1_up1"
  bottom: "reshg1_up2_branch2c"
  top: "reshg1_up2"
}
layer {
  name: "reshg1_up2_relu"
  type: "ReLU"
  bottom: "reshg1_up2"
  top: "reshg1_up2"
}
layer {
  name: "reshg1_up4_branch1"
  type: "Convolution"
  bottom: "reshg1_up2"
  top: "reshg1_up4_branch1"
  param {
    lr_mult: 0
    decay_mult: 1
  }
  convolution_param {
    num_output: 512
    bias_term: false
    pad: 0
    kernel_size: 1
    stride: 1
    weight_filler {
      type: "gaussian"
      std: 0.01
    }
  }
}
layer {
  name: "bnhg1_up4_branch1"
  type: "BatchNorm"
  bottom: "reshg1_up4_branch1"
  top: "reshg1_up4_branch1"
  param {
    lr_mult: 0
    decay_mult: 0
  }
  param {
    lr_mult: 0
    decay_mult: 0
  }
  param {
    lr_mult: 0
    decay_mult: 0
  }
  batch_norm_param {
    eps: 0.001
  }
}
layer {
  name: "scalehg1_up4_branch1"
  type: "Scale"
  bottom: "reshg1_up4_branch1"
  top: "reshg1_up4_branch1"
  param {
    lr_mult: 0
    decay_mult: 1
  }
  param {
    lr_mult: 0
    decay_mult: 0
  }
  scale_param {
    filler {
      type: "constant"
      value: 1
    }
    bias_term: true
    bias_filler {
      type: "constant"
      value: 0
    }
  }
}
layer {
  name: "reshg1_up4_branch2a"
  type: "Convolution"
  bottom: "reshg1_up2"
  top: "reshg1_up4_branch2a"
  param {
    lr_mult: 0
    decay_mult: 1
  }
  convolution_param {
    num_output: 256
    bias_term: false
    pad: 0
    kernel_size: 1
    stride: 1
    weight_filler {
      type: "gaussian"
      std: 0.01
    }
  }
}
layer {
  name: "bnhg1_up4_branch2a"
  type: "BatchNorm"
  bottom: "reshg1_up4_branch2a"
  top: "reshg1_up4_branch2a"
  param {
    lr_mult: 0
    decay_mult: 0
  }
  param {
    lr_mult: 0
    decay_mult: 0
  }
  param {
    lr_mult: 0
    decay_mult: 0
  }
  batch_norm_param {
    eps: 0.001
  }
}
layer {
  name: "scalehg1_up4_branch2a"
  type: "Scale"
  bottom: "reshg1_up4_branch2a"
  top: "reshg1_up4_branch2a"
  param {
    lr_mult: 0
    decay_mult: 1
  }
  param {
    lr_mult: 0
    decay_mult: 0
  }
  scale_param {
    filler {
      type: "constant"
      value: 1
    }
    bias_term: true
    bias_filler {
      type: "constant"
      value: 0
    }
  }
}
layer {
  name: "reshg1_up4_branch2a_relu"
  type: "ReLU"
  bottom: "reshg1_up4_branch2a"
  top: "reshg1_up4_branch2a"
}
layer {
  name: "reshg1_up4_branch2b"
  type: "Convolution"
  bottom: "reshg1_up4_branch2a"
  top: "reshg1_up4_branch2b"
  param {
    lr_mult: 0
    decay_mult: 1
  }
  convolution_param {
    num_output: 256
    bias_term: false
    pad: 1
    kernel_size: 3
    stride: 1
    weight_filler {
      type: "gaussian"
      std: 0.01
    }
  }
}
layer {
  name: "bnhg1_up4_branch2b"
  type: "BatchNorm"
  bottom: "reshg1_up4_branch2b"
  top: "reshg1_up4_branch2b"
  param {
    lr_mult: 0
    decay_mult: 0
  }
  param {
    lr_mult: 0
    decay_mult: 0
  }
  param {
    lr_mult: 0
    decay_mult: 0
  }
  batch_norm_param {
    eps: 0.001
  }
}
layer {
  name: "scalehg1_up4_branch2b"
  type: "Scale"
  bottom: "reshg1_up4_branch2b"
  top: "reshg1_up4_branch2b"
  param {
    lr_mult: 0
    decay_mult: 1
  }
  param {
    lr_mult: 0
    decay_mult: 0
  }
  scale_param {
    filler {
      type: "constant"
      value: 1
    }
    bias_term: true
    bias_filler {
      type: "constant"
      value: 0
    }
  }
}
layer {
  name: "reshg1_up4_branch2b_relu"
  type: "ReLU"
  bottom: "reshg1_up4_branch2b"
  top: "reshg1_up4_branch2b"
}
layer {
  name: "reshg1_up4_branch2c"
  type: "Convolution"
  bottom: "reshg1_up4_branch2b"
  top: "reshg1_up4_branch2c"
  param {
    lr_mult: 0
    decay_mult: 1
  }
  convolution_param {
    num_output: 512
    bias_term: false
    pad: 0
    kernel_size: 1
    stride: 1
    weight_filler {
      type: "gaussian"
      std: 0.01
    }
  }
}
layer {
  name: "bnhg1_up4_branch2c"
  type: "BatchNorm"
  bottom: "reshg1_up4_branch2c"
  top: "reshg1_up4_branch2c"
  param {
    lr_mult: 0
    decay_mult: 0
  }
  param {
    lr_mult: 0
    decay_mult: 0
  }
  param {
    lr_mult: 0
    decay_mult: 0
  }
  batch_norm_param {
    eps: 0.001
  }
}
layer {
  name: "scalehg1_up4_branch2c"
  type: "Scale"
  bottom: "reshg1_up4_branch2c"
  top: "reshg1_up4_branch2c"
  param {
    lr_mult: 0
    decay_mult: 1
  }
  param {
    lr_mult: 0
    decay_mult: 0
  }
  scale_param {
    filler {
      type: "constant"
      value: 1
    }
    bias_term: true
    bias_filler {
      type: "constant"
      value: 0
    }
  }
}
layer {
  name: "reshg1_up4"
  type: "Eltwise"
  bottom: "reshg1_up4_branch1"
  bottom: "reshg1_up4_branch2c"
  top: "reshg1_up4"
}
layer {
  name: "reshg1_up4_relu"
  type: "ReLU"
  bottom: "reshg1_up4"
  top: "reshg1_up4"
}
layer {
  name: "hg1_pool1"
  type: "Pooling"
  bottom: "res6"
  top: "hg1_pool1"
  pooling_param {
    pool: MAX
    kernel_size: 2
    stride: 2
  }
}
layer {
  name: "reshg1_low1_branch1"
  type: "Convolution"
  bottom: "hg1_pool1"
  top: "reshg1_low1_branch1"
  param {
    lr_mult: 0
    decay_mult: 1
  }
  convolution_param {
    num_output: 256
    bias_term: false
    pad: 0
    kernel_size: 1
    stride: 1
    weight_filler {
      type: "gaussian"
      std: 0.01
    }
  }
}
layer {
  name: "bnhg1_low1_branch1"
  type: "BatchNorm"
  bottom: "reshg1_low1_branch1"
  top: "reshg1_low1_branch1"
  param {
    lr_mult: 0
    decay_mult: 0
  }
  param {
    lr_mult: 0
    decay_mult: 0
  }
  param {
    lr_mult: 0
    decay_mult: 0
  }
I0903 18:00:12.192379 23978 layer_factory.hpp:77] Creating layer data
I0903 18:00:12.192426 23978 net.cpp:100] Creating Layer data
I0903 18:00:12.192436 23978 net.cpp:408] data -> data
I0903 18:00:12.192461 23978 net.cpp:408] data -> label
I0903 18:00:12.192790 23978 data_heatmap.cpp:61] using joint inds:
I0903 18:00:12.192801 23978 data_heatmap.cpp:72] Loading annotation from data/MPII/train.txt
I0903 18:00:12.350096 23978 data_heatmap.cpp:199] output data size: 2,3,256,256
I0903 18:00:12.350119 23978 data_heatmap.cpp:200] output label size: 2,16,64,64
I0903 18:00:12.350124 23978 data_heatmap.cpp:201] number of label channels: 16
I0903 18:00:12.350127 23978 data_heatmap.cpp:202] datum channels: 3
I0903 18:00:12.353384 23978 net.cpp:150] Setting up data
I0903 18:00:12.353413 23978 net.cpp:157] Top shape: 2 3 256 256 (393216)
I0903 18:00:12.353420 23978 net.cpp:157] Top shape: 2 16 64 64 (131072)
I0903 18:00:12.353423 23978 net.cpp:165] Memory required for data: 2097152
I0903 18:00:12.353435 23978 layer_factory.hpp:77] Creating layer data_data_0_split
I0903 18:00:12.353452 23978 net.cpp:100] Creating Layer data_data_0_split
I0903 18:00:12.353459 23978 net.cpp:434] data_data_0_split <- data
I0903 18:00:12.353476 23978 net.cpp:408] data_data_0_split -> data_data_0_split_0
I0903 18:00:12.353490 23978 net.cpp:408] data_data_0_split -> data_data_0_split_1
I0903 18:00:12.353533 23978 net.cpp:150] Setting up data_data_0_split
I0903 18:00:12.353541 23978 net.cpp:157] Top shape: 2 3 256 256 (393216)
I0903 18:00:12.353548 23978 net.cpp:157] Top shape: 2 3 256 256 (393216)
I0903 18:00:12.353552 23978 net.cpp:165] Memory required for data: 5242880
I0903 18:00:12.353556 23978 layer_factory.hpp:77] Creating layer conv1
I0903 18:00:12.353574 23978 net.cpp:100] Creating Layer conv1
I0903 18:00:12.353577 23978 net.cpp:434] conv1 <- data_data_0_split_0
I0903 18:00:12.353586 23978 net.cpp:408] conv1 -> conv1
I0903 18:00:12.354327 23978 net.cpp:150] Setting up conv1
I0903 18:00:12.354347 23978 net.cpp:157] Top shape: 2 64 128 128 (2097152)
I0903 18:00:12.354352 23978 net.cpp:165] Memory required for data: 13631488
I0903 18:00:12.354367 23978 layer_factory.hpp:77] Creating layer bn_conv1
I0903 18:00:12.354378 23978 net.cpp:100] Creating Layer bn_conv1
I0903 18:00:12.354382 23978 net.cpp:434] bn_conv1 <- conv1
I0903 18:00:12.354389 23978 net.cpp:395] bn_conv1 -> conv1 (in-place)
I0903 18:00:12.354537 23978 net.cpp:150] Setting up bn_conv1
I0903 18:00:12.354544 23978 net.cpp:157] Top shape: 2 64 128 128 (2097152)
I0903 18:00:12.354548 23978 net.cpp:165] Memory required for data: 22020096
I0903 18:00:12.354562 23978 layer_factory.hpp:77] Creating layer scale_conv1
I0903 18:00:12.354573 23978 net.cpp:100] Creating Layer scale_conv1
I0903 18:00:12.354578 23978 net.cpp:434] scale_conv1 <- conv1
I0903 18:00:12.354584 23978 net.cpp:395] scale_conv1 -> conv1 (in-place)
I0903 18:00:12.354620 23978 layer_factory.hpp:77] Creating layer scale_conv1
I0903 18:00:12.354717 23978 net.cpp:150] Setting up scale_conv1
I0903 18:00:12.354725 23978 net.cpp:157] Top shape: 2 64 128 128 (2097152)
I0903 18:00:12.354730 23978 net.cpp:165] Memory required for data: 30408704
I0903 18:00:12.354739 23978 layer_factory.hpp:77] Creating layer conv1_relu
I0903 18:00:12.354748 23978 net.cpp:100] Creating Layer conv1_relu
I0903 18:00:12.354753 23978 net.cpp:434] conv1_relu <- conv1
I0903 18:00:12.354758 23978 net.cpp:395] conv1_relu -> conv1 (in-place)
I0903 18:00:12.354766 23978 net.cpp:150] Setting up conv1_relu
I0903 18:00:12.354773 23978 net.cpp:157] Top shape: 2 64 128 128 (2097152)
I0903 18:00:12.354778 23978 net.cpp:165] Memory required for data: 38797312
I0903 18:00:12.354781 23978 layer_factory.hpp:77] Creating layer conv1_conv1_relu_0_split
I0903 18:00:12.354789 23978 net.cpp:100] Creating Layer conv1_conv1_relu_0_split
I0903 18:00:12.354792 23978 net.cpp:434] conv1_conv1_relu_0_split <- conv1
I0903 18:00:12.354800 23978 net.cpp:408] conv1_conv1_relu_0_split -> conv1_conv1_relu_0_split_0
I0903 18:00:12.354809 23978 net.cpp:408] conv1_conv1_relu_0_split -> conv1_conv1_relu_0_split_1
I0903 18:00:12.354837 23978 net.cpp:150] Setting up conv1_conv1_relu_0_split
I0903 18:00:12.354845 23978 net.cpp:157] Top shape: 2 64 128 128 (2097152)
I0903 18:00:12.354851 23978 net.cpp:157] Top shape: 2 64 128 128 (2097152)
I0903 18:00:12.354856 23978 net.cpp:165] Memory required for data: 55574528
I0903 18:00:12.354861 23978 layer_factory.hpp:77] Creating layer res1_branch1
I0903 18:00:12.354871 23978 net.cpp:100] Creating Layer res1_branch1
I0903 18:00:12.354874 23978 net.cpp:434] res1_branch1 <- conv1_conv1_relu_0_split_0
I0903 18:00:12.354882 23978 net.cpp:408] res1_branch1 -> res1_branch1
I0903 18:00:12.355072 23978 net.cpp:150] Setting up res1_branch1
I0903 18:00:12.355079 23978 net.cpp:157] Top shape: 2 128 128 128 (4194304)
I0903 18:00:12.355083 23978 net.cpp:165] Memory required for data: 72351744
I0903 18:00:12.355089 23978 layer_factory.hpp:77] Creating layer bn1_branch1
I0903 18:00:12.355101 23978 net.cpp:100] Creating Layer bn1_branch1
I0903 18:00:12.355105 23978 net.cpp:434] bn1_branch1 <- res1_branch1
I0903 18:00:12.355113 23978 net.cpp:395] bn1_branch1 -> res1_branch1 (in-place)
I0903 18:00:12.355237 23978 net.cpp:150] Setting up bn1_branch1
I0903 18:00:12.355244 23978 net.cpp:157] Top shape: 2 128 128 128 (4194304)
I0903 18:00:12.355248 23978 net.cpp:165] Memory required for data: 89128960
I0903 18:00:12.355260 23978 layer_factory.hpp:77] Creating layer scale1_branch1
I0903 18:00:12.355268 23978 net.cpp:100] Creating Layer scale1_branch1
I0903 18:00:12.355273 23978 net.cpp:434] scale1_branch1 <- res1_branch1
I0903 18:00:12.355281 23978 net.cpp:395] scale1_branch1 -> res1_branch1 (in-place)
I0903 18:00:12.355311 23978 layer_factory.hpp:77] Creating layer scale1_branch1
I0903 18:00:12.355398 23978 net.cpp:150] Setting up scale1_branch1
I0903 18:00:12.355406 23978 net.cpp:157] Top shape: 2 128 128 128 (4194304)
I0903 18:00:12.355412 23978 net.cpp:165] Memory required for data: 105906176
I0903 18:00:12.355427 23978 layer_factory.hpp:77] Creating layer res1_branch2a
I0903 18:00:12.355437 23978 net.cpp:100] Creating Layer res1_branch2a
I0903 18:00:12.355443 23978 net.cpp:434] res1_branch2a <- conv1_conv1_relu_0_split_1
I0903 18:00:12.355451 23978 net.cpp:408] res1_branch2a -> res1_branch2a
I0903 18:00:12.355937 23978 net.cpp:150] Setting up res1_branch2a
I0903 18:00:12.355949 23978 net.cpp:157] Top shape: 2 64 128 128 (2097152)
I0903 18:00:12.355953 23978 net.cpp:165] Memory required for data: 114294784
I0903 18:00:12.355959 23978 layer_factory.hpp:77] Creating layer bn1_branch2a
I0903 18:00:12.355968 23978 net.cpp:100] Creating Layer bn1_branch2a
I0903 18:00:12.355973 23978 net.cpp:434] bn1_branch2a <- res1_branch2a
I0903 18:00:12.355981 23978 net.cpp:395] bn1_branch2a -> res1_branch2a (in-place)
I0903 18:00:12.356117 23978 net.cpp:150] Setting up bn1_branch2a
I0903 18:00:12.356125 23978 net.cpp:157] Top shape: 2 64 128 128 (2097152)
I0903 18:00:12.356129 23978 net.cpp:165] Memory required for data: 122683392
I0903 18:00:12.356138 23978 layer_factory.hpp:77] Creating layer scale1_branch2a
I0903 18:00:12.356147 23978 net.cpp:100] Creating Layer scale1_branch2a
I0903 18:00:12.356151 23978 net.cpp:434] scale1_branch2a <- res1_branch2a
I0903 18:00:12.356160 23978 net.cpp:395] scale1_branch2a -> res1_branch2a (in-place)
I0903 18:00:12.356191 23978 layer_factory.hpp:77] Creating layer scale1_branch2a
I0903 18:00:12.356286 23978 net.cpp:150] Setting up scale1_branch2a
I0903 18:00:12.356293 23978 net.cpp:157] Top shape: 2 64 128 128 (2097152)
I0903 18:00:12.356297 23978 net.cpp:165] Memory required for data: 131072000
I0903 18:00:12.356308 23978 layer_factory.hpp:77] Creating layer res1_branch2a_relu
I0903 18:00:12.356317 23978 net.cpp:100] Creating Layer res1_branch2a_relu
I0903 18:00:12.356338 23978 net.cpp:434] res1_branch2a_relu <- res1_branch2a
I0903 18:00:12.356344 23978 net.cpp:395] res1_branch2a_relu -> res1_branch2a (in-place)
I0903 18:00:12.356353 23978 net.cpp:150] Setting up res1_branch2a_relu
I0903 18:00:12.356359 23978 net.cpp:157] Top shape: 2 64 128 128 (2097152)
I0903 18:00:12.356364 23978 net.cpp:165] Memory required for data: 139460608
I0903 18:00:12.356367 23978 layer_factory.hpp:77] Creating layer res1_branch2b
I0903 18:00:12.356379 23978 net.cpp:100] Creating Layer res1_branch2b
I0903 18:00:12.356382 23978 net.cpp:434] res1_branch2b <- res1_branch2a
I0903 18:00:12.356389 23978 net.cpp:408] res1_branch2b -> res1_branch2b
I0903 18:00:12.357152 23978 net.cpp:150] Setting up res1_branch2b
I0903 18:00:12.357163 23978 net.cpp:157] Top shape: 2 64 128 128 (2097152)
I0903 18:00:12.357167 23978 net.cpp:165] Memory required for data: 147849216
I0903 18:00:12.357173 23978 layer_factory.hpp:77] Creating layer bn1_branch2b
I0903 18:00:12.357182 23978 net.cpp:100] Creating Layer bn1_branch2b
I0903 18:00:12.357187 23978 net.cpp:434] bn1_branch2b <- res1_branch2b
I0903 18:00:12.357194 23978 net.cpp:395] bn1_branch2b -> res1_branch2b (in-place)
I0903 18:00:12.357332 23978 net.cpp:150] Setting up bn1_branch2b
I0903 18:00:12.357339 23978 net.cpp:157] Top shape: 2 64 128 128 (2097152)
I0903 18:00:12.357345 23978 net.cpp:165] Memory required for data: 156237824
I0903 18:00:12.357353 23978 layer_factory.hpp:77] Creating layer scale1_branch2b
I0903 18:00:12.357365 23978 net.cpp:100] Creating Layer scale1_branch2b
I0903 18:00:12.357369 23978 net.cpp:434] scale1_branch2b <- res1_branch2b
I0903 18:00:12.357377 23978 net.cpp:395] scale1_branch2b -> res1_branch2b (in-place)
I0903 18:00:12.357410 23978 layer_factory.hpp:77] Creating layer scale1_branch2b
I0903 18:00:12.357502 23978 net.cpp:150] Setting up scale1_branch2b
I0903 18:00:12.357511 23978 net.cpp:157] Top shape: 2 64 128 128 (2097152)
I0903 18:00:12.357514 23978 net.cpp:165] Memory required for data: 164626432
I0903 18:00:12.357522 23978 layer_factory.hpp:77] Creating layer res1_branch2b_relu
I0903 18:00:12.357532 23978 net.cpp:100] Creating Layer res1_branch2b_relu
I0903 18:00:12.357535 23978 net.cpp:434] res1_branch2b_relu <- res1_branch2b
I0903 18:00:12.357542 23978 net.cpp:395] res1_branch2b_relu -> res1_branch2b (in-place)
I0903 18:00:12.357558 23978 net.cpp:150] Setting up res1_branch2b_relu
I0903 18:00:12.357565 23978 net.cpp:157] Top shape: 2 64 128 128 (2097152)
I0903 18:00:12.357569 23978 net.cpp:165] Memory required for data: 173015040
I0903 18:00:12.357574 23978 layer_factory.hpp:77] Creating layer res1_branch2c
I0903 18:00:12.357586 23978 net.cpp:100] Creating Layer res1_branch2c
I0903 18:00:12.357591 23978 net.cpp:434] res1_branch2c <- res1_branch2b
I0903 18:00:12.357599 23978 net.cpp:408] res1_branch2c -> res1_branch2c
I0903 18:00:12.357787 23978 net.cpp:150] Setting up res1_branch2c
I0903 18:00:12.357795 23978 net.cpp:157] Top shape: 2 128 128 128 (4194304)
I0903 18:00:12.357800 23978 net.cpp:165] Memory required for data: 189792256
I0903 18:00:12.357806 23978 layer_factory.hpp:77] Creating layer bn1_branch2c
I0903 18:00:12.357815 23978 net.cpp:100] Creating Layer bn1_branch2c
I0903 18:00:12.357820 23978 net.cpp:434] bn1_branch2c <- res1_branch2c
I0903 18:00:12.357825 23978 net.cpp:395] bn1_branch2c -> res1_branch2c (in-place)
I0903 18:00:12.357956 23978 net.cpp:150] Setting up bn1_branch2c
I0903 18:00:12.357964 23978 net.cpp:157] Top shape: 2 128 128 128 (4194304)
I0903 18:00:12.357967 23978 net.cpp:165] Memory required for data: 206569472
I0903 18:00:12.357977 23978 layer_factory.hpp:77] Creating layer scale1_branch2c
I0903 18:00:12.357987 23978 net.cpp:100] Creating Layer scale1_branch2c
I0903 18:00:12.357991 23978 net.cpp:434] scale1_branch2c <- res1_branch2c
I0903 18:00:12.357998 23978 net.cpp:395] scale1_branch2c -> res1_branch2c (in-place)
I0903 18:00:12.358029 23978 layer_factory.hpp:77] Creating layer scale1_branch2c
I0903 18:00:12.358427 23978 net.cpp:150] Setting up scale1_branch2c
I0903 18:00:12.358438 23978 net.cpp:157] Top shape: 2 128 128 128 (4194304)
I0903 18:00:12.358441 23978 net.cpp:165] Memory required for data: 223346688
I0903 18:00:12.358449 23978 layer_factory.hpp:77] Creating layer res1
I0903 18:00:12.358458 23978 net.cpp:100] Creating Layer res1
I0903 18:00:12.358463 23978 net.cpp:434] res1 <- res1_branch1
I0903 18:00:12.358469 23978 net.cpp:434] res1 <- res1_branch2c
I0903 18:00:12.358476 23978 net.cpp:408] res1 -> res1
I0903 18:00:12.358500 23978 net.cpp:150] Setting up res1
I0903 18:00:12.358507 23978 net.cpp:157] Top shape: 2 128 128 128 (4194304)
I0903 18:00:12.358512 23978 net.cpp:165] Memory required for data: 240123904
I0903 18:00:12.358516 23978 layer_factory.hpp:77] Creating layer res1_relu
I0903 18:00:12.358525 23978 net.cpp:100] Creating Layer res1_relu
I0903 18:00:12.358530 23978 net.cpp:434] res1_relu <- res1
I0903 18:00:12.358536 23978 net.cpp:395] res1_relu -> res1 (in-place)
I0903 18:00:12.358542 23978 net.cpp:150] Setting up res1_relu
I0903 18:00:12.358549 23978 net.cpp:157] Top shape: 2 128 128 128 (4194304)
I0903 18:00:12.358553 23978 net.cpp:165] Memory required for data: 256901120
I0903 18:00:12.358557 23978 layer_factory.hpp:77] Creating layer pool1
I0903 18:00:12.358566 23978 net.cpp:100] Creating Layer pool1
I0903 18:00:12.358569 23978 net.cpp:434] pool1 <- res1
I0903 18:00:12.358575 23978 net.cpp:408] pool1 -> pool1
I0903 18:00:12.358613 23978 net.cpp:150] Setting up pool1
I0903 18:00:12.358621 23978 net.cpp:157] Top shape: 2 128 64 64 (1048576)
I0903 18:00:12.358626 23978 net.cpp:165] Memory required for data: 261095424
I0903 18:00:12.358630 23978 layer_factory.hpp:77] Creating layer pool1_pool1_0_split
I0903 18:00:12.358639 23978 net.cpp:100] Creating Layer pool1_pool1_0_split
I0903 18:00:12.358644 23978 net.cpp:434] pool1_pool1_0_split <- pool1
I0903 18:00:12.358651 23978 net.cpp:408] pool1_pool1_0_split -> pool1_pool1_0_split_0
I0903 18:00:12.358660 23978 net.cpp:408] pool1_pool1_0_split -> pool1_pool1_0_split_1
I0903 18:00:12.358669 23978 net.cpp:408] pool1_pool1_0_split -> pool1_pool1_0_split_2
I0903 18:00:12.358706 23978 net.cpp:150] Setting up pool1_pool1_0_split
I0903 18:00:12.358713 23978 net.cpp:157] Top shape: 2 128 64 64 (1048576)
I0903 18:00:12.358719 23978 net.cpp:157] Top shape: 2 128 64 64 (1048576)
I0903 18:00:12.358733 23978 net.cpp:157] Top shape: 2 128 64 64 (1048576)
I0903 18:00:12.358738 23978 net.cpp:165] Memory required for data: 273678336
I0903 18:00:12.358742 23978 layer_factory.hpp:77] Creating layer res4_branch2a
I0903 18:00:12.358755 23978 net.cpp:100] Creating Layer res4_branch2a
I0903 18:00:12.358760 23978 net.cpp:434] res4_branch2a <- pool1_pool1_0_split_0
I0903 18:00:12.358769 23978 net.cpp:408] res4_branch2a -> res4_branch2a
I0903 18:00:12.358964 23978 net.cpp:150] Setting up res4_branch2a
I0903 18:00:12.358973 23978 net.cpp:157] Top shape: 2 64 64 64 (524288)
I0903 18:00:12.358978 23978 net.cpp:165] Memory required for data: 275775488
I0903 18:00:12.358985 23978 layer_factory.hpp:77] Creating layer bn4_branch2a
I0903 18:00:12.358994 23978 net.cpp:100] Creating Layer bn4_branch2a
I0903 18:00:12.358997 23978 net.cpp:434] bn4_branch2a <- res4_branch2a
I0903 18:00:12.359005 23978 net.cpp:395] bn4_branch2a -> res4_branch2a (in-place)
I0903 18:00:12.359143 23978 net.cpp:150] Setting up bn4_branch2a
I0903 18:00:12.359150 23978 net.cpp:157] Top shape: 2 64 64 64 (524288)
I0903 18:00:12.359155 23978 net.cpp:165] Memory required for data: 277872640
I0903 18:00:12.359166 23978 layer_factory.hpp:77] Creating layer scale4_branch2a
I0903 18:00:12.359176 23978 net.cpp:100] Creating Layer scale4_branch2a
I0903 18:00:12.359181 23978 net.cpp:434] scale4_branch2a <- res4_branch2a
I0903 18:00:12.359187 23978 net.cpp:395] scale4_branch2a -> res4_branch2a (in-place)
I0903 18:00:12.359221 23978 layer_factory.hpp:77] Creating layer scale4_branch2a
I0903 18:00:12.359303 23978 net.cpp:150] Setting up scale4_branch2a
I0903 18:00:12.359310 23978 net.cpp:157] Top shape: 2 64 64 64 (524288)
I0903 18:00:12.359314 23978 net.cpp:165] Memory required for data: 279969792
I0903 18:00:12.359323 23978 layer_factory.hpp:77] Creating layer res4_branch2a_relu
I0903 18:00:12.359329 23978 net.cpp:100] Creating Layer res4_branch2a_relu
I0903 18:00:12.359334 23978 net.cpp:434] res4_branch2a_relu <- res4_branch2a
I0903 18:00:12.359343 23978 net.cpp:395] res4_branch2a_relu -> res4_branch2a (in-place)
I0903 18:00:12.359349 23978 net.cpp:150] Setting up res4_branch2a_relu
I0903 18:00:12.359355 23978 net.cpp:157] Top shape: 2 64 64 64 (524288)
I0903 18:00:12.359359 23978 net.cpp:165] Memory required for data: 282066944
I0903 18:00:12.359364 23978 layer_factory.hpp:77] Creating layer res4_branch2b
I0903 18:00:12.359374 23978 net.cpp:100] Creating Layer res4_branch2b
I0903 18:00:12.359377 23978 net.cpp:434] res4_branch2b <- res4_branch2a
I0903 18:00:12.359385 23978 net.cpp:408] res4_branch2b -> res4_branch2b
I0903 18:00:12.359818 23978 net.cpp:150] Setting up res4_branch2b
I0903 18:00:12.359827 23978 net.cpp:157] Top shape: 2 64 64 64 (524288)
I0903 18:00:12.359830 23978 net.cpp:165] Memory required for data: 284164096
I0903 18:00:12.359838 23978 layer_factory.hpp:77] Creating layer bn4_branch2b
I0903 18:00:12.359846 23978 net.cpp:100] Creating Layer bn4_branch2b
I0903 18:00:12.359851 23978 net.cpp:434] bn4_branch2b <- res4_branch2b
I0903 18:00:12.359858 23978 net.cpp:395] bn4_branch2b -> res4_branch2b (in-place)
I0903 18:00:12.359987 23978 net.cpp:150] Setting up bn4_branch2b
I0903 18:00:12.359994 23978 net.cpp:157] Top shape: 2 64 64 64 (524288)
I0903 18:00:12.359998 23978 net.cpp:165] Memory required for data: 286261248
I0903 18:00:12.360008 23978 layer_factory.hpp:77] Creating layer scale4_branch2b
I0903 18:00:12.360018 23978 net.cpp:100] Creating Layer scale4_branch2b
I0903 18:00:12.360023 23978 net.cpp:434] scale4_branch2b <- res4_branch2b
I0903 18:00:12.360028 23978 net.cpp:395] scale4_branch2b -> res4_branch2b (in-place)
I0903 18:00:12.360061 23978 layer_factory.hpp:77] Creating layer scale4_branch2b
I0903 18:00:12.360144 23978 net.cpp:150] Setting up scale4_branch2b
I0903 18:00:12.360152 23978 net.cpp:157] Top shape: 2 64 64 64 (524288)
I0903 18:00:12.360155 23978 net.cpp:165] Memory required for data: 288358400
I0903 18:00:12.360163 23978 layer_factory.hpp:77] Creating layer res4_branch2b_relu
I0903 18:00:12.360177 23978 net.cpp:100] Creating Layer res4_branch2b_relu
I0903 18:00:12.360188 23978 net.cpp:434] res4_branch2b_relu <- res4_branch2b
I0903 18:00:12.360193 23978 net.cpp:395] res4_branch2b_relu -> res4_branch2b (in-place)
I0903 18:00:12.360201 23978 net.cpp:150] Setting up res4_branch2b_relu
I0903 18:00:12.360208 23978 net.cpp:157] Top shape: 2 64 64 64 (524288)
I0903 18:00:12.360213 23978 net.cpp:165] Memory required for data: 290455552
I0903 18:00:12.360216 23978 layer_factory.hpp:77] Creating layer res4_branch2c
I0903 18:00:12.360229 23978 net.cpp:100] Creating Layer res4_branch2c
I0903 18:00:12.360232 23978 net.cpp:434] res4_branch2c <- res4_branch2b
I0903 18:00:12.360239 23978 net.cpp:408] res4_branch2c -> res4_branch2c
I0903 18:00:12.360440 23978 net.cpp:150] Setting up res4_branch2c
I0903 18:00:12.360450 23978 net.cpp:157] Top shape: 2 128 64 64 (1048576)
I0903 18:00:12.360452 23978 net.cpp:165] Memory required for data: 294649856
I0903 18:00:12.360460 23978 layer_factory.hpp:77] Creating layer bn4_branch2c
I0903 18:00:12.360468 23978 net.cpp:100] Creating Layer bn4_branch2c
I0903 18:00:12.360473 23978 net.cpp:434] bn4_branch2c <- res4_branch2c
I0903 18:00:12.360481 23978 net.cpp:395] bn4_branch2c -> res4_branch2c (in-place)
I0903 18:00:12.360606 23978 net.cpp:150] Setting up bn4_branch2c
I0903 18:00:12.360615 23978 net.cpp:157] Top shape: 2 128 64 64 (1048576)
I0903 18:00:12.360618 23978 net.cpp:165] Memory required for data: 298844160
I0903 18:00:12.360628 23978 layer_factory.hpp:77] Creating layer scale4_branch2c
I0903 18:00:12.360637 23978 net.cpp:100] Creating Layer scale4_branch2c
I0903 18:00:12.360641 23978 net.cpp:434] scale4_branch2c <- res4_branch2c
I0903 18:00:12.360648 23978 net.cpp:395] scale4_branch2c -> res4_branch2c (in-place)
I0903 18:00:12.360680 23978 layer_factory.hpp:77] Creating layer scale4_branch2c
I0903 18:00:12.360757 23978 net.cpp:150] Setting up scale4_branch2c
I0903 18:00:12.360764 23978 net.cpp:157] Top shape: 2 128 64 64 (1048576)
I0903 18:00:12.360767 23978 net.cpp:165] Memory required for data: 303038464
I0903 18:00:12.360775 23978 layer_factory.hpp:77] Creating layer res4
I0903 18:00:12.360783 23978 net.cpp:100] Creating Layer res4
I0903 18:00:12.360788 23978 net.cpp:434] res4 <- pool1_pool1_0_split_1
I0903 18:00:12.360793 23978 net.cpp:434] res4 <- res4_branch2c
I0903 18:00:12.360802 23978 net.cpp:408] res4 -> res4
I0903 18:00:12.360823 23978 net.cpp:150] Setting up res4
I0903 18:00:12.360832 23978 net.cpp:157] Top shape: 2 128 64 64 (1048576)
I0903 18:00:12.360837 23978 net.cpp:165] Memory required for data: 307232768
I0903 18:00:12.360841 23978 layer_factory.hpp:77] Creating layer res4_relu
I0903 18:00:12.360848 23978 net.cpp:100] Creating Layer res4_relu
I0903 18:00:12.360853 23978 net.cpp:434] res4_relu <- res4
I0903 18:00:12.360858 23978 net.cpp:395] res4_relu -> res4 (in-place)
I0903 18:00:12.360865 23978 net.cpp:150] Setting up res4_relu
I0903 18:00:12.360872 23978 net.cpp:157] Top shape: 2 128 64 64 (1048576)
I0903 18:00:12.360877 23978 net.cpp:165] Memory required for data: 311427072
I0903 18:00:12.360880 23978 layer_factory.hpp:77] Creating layer res4_res4_relu_0_split
I0903 18:00:12.360889 23978 net.cpp:100] Creating Layer res4_res4_relu_0_split
I0903 18:00:12.360893 23978 net.cpp:434] res4_res4_relu_0_split <- res4
I0903 18:00:12.360899 23978 net.cpp:408] res4_res4_relu_0_split -> res4_res4_relu_0_split_0
I0903 18:00:12.360908 23978 net.cpp:408] res4_res4_relu_0_split -> res4_res4_relu_0_split_1
I0903 18:00:12.360937 23978 net.cpp:150] Setting up res4_res4_relu_0_split
I0903 18:00:12.360944 23978 net.cpp:157] Top shape: 2 128 64 64 (1048576)
I0903 18:00:12.360950 23978 net.cpp:157] Top shape: 2 128 64 64 (1048576)
I0903 18:00:12.360955 23978 net.cpp:165] Memory required for data: 319815680
I0903 18:00:12.360960 23978 layer_factory.hpp:77] Creating layer res5_branch2a
I0903 18:00:12.360970 23978 net.cpp:100] Creating Layer res5_branch2a
I0903 18:00:12.360973 23978 net.cpp:434] res5_branch2a <- res4_res4_relu_0_split_0
I0903 18:00:12.360981 23978 net.cpp:408] res5_branch2a -> res5_branch2a
I0903 18:00:12.361183 23978 net.cpp:150] Setting up res5_branch2a
I0903 18:00:12.361191 23978 net.cpp:157] Top shape: 2 64 64 64 (524288)
I0903 18:00:12.361196 23978 net.cpp:165] Memory required for data: 321912832
I0903 18:00:12.361202 23978 layer_factory.hpp:77] Creating layer bn5_branch2a
I0903 18:00:12.361212 23978 net.cpp:100] Creating Layer bn5_branch2a
I0903 18:00:12.361217 23978 net.cpp:434] bn5_branch2a <- res5_branch2a
I0903 18:00:12.361223 23978 net.cpp:395] bn5_branch2a -> res5_branch2a (in-place)
I0903 18:00:12.361357 23978 net.cpp:150] Setting up bn5_branch2a
I0903 18:00:12.361364 23978 net.cpp:157] Top shape: 2 64 64 64 (524288)
I0903 18:00:12.361369 23978 net.cpp:165] Memory required for data: 324009984
I0903 18:00:12.361379 23978 layer_factory.hpp:77] Creating layer scale5_branch2a
I0903 18:00:12.361389 23978 net.cpp:100] Creating Layer scale5_branch2a
I0903 18:00:12.361394 23978 net.cpp:434] scale5_branch2a <- res5_branch2a
I0903 18:00:12.361400 23978 net.cpp:395] scale5_branch2a -> res5_branch2a (in-place)
I0903 18:00:12.361433 23978 layer_factory.hpp:77] Creating layer scale5_branch2a
I0903 18:00:12.361515 23978 net.cpp:150] Setting up scale5_branch2a
I0903 18:00:12.361521 23978 net.cpp:157] Top shape: 2 64 64 64 (524288)
I0903 18:00:12.361524 23978 net.cpp:165] Memory required for data: 326107136
I0903 18:00:12.361533 23978 layer_factory.hpp:77] Creating layer res5_branch2a_relu
I0903 18:00:12.361541 23978 net.cpp:100] Creating Layer res5_branch2a_relu
I0903 18:00:12.361546 23978 net.cpp:434] res5_branch2a_relu <- res5_branch2a
I0903 18:00:12.361552 23978 net.cpp:395] res5_branch2a_relu -> res5_branch2a (in-place)
I0903 18:00:12.361559 23978 net.cpp:150] Setting up res5_branch2a_relu
I0903 18:00:12.361567 23978 net.cpp:157] Top shape: 2 64 64 64 (524288)
I0903 18:00:12.361570 23978 net.cpp:165] Memory required for data: 328204288
I0903 18:00:12.361574 23978 layer_factory.hpp:77] Creating layer res5_branch2b
I0903 18:00:12.361585 23978 net.cpp:100] Creating Layer res5_branch2b
I0903 18:00:12.361589 23978 net.cpp:434] res5_branch2b <- res5_branch2a
I0903 18:00:12.361595 23978 net.cpp:408] res5_branch2b -> res5_branch2b
I0903 18:00:12.362041 23978 net.cpp:150] Setting up res5_branch2b
I0903 18:00:12.362051 23978 net.cpp:157] Top shape: 2 64 64 64 (524288)
I0903 18:00:12.362053 23978 net.cpp:165] Memory required for data: 330301440
I0903 18:00:12.362061 23978 layer_factory.hpp:77] Creating layer bn5_branch2b
I0903 18:00:12.362069 23978 net.cpp:100] Creating Layer bn5_branch2b
I0903 18:00:12.362074 23978 net.cpp:434] bn5_branch2b <- res5_branch2b
I0903 18:00:12.362082 23978 net.cpp:395] bn5_branch2b -> res5_branch2b (in-place)
I0903 18:00:12.362236 23978 net.cpp:150] Setting up bn5_branch2b
I0903 18:00:12.362243 23978 net.cpp:157] Top shape: 2 64 64 64 (524288)
I0903 18:00:12.362247 23978 net.cpp:165] Memory required for data: 332398592
I0903 18:00:12.362258 23978 layer_factory.hpp:77] Creating layer scale5_branch2b
I0903 18:00:12.362267 23978 net.cpp:100] Creating Layer scale5_branch2b
I0903 18:00:12.362272 23978 net.cpp:434] scale5_branch2b <- res5_branch2b
I0903 18:00:12.362280 23978 net.cpp:395] scale5_branch2b -> res5_branch2b (in-place)
I0903 18:00:12.362314 23978 layer_factory.hpp:77] Creating layer scale5_branch2b
I0903 18:00:12.362401 23978 net.cpp:150] Setting up scale5_branch2b
I0903 18:00:12.362408 23978 net.cpp:157] Top shape: 2 64 64 64 (524288)
I0903 18:00:12.362411 23978 net.cpp:165] Memory required for data: 334495744
I0903 18:00:12.362421 23978 layer_factory.hpp:77] Creating layer res5_branch2b_relu
I0903 18:00:12.362427 23978 net.cpp:100] Creating Layer res5_branch2b_relu
I0903 18:00:12.362432 23978 net.cpp:434] res5_branch2b_relu <- res5_branch2b
I0903 18:00:12.362439 23978 net.cpp:395] res5_branch2b_relu -> res5_branch2b (in-place)
I0903 18:00:12.362447 23978 net.cpp:150] Setting up res5_branch2b_relu
I0903 18:00:12.362452 23978 net.cpp:157] Top shape: 2 64 64 64 (524288)
I0903 18:00:12.362457 23978 net.cpp:165] Memory required for data: 336592896
I0903 18:00:12.362462 23978 layer_factory.hpp:77] Creating layer res5_branch2c
I0903 18:00:12.362483 23978 net.cpp:100] Creating Layer res5_branch2c
I0903 18:00:12.362486 23978 net.cpp:434] res5_branch2c <- res5_branch2b
I0903 18:00:12.362493 23978 net.cpp:408] res5_branch2c -> res5_branch2c
I0903 18:00:12.362716 23978 net.cpp:150] Setting up res5_branch2c
I0903 18:00:12.362725 23978 net.cpp:157] Top shape: 2 128 64 64 (1048576)
I0903 18:00:12.362727 23978 net.cpp:165] Memory required for data: 340787200
I0903 18:00:12.362733 23978 layer_factory.hpp:77] Creating layer bn5_branch2c
I0903 18:00:12.362742 23978 net.cpp:100] Creating Layer bn5_branch2c
I0903 18:00:12.362747 23978 net.cpp:434] bn5_branch2c <- res5_branch2c
I0903 18:00:12.362757 23978 net.cpp:395] bn5_branch2c -> res5_branch2c (in-place)
I0903 18:00:12.362884 23978 net.cpp:150] Setting up bn5_branch2c
I0903 18:00:12.362891 23978 net.cpp:157] Top shape: 2 128 64 64 (1048576)
I0903 18:00:12.362896 23978 net.cpp:165] Memory required for data: 344981504
I0903 18:00:12.362906 23978 layer_factory.hpp:77] Creating layer scale5_branch2c
I0903 18:00:12.362915 23978 net.cpp:100] Creating Layer scale5_branch2c
I0903 18:00:12.362920 23978 net.cpp:434] scale5_branch2c <- res5_branch2c
I0903 18:00:12.362927 23978 net.cpp:395] scale5_branch2c -> res5_branch2c (in-place)
I0903 18:00:12.362962 23978 layer_factory.hpp:77] Creating layer scale5_branch2c
I0903 18:00:12.363039 23978 net.cpp:150] Setting up scale5_branch2c
I0903 18:00:12.363045 23978 net.cpp:157] Top shape: 2 128 64 64 (1048576)
I0903 18:00:12.363050 23978 net.cpp:165] Memory required for data: 349175808
I0903 18:00:12.363067 23978 layer_factory.hpp:77] Creating layer res5
I0903 18:00:12.363075 23978 net.cpp:100] Creating Layer res5
I0903 18:00:12.363081 23978 net.cpp:434] res5 <- res4_res4_relu_0_split_1
I0903 18:00:12.363087 23978 net.cpp:434] res5 <- res5_branch2c
I0903 18:00:12.363095 23978 net.cpp:408] res5 -> res5
I0903 18:00:12.363123 23978 net.cpp:150] Setting up res5
I0903 18:00:12.363129 23978 net.cpp:157] Top shape: 2 128 64 64 (1048576)
I0903 18:00:12.363134 23978 net.cpp:165] Memory required for data: 353370112
I0903 18:00:12.363139 23978 layer_factory.hpp:77] Creating layer res5_relu
I0903 18:00:12.363147 23978 net.cpp:100] Creating Layer res5_relu
I0903 18:00:12.363152 23978 net.cpp:434] res5_relu <- res5
I0903 18:00:12.363159 23978 net.cpp:395] res5_relu -> res5 (in-place)
I0903 18:00:12.363168 23978 net.cpp:150] Setting up res5_relu
I0903 18:00:12.363174 23978 net.cpp:157] Top shape: 2 128 64 64 (1048576)
I0903 18:00:12.363179 23978 net.cpp:165] Memory required for data: 357564416
I0903 18:00:12.363184 23978 layer_factory.hpp:77] Creating layer res5_res5_relu_0_split
I0903 18:00:12.363191 23978 net.cpp:100] Creating Layer res5_res5_relu_0_split
I0903 18:00:12.363196 23978 net.cpp:434] res5_res5_relu_0_split <- res5
I0903 18:00:12.363204 23978 net.cpp:408] res5_res5_relu_0_split -> res5_res5_relu_0_split_0
I0903 18:00:12.363215 23978 net.cpp:408] res5_res5_relu_0_split -> res5_res5_relu_0_split_1
I0903 18:00:12.363245 23978 net.cpp:150] Setting up res5_res5_relu_0_split
I0903 18:00:12.363251 23978 net.cpp:157] Top shape: 2 128 64 64 (1048576)
I0903 18:00:12.363255 23978 net.cpp:157] Top shape: 2 128 64 64 (1048576)
I0903 18:00:12.363260 23978 net.cpp:165] Memory required for data: 365953024
I0903 18:00:12.363266 23978 layer_factory.hpp:77] Creating layer res6_branch1
I0903 18:00:12.363277 23978 net.cpp:100] Creating Layer res6_branch1
I0903 18:00:12.363286 23978 net.cpp:434] res6_branch1 <- res5_res5_relu_0_split_0
I0903 18:00:12.363294 23978 net.cpp:408] res6_branch1 -> res6_branch1
I0903 18:00:12.363709 23978 net.cpp:150] Setting up res6_branch1
I0903 18:00:12.363718 23978 net.cpp:157] Top shape: 2 256 64 64 (2097152)
I0903 18:00:12.363719 23978 net.cpp:165] Memory required for data: 374341632
I0903 18:00:12.363725 23978 layer_factory.hpp:77] Creating layer bn6_branch1
I0903 18:00:12.363746 23978 net.cpp:100] Creating Layer bn6_branch1
I0903 18:00:12.363752 23978 net.cpp:434] bn6_branch1 <- res6_branch1
I0903 18:00:12.363761 23978 net.cpp:395] bn6_branch1 -> res6_branch1 (in-place)
I0903 18:00:12.363908 23978 net.cpp:150] Setting up bn6_branch1
I0903 18:00:12.363915 23978 net.cpp:157] Top shape: 2 256 64 64 (2097152)
I0903 18:00:12.363919 23978 net.cpp:165] Memory required for data: 382730240
I0903 18:00:12.363930 23978 layer_factory.hpp:77] Creating layer scale6_branch1
I0903 18:00:12.363940 23978 net.cpp:100] Creating Layer scale6_branch1
I0903 18:00:12.363945 23978 net.cpp:434] scale6_branch1 <- res6_branch1
I0903 18:00:12.363951 23978 net.cpp:395] scale6_branch1 -> res6_branch1 (in-place)
I0903 18:00:12.363986 23978 layer_factory.hpp:77] Creating layer scale6_branch1
I0903 18:00:12.364064 23978 net.cpp:150] Setting up scale6_branch1
I0903 18:00:12.364073 23978 net.cpp:157] Top shape: 2 256 64 64 (2097152)
I0903 18:00:12.364075 23978 net.cpp:165] Memory required for data: 391118848
I0903 18:00:12.364084 23978 layer_factory.hpp:77] Creating layer res6_branch2a
I0903 18:00:12.364096 23978 net.cpp:100] Creating Layer res6_branch2a
I0903 18:00:12.364101 23978 net.cpp:434] res6_branch2a <- res5_res5_relu_0_split_1
I0903 18:00:12.364109 23978 net.cpp:408] res6_branch2a -> res6_branch2a
I0903 18:00:12.364398 23978 net.cpp:150] Setting up res6_branch2a
I0903 18:00:12.364408 23978 net.cpp:157] Top shape: 2 128 64 64 (1048576)
I0903 18:00:12.364411 23978 net.cpp:165] Memory required for data: 395313152
I0903 18:00:12.364419 23978 layer_factory.hpp:77] Creating layer bn6_branch2a
I0903 18:00:12.364428 23978 net.cpp:100] Creating Layer bn6_branch2a
I0903 18:00:12.364433 23978 net.cpp:434] bn6_branch2a <- res6_branch2a
I0903 18:00:12.364440 23978 net.cpp:395] bn6_branch2a -> res6_branch2a (in-place)
I0903 18:00:12.364565 23978 net.cpp:150] Setting up bn6_branch2a
I0903 18:00:12.364573 23978 net.cpp:157] Top shape: 2 128 64 64 (1048576)
I0903 18:00:12.364576 23978 net.cpp:165] Memory required for data: 399507456
I0903 18:00:12.364586 23978 layer_factory.hpp:77] Creating layer scale6_branch2a
I0903 18:00:12.367970 23978 net.cpp:100] Creating Layer scale6_branch2a
I0903 18:00:12.367992 23978 net.cpp:434] scale6_branch2a <- res6_branch2a
I0903 18:00:12.368010 23978 net.cpp:395] scale6_branch2a -> res6_branch2a (in-place)
I0903 18:00:12.368086 23978 layer_factory.hpp:77] Creating layer scale6_branch2a
I0903 18:00:12.368177 23978 net.cpp:150] Setting up scale6_branch2a
I0903 18:00:12.368187 23978 net.cpp:157] Top shape: 2 128 64 64 (1048576)
I0903 18:00:12.368191 23978 net.cpp:165] Memory required for data: 403701760
I0903 18:00:12.368199 23978 layer_factory.hpp:77] Creating layer res6_branch2a_relu
I0903 18:00:12.368208 23978 net.cpp:100] Creating Layer res6_branch2a_relu
I0903 18:00:12.368214 23978 net.cpp:434] res6_branch2a_relu <- res6_branch2a
I0903 18:00:12.368221 23978 net.cpp:395] res6_branch2a_relu -> res6_branch2a (in-place)
I0903 18:00:12.368228 23978 net.cpp:150] Setting up res6_branch2a_relu
I0903 18:00:12.368235 23978 net.cpp:157] Top shape: 2 128 64 64 (1048576)
I0903 18:00:12.368239 23978 net.cpp:165] Memory required for data: 407896064
I0903 18:00:12.368243 23978 layer_factory.hpp:77] Creating layer res6_branch2b
I0903 18:00:12.368257 23978 net.cpp:100] Creating Layer res6_branch2b
I0903 18:00:12.368262 23978 net.cpp:434] res6_branch2b <- res6_branch2a
I0903 18:00:12.368275 23978 net.cpp:408] res6_branch2b -> res6_branch2b
I0903 18:00:12.399121 23978 net.cpp:150] Setting up res6_branch2b
I0903 18:00:12.399155 23978 net.cpp:157] Top shape: 2 128 64 64 (1048576)
I0903 18:00:12.399159 23978 net.cpp:165] Memory required for data: 412090368
I0903 18:00:12.399170 23978 layer_factory.hpp:77] Creating layer bn6_branch2b
I0903 18:00:12.399188 23978 net.cpp:100] Creating Layer bn6_branch2b
I0903 18:00:12.399194 23978 net.cpp:434] bn6_branch2b <- res6_branch2b
I0903 18:00:12.399204 23978 net.cpp:395] bn6_branch2b -> res6_branch2b (in-place)
I0903 18:00:12.399350 23978 net.cpp:150] Setting up bn6_branch2b
I0903 18:00:12.399358 23978 net.cpp:157] Top shape: 2 128 64 64 (1048576)
I0903 18:00:12.399363 23978 net.cpp:165] Memory required for data: 416284672
I0903 18:00:12.399386 23978 layer_factory.hpp:77] Creating layer scale6_branch2b
I0903 18:00:12.399400 23978 net.cpp:100] Creating Layer scale6_branch2b
I0903 18:00:12.399410 23978 net.cpp:434] scale6_branch2b <- res6_branch2b
I0903 18:00:12.399416 23978 net.cpp:395] scale6_branch2b -> res6_branch2b (in-place)
I0903 18:00:12.399461 23978 layer_factory.hpp:77] Creating layer scale6_branch2b
I0903 18:00:12.399546 23978 net.cpp:150] Setting up scale6_branch2b
I0903 18:00:12.399554 23978 net.cpp:157] Top shape: 2 128 64 64 (1048576)
I0903 18:00:12.399557 23978 net.cpp:165] Memory required for data: 420478976
I0903 18:00:12.399564 23978 layer_factory.hpp:77] Creating layer res6_branch2b_relu
I0903 18:00:12.399574 23978 net.cpp:100] Creating Layer res6_branch2b_relu
I0903 18:00:12.399579 23978 net.cpp:434] res6_branch2b_relu <- res6_branch2b
I0903 18:00:12.399586 23978 net.cpp:395] res6_branch2b_relu -> res6_branch2b (in-place)
I0903 18:00:12.399595 23978 net.cpp:150] Setting up res6_branch2b_relu
I0903 18:00:12.399601 23978 net.cpp:157] Top shape: 2 128 64 64 (1048576)
I0903 18:00:12.399605 23978 net.cpp:165] Memory required for data: 424673280
I0903 18:00:12.399610 23978 layer_factory.hpp:77] Creating layer res6_branch2c
I0903 18:00:12.399629 23978 net.cpp:100] Creating Layer res6_branch2c
I0903 18:00:12.399634 23978 net.cpp:434] res6_branch2c <- res6_branch2b
I0903 18:00:12.399641 23978 net.cpp:408] res6_branch2c -> res6_branch2c
I0903 18:00:12.400055 23978 net.cpp:150] Setting up res6_branch2c
I0903 18:00:12.400064 23978 net.cpp:157] Top shape: 2 256 64 64 (2097152)
I0903 18:00:12.400068 23978 net.cpp:165] Memory required for data: 433061888
I0903 18:00:12.400075 23978 layer_factory.hpp:77] Creating layer bn6_branch2c
I0903 18:00:12.400084 23978 net.cpp:100] Creating Layer bn6_branch2c
I0903 18:00:12.400089 23978 net.cpp:434] bn6_branch2c <- res6_branch2c
I0903 18:00:12.400095 23978 net.cpp:395] bn6_branch2c -> res6_branch2c (in-place)
I0903 18:00:12.400702 23978 net.cpp:150] Setting up bn6_branch2c
I0903 18:00:12.400713 23978 net.cpp:157] Top shape: 2 256 64 64 (2097152)
I0903 18:00:12.400717 23978 net.cpp:165] Memory required for data: 441450496
I0903 18:00:12.400727 23978 layer_factory.hpp:77] Creating layer scale6_branch2c
I0903 18:00:12.400738 23978 net.cpp:100] Creating Layer scale6_branch2c
I0903 18:00:12.400743 23978 net.cpp:434] scale6_branch2c <- res6_branch2c
I0903 18:00:12.400750 23978 net.cpp:395] scale6_branch2c -> res6_branch2c (in-place)
I0903 18:00:12.400790 23978 layer_factory.hpp:77] Creating layer scale6_branch2c
I0903 18:00:12.400869 23978 net.cpp:150] Setting up scale6_branch2c
I0903 18:00:12.400876 23978 net.cpp:157] Top shape: 2 256 64 64 (2097152)
I0903 18:00:12.400881 23978 net.cpp:165] Memory required for data: 449839104
I0903 18:00:12.400888 23978 layer_factory.hpp:77] Creating layer res6
I0903 18:00:12.400897 23978 net.cpp:100] Creating Layer res6
I0903 18:00:12.400902 23978 net.cpp:434] res6 <- res6_branch1
I0903 18:00:12.400907 23978 net.cpp:434] res6 <- res6_branch2c
I0903 18:00:12.400915 23978 net.cpp:408] res6 -> res6
I0903 18:00:12.400943 23978 net.cpp:150] Setting up res6
I0903 18:00:12.400951 23978 net.cpp:157] Top shape: 2 256 64 64 (2097152)
I0903 18:00:12.400956 23978 net.cpp:165] Memory required for data: 458227712
I0903 18:00:12.400960 23978 layer_factory.hpp:77] Creating layer res6_relu
I0903 18:00:12.400967 23978 net.cpp:100] Creating Layer res6_relu
I0903 18:00:12.400972 23978 net.cpp:434] res6_relu <- res6
I0903 18:00:12.400979 23978 net.cpp:395] res6_relu -> res6 (in-place)
I0903 18:00:12.400985 23978 net.cpp:150] Setting up res6_relu
I0903 18:00:12.400991 23978 net.cpp:157] Top shape: 2 256 64 64 (2097152)
I0903 18:00:12.400996 23978 net.cpp:165] Memory required for data: 466616320
I0903 18:00:12.401001 23978 layer_factory.hpp:77] Creating layer res6_res6_relu_0_split
I0903 18:00:12.401008 23978 net.cpp:100] Creating Layer res6_res6_relu_0_split
I0903 18:00:12.401012 23978 net.cpp:434] res6_res6_relu_0_split <- res6
I0903 18:00:12.401018 23978 net.cpp:408] res6_res6_relu_0_split -> res6_res6_relu_0_split_0
I0903 18:00:12.401037 23978 net.cpp:408] res6_res6_relu_0_split -> res6_res6_relu_0_split_1
I0903 18:00:12.401047 23978 net.cpp:408] res6_res6_relu_0_split -> res6_res6_relu_0_split_2
I0903 18:00:12.401087 23978 net.cpp:150] Setting up res6_res6_relu_0_split
I0903 18:00:12.401093 23978 net.cpp:157] Top shape: 2 256 64 64 (2097152)
I0903 18:00:12.401100 23978 net.cpp:157] Top shape: 2 256 64 64 (2097152)
I0903 18:00:12.401106 23978 net.cpp:157] Top shape: 2 256 64 64 (2097152)
I0903 18:00:12.401110 23978 net.cpp:165] Memory required for data: 491782144
I0903 18:00:12.401115 23978 layer_factory.hpp:77] Creating layer reshg1_up1_branch1
I0903 18:00:12.401126 23978 net.cpp:100] Creating Layer reshg1_up1_branch1
I0903 18:00:12.401130 23978 net.cpp:434] reshg1_up1_branch1 <- res6_res6_relu_0_split_0
I0903 18:00:12.401139 23978 net.cpp:408] reshg1_up1_branch1 -> reshg1_up1_branch1
I0903 18:00:12.401828 23978 net.cpp:150] Setting up reshg1_up1_branch1
I0903 18:00:12.401836 23978 net.cpp:157] Top shape: 2 256 64 64 (2097152)
I0903 18:00:12.401840 23978 net.cpp:165] Memory required for data: 500170752
I0903 18:00:12.401847 23978 layer_factory.hpp:77] Creating layer bnhg1_up1_branch1
I0903 18:00:12.401859 23978 net.cpp:100] Creating Layer bnhg1_up1_branch1
I0903 18:00:12.401865 23978 net.cpp:434] bnhg1_up1_branch1 <- reshg1_up1_branch1
I0903 18:00:12.401870 23978 net.cpp:395] bnhg1_up1_branch1 -> reshg1_up1_branch1 (in-place)
I0903 18:00:12.402003 23978 net.cpp:150] Setting up bnhg1_up1_branch1
I0903 18:00:12.402009 23978 net.cpp:157] Top shape: 2 256 64 64 (2097152)
I0903 18:00:12.402014 23978 net.cpp:165] Memory required for data: 508559360
I0903 18:00:12.402024 23978 layer_factory.hpp:77] Creating layer scalehg1_up1_branch1
I0903 18:00:12.402034 23978 net.cpp:100] Creating Layer scalehg1_up1_branch1
I0903 18:00:12.402039 23978 net.cpp:434] scalehg1_up1_branch1 <- reshg1_up1_branch1
I0903 18:00:12.402045 23978 net.cpp:395] scalehg1_up1_branch1 -> reshg1_up1_branch1 (in-place)
I0903 18:00:12.402079 23978 layer_factory.hpp:77] Creating layer scalehg1_up1_branch1
I0903 18:00:12.402160 23978 net.cpp:150] Setting up scalehg1_up1_branch1
I0903 18:00:12.402168 23978 net.cpp:157] Top shape: 2 256 64 64 (2097152)
I0903 18:00:12.402171 23978 net.cpp:165] Memory required for data: 516947968
I0903 18:00:12.402179 23978 layer_factory.hpp:77] Creating layer reshg1_up1_branch2a
I0903 18:00:12.402194 23978 net.cpp:100] Creating Layer reshg1_up1_branch2a
I0903 18:00:12.402199 23978 net.cpp:434] reshg1_up1_branch2a <- res6_res6_relu_0_split_1
I0903 18:00:12.402206 23978 net.cpp:408] reshg1_up1_branch2a -> reshg1_up1_branch2a
I0903 18:00:12.404207 23978 net.cpp:150] Setting up reshg1_up1_branch2a
I0903 18:00:12.404238 23978 net.cpp:157] Top shape: 2 128 64 64 (1048576)
I0903 18:00:12.404243 23978 net.cpp:165] Memory required for data: 521142272
I0903 18:00:12.404254 23978 layer_factory.hpp:77] Creating layer bnhg1_up1_branch2a
I0903 18:00:12.404270 23978 net.cpp:100] Creating Layer bnhg1_up1_branch2a
I0903 18:00:12.404278 23978 net.cpp:434] bnhg1_up1_branch2a <- reshg1_up1_branch2a
I0903 18:00:12.404291 23978 net.cpp:395] bnhg1_up1_branch2a -> reshg1_up1_branch2a (in-place)
I0903 18:00:12.404469 23978 net.cpp:150] Setting up bnhg1_up1_branch2a
I0903 18:00:12.404479 23978 net.cpp:157] Top shape: 2 128 64 64 (1048576)
I0903 18:00:12.404484 23978 net.cpp:165] Memory required for data: 525336576
I0903 18:00:12.404495 23978 layer_factory.hpp:77] Creating layer scalehg1_up1_branch2a
I0903 18:00:12.404507 23978 net.cpp:100] Creating Layer scalehg1_up1_branch2a
I0903 18:00:12.404512 23978 net.cpp:434] scalehg1_up1_branch2a <- reshg1_up1_branch2a
I0903 18:00:12.404522 23978 net.cpp:395] scalehg1_up1_branch2a -> reshg1_up1_branch2a (in-place)
I0903 18:00:12.404564 23978 layer_factory.hpp:77] Creating layer scalehg1_up1_branch2a
I0903 18:00:12.404657 23978 net.cpp:150] Setting up scalehg1_up1_branch2a
I0903 18:00:12.404665 23978 net.cpp:157] Top shape: 2 128 64 64 (1048576)
I0903 18:00:12.404670 23978 net.cpp:165] Memory required for data: 529530880
I0903 18:00:12.404691 23978 layer_factory.hpp:77] Creating layer reshg1_up1_branch2a_relu
I0903 18:00:12.404701 23978 net.cpp:100] Creating Layer reshg1_up1_branch2a_relu
I0903 18:00:12.404707 23978 net.cpp:434] reshg1_up1_branch2a_relu <- reshg1_up1_branch2a
I0903 18:00:12.404716 23978 net.cpp:395] reshg1_up1_branch2a_relu -> reshg1_up1_branch2a (in-place)
I0903 18:00:12.404724 23978 net.cpp:150] Setting up reshg1_up1_branch2a_relu
I0903 18:00:12.404732 23978 net.cpp:157] Top shape: 2 128 64 64 (1048576)
I0903 18:00:12.404737 23978 net.cpp:165] Memory required for data: 533725184
I0903 18:00:12.404742 23978 layer_factory.hpp:77] Creating layer reshg1_up1_branch2b
I0903 18:00:12.404757 23978 net.cpp:100] Creating Layer reshg1_up1_branch2b
I0903 18:00:12.404760 23978 net.cpp:434] reshg1_up1_branch2b <- reshg1_up1_branch2a
I0903 18:00:12.404769 23978 net.cpp:408] reshg1_up1_branch2b -> reshg1_up1_branch2b
I0903 18:00:12.406607 23978 net.cpp:150] Setting up reshg1_up1_branch2b
I0903 18:00:12.406627 23978 net.cpp:157] Top shape: 2 128 64 64 (1048576)
I0903 18:00:12.406631 23978 net.cpp:165] Memory required for data: 537919488
I0903 18:00:12.406639 23978 layer_factory.hpp:77] Creating layer bnhg1_up1_branch2b
I0903 18:00:12.406651 23978 net.cpp:100] Creating Layer bnhg1_up1_branch2b
I0903 18:00:12.406656 23978 net.cpp:434] bnhg1_up1_branch2b <- reshg1_up1_branch2b
I0903 18:00:12.406668 23978 net.cpp:395] bnhg1_up1_branch2b -> reshg1_up1_branch2b (in-place)
I0903 18:00:12.406810 23978 net.cpp:150] Setting up bnhg1_up1_branch2b
I0903 18:00:12.406817 23978 net.cpp:157] Top shape: 2 128 64 64 (1048576)
I0903 18:00:12.406821 23978 net.cpp:165] Memory required for data: 542113792
I0903 18:00:12.406831 23978 layer_factory.hpp:77] Creating layer scalehg1_up1_branch2b
I0903 18:00:12.406841 23978 net.cpp:100] Creating Layer scalehg1_up1_branch2b
I0903 18:00:12.406846 23978 net.cpp:434] scalehg1_up1_branch2b <- reshg1_up1_branch2b
I0903 18:00:12.406855 23978 net.cpp:395] scalehg1_up1_branch2b -> reshg1_up1_branch2b (in-place)
I0903 18:00:12.406891 23978 layer_factory.hpp:77] Creating layer scalehg1_up1_branch2b
I0903 18:00:12.406972 23978 net.cpp:150] Setting up scalehg1_up1_branch2b
I0903 18:00:12.406980 23978 net.cpp:157] Top shape: 2 128 64 64 (1048576)
I0903 18:00:12.406983 23978 net.cpp:165] Memory required for data: 546308096
I0903 18:00:12.406992 23978 layer_factory.hpp:77] Creating layer reshg1_up1_branch2b_relu
I0903 18:00:12.407001 23978 net.cpp:100] Creating Layer reshg1_up1_branch2b_relu
I0903 18:00:12.407006 23978 net.cpp:434] reshg1_up1_branch2b_relu <- reshg1_up1_branch2b
I0903 18:00:12.407013 23978 net.cpp:395] reshg1_up1_branch2b_relu -> reshg1_up1_branch2b (in-place)
I0903 18:00:12.407021 23978 net.cpp:150] Setting up reshg1_up1_branch2b_relu
I0903 18:00:12.407027 23978 net.cpp:157] Top shape: 2 128 64 64 (1048576)
I0903 18:00:12.407032 23978 net.cpp:165] Memory required for data: 550502400
I0903 18:00:12.407037 23978 layer_factory.hpp:77] Creating layer reshg1_up1_branch2c
I0903 18:00:12.407057 23978 net.cpp:100] Creating Layer reshg1_up1_branch2c
I0903 18:00:12.407061 23978 net.cpp:434] reshg1_up1_branch2c <- reshg1_up1_branch2b
I0903 18:00:12.407068 23978 net.cpp:408] reshg1_up1_branch2c -> reshg1_up1_branch2c
I0903 18:00:12.407480 23978 net.cpp:150] Setting up reshg1_up1_branch2c
I0903 18:00:12.407488 23978 net.cpp:157] Top shape: 2 256 64 64 (2097152)
I0903 18:00:12.407492 23978 net.cpp:165] Memory required for data: 558891008
I0903 18:00:12.407500 23978 layer_factory.hpp:77] Creating layer bnhg1_up1_branch2c
I0903 18:00:12.407510 23978 net.cpp:100] Creating Layer bnhg1_up1_branch2c
I0903 18:00:12.407513 23978 net.cpp:434] bnhg1_up1_branch2c <- reshg1_up1_branch2c
I0903 18:00:12.407521 23978 net.cpp:395] bnhg1_up1_branch2c -> reshg1_up1_branch2c (in-place)
I0903 18:00:12.407649 23978 net.cpp:150] Setting up bnhg1_up1_branch2c
I0903 18:00:12.407656 23978 net.cpp:157] Top shape: 2 256 64 64 (2097152)
I0903 18:00:12.407660 23978 net.cpp:165] Memory required for data: 567279616
I0903 18:00:12.407670 23978 layer_factory.hpp:77] Creating layer scalehg1_up1_branch2c
I0903 18:00:12.407688 23978 net.cpp:100] Creating Layer scalehg1_up1_branch2c
I0903 18:00:12.407693 23978 net.cpp:434] scalehg1_up1_branch2c <- reshg1_up1_branch2c
I0903 18:00:12.407701 23978 net.cpp:395] scalehg1_up1_branch2c -> reshg1_up1_branch2c (in-place)
I0903 18:00:12.407734 23978 layer_factory.hpp:77] Creating layer scalehg1_up1_branch2c
I0903 18:00:12.407814 23978 net.cpp:150] Setting up scalehg1_up1_branch2c
I0903 18:00:12.407821 23978 net.cpp:157] Top shape: 2 256 64 64 (2097152)
I0903 18:00:12.407824 23978 net.cpp:165] Memory required for data: 575668224
I0903 18:00:12.407832 23978 layer_factory.hpp:77] Creating layer reshg1_up1
I0903 18:00:12.407841 23978 net.cpp:100] Creating Layer reshg1_up1
I0903 18:00:12.407846 23978 net.cpp:434] reshg1_up1 <- reshg1_up1_branch1
I0903 18:00:12.407851 23978 net.cpp:434] reshg1_up1 <- reshg1_up1_branch2c
I0903 18:00:12.407860 23978 net.cpp:408] reshg1_up1 -> reshg1_up1
I0903 18:00:12.407883 23978 net.cpp:150] Setting up reshg1_up1
I0903 18:00:12.407889 23978 net.cpp:157] Top shape: 2 256 64 64 (2097152)
I0903 18:00:12.407894 23978 net.cpp:165] Memory required for data: 584056832
I0903 18:00:12.407898 23978 layer_factory.hpp:77] Creating layer reshg1_up1_relu
I0903 18:00:12.407905 23978 net.cpp:100] Creating Layer reshg1_up1_relu
I0903 18:00:12.407912 23978 net.cpp:434] reshg1_up1_relu <- reshg1_up1
I0903 18:00:12.407917 23978 net.cpp:395] reshg1_up1_relu -> reshg1_up1 (in-place)
I0903 18:00:12.407923 23978 net.cpp:150] Setting up reshg1_up1_relu
I0903 18:00:12.407930 23978 net.cpp:157] Top shape: 2 256 64 64 (2097152)
I0903 18:00:12.407934 23978 net.cpp:165] Memory required for data: 592445440
I0903 18:00:12.407938 23978 layer_factory.hpp:77] Creating layer reshg1_up1_reshg1_up1_relu_0_split
I0903 18:00:12.407948 23978 net.cpp:100] Creating Layer reshg1_up1_reshg1_up1_relu_0_split
I0903 18:00:12.407953 23978 net.cpp:434] reshg1_up1_reshg1_up1_relu_0_split <- reshg1_up1
I0903 18:00:12.407959 23978 net.cpp:408] reshg1_up1_reshg1_up1_relu_0_split -> reshg1_up1_reshg1_up1_relu_0_split_0
I0903 18:00:12.407968 23978 net.cpp:408] reshg1_up1_reshg1_up1_relu_0_split -> reshg1_up1_reshg1_up1_relu_0_split_1
I0903 18:00:12.407999 23978 net.cpp:150] Setting up reshg1_up1_reshg1_up1_relu_0_split
I0903 18:00:12.408004 23978 net.cpp:157] Top shape: 2 256 64 64 (2097152)
I0903 18:00:12.408011 23978 net.cpp:157] Top shape: 2 256 64 64 (2097152)
I0903 18:00:12.408016 23978 net.cpp:165] Memory required for data: 609222656
I0903 18:00:12.408020 23978 layer_factory.hpp:77] Creating layer reshg1_up2_branch2a
I0903 18:00:12.408030 23978 net.cpp:100] Creating Layer reshg1_up2_branch2a
I0903 18:00:12.408033 23978 net.cpp:434] reshg1_up2_branch2a <- reshg1_up1_reshg1_up1_relu_0_split_0
I0903 18:00:12.408042 23978 net.cpp:408] reshg1_up2_branch2a -> reshg1_up2_branch2a
I0903 18:00:12.408453 23978 net.cpp:150] Setting up reshg1_up2_branch2a
I0903 18:00:12.408463 23978 net.cpp:157] Top shape: 2 128 64 64 (1048576)
I0903 18:00:12.408466 23978 net.cpp:165] Memory required for data: 613416960
I0903 18:00:12.408473 23978 layer_factory.hpp:77] Creating layer bnhg1_up2_branch2a
I0903 18:00:12.408483 23978 net.cpp:100] Creating Layer bnhg1_up2_branch2a
I0903 18:00:12.408488 23978 net.cpp:434] bnhg1_up2_branch2a <- reshg1_up2_branch2a
I0903 18:00:12.408495 23978 net.cpp:395] bnhg1_up2_branch2a -> reshg1_up2_branch2a (in-place)
I0903 18:00:12.408625 23978 net.cpp:150] Setting up bnhg1_up2_branch2a
I0903 18:00:12.408632 23978 net.cpp:157] Top shape: 2 128 64 64 (1048576)
I0903 18:00:12.408637 23978 net.cpp:165] Memory required for data: 617611264
I0903 18:00:12.408645 23978 layer_factory.hpp:77] Creating layer scalehg1_up2_branch2a
I0903 18:00:12.408654 23978 net.cpp:100] Creating Layer scalehg1_up2_branch2a
I0903 18:00:12.408659 23978 net.cpp:434] scalehg1_up2_branch2a <- reshg1_up2_branch2a
I0903 18:00:12.408666 23978 net.cpp:395] scalehg1_up2_branch2a -> reshg1_up2_branch2a (in-place)
I0903 18:00:12.408701 23978 layer_factory.hpp:77] Creating layer scalehg1_up2_branch2a
I0903 18:00:12.408793 23978 net.cpp:150] Setting up scalehg1_up2_branch2a
I0903 18:00:12.408802 23978 net.cpp:157] Top shape: 2 128 64 64 (1048576)
I0903 18:00:12.408805 23978 net.cpp:165] Memory required for data: 621805568
I0903 18:00:12.408813 23978 layer_factory.hpp:77] Creating layer reshg1_up2_branch2a_relu
I0903 18:00:12.408821 23978 net.cpp:100] Creating Layer reshg1_up2_branch2a_relu
I0903 18:00:12.408826 23978 net.cpp:434] reshg1_up2_branch2a_relu <- reshg1_up2_branch2a
I0903 18:00:12.408834 23978 net.cpp:395] reshg1_up2_branch2a_relu -> reshg1_up2_branch2a (in-place)
I0903 18:00:12.408841 23978 net.cpp:150] Setting up reshg1_up2_branch2a_relu
I0903 18:00:12.408849 23978 net.cpp:157] Top shape: 2 128 64 64 (1048576)
I0903 18:00:12.408852 23978 net.cpp:165] Memory required for data: 625999872
I0903 18:00:12.408856 23978 layer_factory.hpp:77] Creating layer reshg1_up2_branch2b
I0903 18:00:12.408866 23978 net.cpp:100] Creating Layer reshg1_up2_branch2b
I0903 18:00:12.408870 23978 net.cpp:434] reshg1_up2_branch2b <- reshg1_up2_branch2a
I0903 18:00:12.408879 23978 net.cpp:408] reshg1_up2_branch2b -> reshg1_up2_branch2b
I0903 18:00:12.410645 23978 net.cpp:150] Setting up reshg1_up2_branch2b
I0903 18:00:12.410658 23978 net.cpp:157] Top shape: 2 128 64 64 (1048576)
I0903 18:00:12.410662 23978 net.cpp:165] Memory required for data: 630194176
I0903 18:00:12.410670 23978 layer_factory.hpp:77] Creating layer bnhg1_up2_branch2b
I0903 18:00:12.410681 23978 net.cpp:100] Creating Layer bnhg1_up2_branch2b
I0903 18:00:12.410686 23978 net.cpp:434] bnhg1_up2_branch2b <- reshg1_up2_branch2b
I0903 18:00:12.410694 23978 net.cpp:395] bnhg1_up2_branch2b -> reshg1_up2_branch2b (in-place)
I0903 18:00:12.410830 23978 net.cpp:150] Setting up bnhg1_up2_branch2b
I0903 18:00:12.410837 23978 net.cpp:157] Top shape: 2 128 64 64 (1048576)
I0903 18:00:12.410841 23978 net.cpp:165] Memory required for data: 634388480
I0903 18:00:12.410851 23978 layer_factory.hpp:77] Creating layer scalehg1_up2_branch2b
I0903 18:00:12.410859 23978 net.cpp:100] Creating Layer scalehg1_up2_branch2b
I0903 18:00:12.410864 23978 net.cpp:434] scalehg1_up2_branch2b <- reshg1_up2_branch2b
I0903 18:00:12.410872 23978 net.cpp:395] scalehg1_up2_branch2b -> reshg1_up2_branch2b (in-place)
I0903 18:00:12.410908 23978 layer_factory.hpp:77] Creating layer scalehg1_up2_branch2b
I0903 18:00:12.410989 23978 net.cpp:150] Setting up scalehg1_up2_branch2b
I0903 18:00:12.410995 23978 net.cpp:157] Top shape: 2 128 64 64 (1048576)
I0903 18:00:12.411000 23978 net.cpp:165] Memory required for data: 638582784
I0903 18:00:12.411008 23978 layer_factory.hpp:77] Creating layer reshg1_up2_branch2b_relu
I0903 18:00:12.411015 23978 net.cpp:100] Creating Layer reshg1_up2_branch2b_relu
I0903 18:00:12.411020 23978 net.cpp:434] reshg1_up2_branch2b_relu <- reshg1_up2_branch2b
I0903 18:00:12.411028 23978 net.cpp:395] reshg1_up2_branch2b_relu -> reshg1_up2_branch2b (in-place)
I0903 18:00:12.411036 23978 net.cpp:150] Setting up reshg1_up2_branch2b_relu
I0903 18:00:12.411041 23978 net.cpp:157] Top shape: 2 128 64 64 (1048576)
I0903 18:00:12.411046 23978 net.cpp:165] Memory required for data: 642777088
I0903 18:00:12.411051 23978 layer_factory.hpp:77] Creating layer reshg1_up2_branch2c
I0903 18:00:12.411062 23978 net.cpp:100] Creating Layer reshg1_up2_branch2c
I0903 18:00:12.411065 23978 net.cpp:434] reshg1_up2_branch2c <- reshg1_up2_branch2b
I0903 18:00:12.411074 23978 net.cpp:408] reshg1_up2_branch2c -> reshg1_up2_branch2c
I0903 18:00:12.411485 23978 net.cpp:150] Setting up reshg1_up2_branch2c
I0903 18:00:12.411494 23978 net.cpp:157] Top shape: 2 256 64 64 (2097152)
I0903 18:00:12.411497 23978 net.cpp:165] Memory required for data: 651165696
I0903 18:00:12.411504 23978 layer_factory.hpp:77] Creating layer bnhg1_up2_branch2c
I0903 18:00:12.411512 23978 net.cpp:100] Creating Layer bnhg1_up2_branch2c
I0903 18:00:12.411517 23978 net.cpp:434] bnhg1_up2_branch2c <- reshg1_up2_branch2c
I0903 18:00:12.411525 23978 net.cpp:395] bnhg1_up2_branch2c -> reshg1_up2_branch2c (in-place)
I0903 18:00:12.411671 23978 net.cpp:150] Setting up bnhg1_up2_branch2c
I0903 18:00:12.411680 23978 net.cpp:157] Top shape: 2 256 64 64 (2097152)
I0903 18:00:12.411686 23978 net.cpp:165] Memory required for data: 659554304
I0903 18:00:12.411707 23978 layer_factory.hpp:77] Creating layer scalehg1_up2_branch2c
I0903 18:00:12.411718 23978 net.cpp:100] Creating Layer scalehg1_up2_branch2c
I0903 18:00:12.411722 23978 net.cpp:434] scalehg1_up2_branch2c <- reshg1_up2_branch2c
I0903 18:00:12.411730 23978 net.cpp:395] scalehg1_up2_branch2c -> reshg1_up2_branch2c (in-place)
I0903 18:00:12.411764 23978 layer_factory.hpp:77] Creating layer scalehg1_up2_branch2c
I0903 18:00:12.411841 23978 net.cpp:150] Setting up scalehg1_up2_branch2c
I0903 18:00:12.411849 23978 net.cpp:157] Top shape: 2 256 64 64 (2097152)
I0903 18:00:12.411852 23978 net.cpp:165] Memory required for data: 667942912
I0903 18:00:12.411860 23978 layer_factory.hpp:77] Creating layer reshg1_up2
I0903 18:00:12.411869 23978 net.cpp:100] Creating Layer reshg1_up2
I0903 18:00:12.411875 23978 net.cpp:434] reshg1_up2 <- reshg1_up1_reshg1_up1_relu_0_split_1
I0903 18:00:12.411880 23978 net.cpp:434] reshg1_up2 <- reshg1_up2_branch2c
I0903 18:00:12.411888 23978 net.cpp:408] reshg1_up2 -> reshg1_up2
I0903 18:00:12.411909 23978 net.cpp:150] Setting up reshg1_up2
I0903 18:00:12.411919 23978 net.cpp:157] Top shape: 2 256 64 64 (2097152)
I0903 18:00:12.411923 23978 net.cpp:165] Memory required for data: 676331520
I0903 18:00:12.411927 23978 layer_factory.hpp:77] Creating layer reshg1_up2_relu
I0903 18:00:12.411934 23978 net.cpp:100] Creating Layer reshg1_up2_relu
I0903 18:00:12.411939 23978 net.cpp:434] reshg1_up2_relu <- reshg1_up2
I0903 18:00:12.411945 23978 net.cpp:395] reshg1_up2_relu -> reshg1_up2 (in-place)
I0903 18:00:12.411952 23978 net.cpp:150] Setting up reshg1_up2_relu
I0903 18:00:12.411959 23978 net.cpp:157] Top shape: 2 256 64 64 (2097152)
I0903 18:00:12.411963 23978 net.cpp:165] Memory required for data: 684720128
I0903 18:00:12.411967 23978 layer_factory.hpp:77] Creating layer reshg1_up2_reshg1_up2_relu_0_split
I0903 18:00:12.411976 23978 net.cpp:100] Creating Layer reshg1_up2_reshg1_up2_relu_0_split
I0903 18:00:12.411980 23978 net.cpp:434] reshg1_up2_reshg1_up2_relu_0_split <- reshg1_up2
I0903 18:00:12.411986 23978 net.cpp:408] reshg1_up2_reshg1_up2_relu_0_split -> reshg1_up2_reshg1_up2_relu_0_split_0
I0903 18:00:12.411995 23978 net.cpp:408] reshg1_up2_reshg1_up2_relu_0_split -> reshg1_up2_reshg1_up2_relu_0_split_1
I0903 18:00:12.412025 23978 net.cpp:150] Setting up reshg1_up2_reshg1_up2_relu_0_split
I0903 18:00:12.412032 23978 net.cpp:157] Top shape: 2 256 64 64 (2097152)
I0903 18:00:12.412039 23978 net.cpp:157] Top shape: 2 256 64 64 (2097152)
I0903 18:00:12.412044 23978 net.cpp:165] Memory required for data: 701497344
I0903 18:00:12.412048 23978 layer_factory.hpp:77] Creating layer reshg1_up4_branch1
I0903 18:00:12.412057 23978 net.cpp:100] Creating Layer reshg1_up4_branch1
I0903 18:00:12.412061 23978 net.cpp:434] reshg1_up4_branch1 <- reshg1_up2_reshg1_up2_relu_0_split_0
I0903 18:00:12.412070 23978 net.cpp:408] reshg1_up4_branch1 -> reshg1_up4_branch1
I0903 18:00:12.413316 23978 net.cpp:150] Setting up reshg1_up4_branch1
I0903 18:00:12.413328 23978 net.cpp:157] Top shape: 2 512 64 64 (4194304)
I0903 18:00:12.413332 23978 net.cpp:165] Memory required for data: 718274560
I0903 18:00:12.413338 23978 layer_factory.hpp:77] Creating layer bnhg1_up4_branch1
I0903 18:00:12.413349 23978 net.cpp:100] Creating Layer bnhg1_up4_branch1
I0903 18:00:12.413354 23978 net.cpp:434] bnhg1_up4_branch1 <- reshg1_up4_branch1
I0903 18:00:12.413362 23978 net.cpp:395] bnhg1_up4_branch1 -> reshg1_up4_branch1 (in-place)
I0903 18:00:12.413892 23978 net.cpp:150] Setting up bnhg1_up4_branch1
I0903 18:00:12.413903 23978 net.cpp:157] Top shape: 2 512 64 64 (4194304)
I0903 18:00:12.413908 23978 net.cpp:165] Memory required for data: 735051776
I0903 18:00:12.413918 23978 layer_factory.hpp:77] Creating layer scalehg1_up4_branch1
I0903 18:00:12.413929 23978 net.cpp:100] Creating Layer scalehg1_up4_branch1
I0903 18:00:12.413944 23978 net.cpp:434] scalehg1_up4_branch1 <- reshg1_up4_branch1
I0903 18:00:12.413954 23978 net.cpp:395] scalehg1_up4_branch1 -> reshg1_up4_branch1 (in-place)
I0903 18:00:12.413995 23978 layer_factory.hpp:77] Creating layer scalehg1_up4_branch1
I0903 18:00:12.414082 23978 net.cpp:150] Setting up scalehg1_up4_branch1
I0903 18:00:12.414088 23978 net.cpp:157] Top shape: 2 512 64 64 (4194304)
I0903 18:00:12.414093 23978 net.cpp:165] Memory required for data: 751828992
I0903 18:00:12.414101 23978 layer_factory.hpp:77] Creating layer reshg1_up4_branch2a
I0903 18:00:12.414114 23978 net.cpp:100] Creating Layer reshg1_up4_branch2a
I0903 18:00:12.414119 23978 net.cpp:434] reshg1_up4_branch2a <- reshg1_up2_reshg1_up2_relu_0_split_1
I0903 18:00:12.414129 23978 net.cpp:408] reshg1_up4_branch2a -> reshg1_up4_branch2a
I0903 18:00:12.419270 23978 net.cpp:150] Setting up reshg1_up4_branch2a
I0903 18:00:12.419302 23978 net.cpp:157] Top shape: 2 256 64 64 (2097152)
I0903 18:00:12.419306 23978 net.cpp:165] Memory required for data: 760217600
I0903 18:00:12.419318 23978 layer_factory.hpp:77] Creating layer bnhg1_up4_branch2a
I0903 18:00:12.419332 23978 net.cpp:100] Creating Layer bnhg1_up4_branch2a
I0903 18:00:12.419339 23978 net.cpp:434] bnhg1_up4_branch2a <- reshg1_up4_branch2a
I0903 18:00:12.419349 23978 net.cpp:395] bnhg1_up4_branch2a -> reshg1_up4_branch2a (in-place)
I0903 18:00:12.419531 23978 net.cpp:150] Setting up bnhg1_up4_branch2a
I0903 18:00:12.419539 23978 net.cpp:157] Top shape: 2 256 64 64 (2097152)
I0903 18:00:12.419543 23978 net.cpp:165] Memory required for data: 768606208
I0903 18:00:12.419553 23978 layer_factory.hpp:77] Creating layer scalehg1_up4_branch2a
I0903 18:00:12.419565 23978 net.cpp:100] Creating Layer scalehg1_up4_branch2a
I0903 18:00:12.419569 23978 net.cpp:434] scalehg1_up4_branch2a <- reshg1_up4_branch2a
I0903 18:00:12.419576 23978 net.cpp:395] scalehg1_up4_branch2a -> reshg1_up4_branch2a (in-place)
I0903 18:00:12.419620 23978 layer_factory.hpp:77] Creating layer scalehg1_up4_branch2a
I0903 18:00:12.419701 23978 net.cpp:150] Setting up scalehg1_up4_branch2a
I0903 18:00:12.419709 23978 net.cpp:157] Top shape: 2 256 64 64 (2097152)
I0903 18:00:12.419713 23978 net.cpp:165] Memory required for data: 776994816
I0903 18:00:12.419721 23978 layer_factory.hpp:77] Creating layer reshg1_up4_branch2a_relu
I0903 18:00:12.419730 23978 net.cpp:100] Creating Layer reshg1_up4_branch2a_relu
I0903 18:00:12.419734 23978 net.cpp:434] reshg1_up4_branch2a_relu <- reshg1_up4_branch2a
I0903 18:00:12.419740 23978 net.cpp:395] reshg1_up4_branch2a_relu -> reshg1_up4_branch2a (in-place)
I0903 18:00:12.419749 23978 net.cpp:150] Setting up reshg1_up4_branch2a_relu
I0903 18:00:12.419755 23978 net.cpp:157] Top shape: 2 256 64 64 (2097152)
I0903 18:00:12.419760 23978 net.cpp:165] Memory required for data: 785383424
I0903 18:00:12.419764 23978 layer_factory.hpp:77] Creating layer reshg1_up4_branch2b
I0903 18:00:12.419776 23978 net.cpp:100] Creating Layer reshg1_up4_branch2b
I0903 18:00:12.419780 23978 net.cpp:434] reshg1_up4_branch2b <- reshg1_up4_branch2a
I0903 18:00:12.419788 23978 net.cpp:408] reshg1_up4_branch2b -> reshg1_up4_branch2b
I0903 18:00:12.425794 23978 net.cpp:150] Setting up reshg1_up4_branch2b
I0903 18:00:12.425825 23978 net.cpp:157] Top shape: 2 256 64 64 (2097152)
I0903 18:00:12.425829 23978 net.cpp:165] Memory required for data: 793772032
I0903 18:00:12.425839 23978 layer_factory.hpp:77] Creating layer bnhg1_up4_branch2b
I0903 18:00:12.425853 23978 net.cpp:100] Creating Layer bnhg1_up4_branch2b
I0903 18:00:12.425860 23978 net.cpp:434] bnhg1_up4_branch2b <- reshg1_up4_branch2b
I0903 18:00:12.425870 23978 net.cpp:395] bnhg1_up4_branch2b -> reshg1_up4_branch2b (in-place)
I0903 18:00:12.426020 23978 net.cpp:150] Setting up bnhg1_up4_branch2b
I0903 18:00:12.426028 23978 net.cpp:157] Top shape: 2 256 64 64 (2097152)
I0903 18:00:12.426034 23978 net.cpp:165] Memory required for data: 802160640
I0903 18:00:12.426045 23978 layer_factory.hpp:77] Creating layer scalehg1_up4_branch2b
I0903 18:00:12.426056 23978 net.cpp:100] Creating Layer scalehg1_up4_branch2b
I0903 18:00:12.426072 23978 net.cpp:434] scalehg1_up4_branch2b <- reshg1_up4_branch2b
I0903 18:00:12.426080 23978 net.cpp:395] scalehg1_up4_branch2b -> reshg1_up4_branch2b (in-place)
I0903 18:00:12.426125 23978 layer_factory.hpp:77] Creating layer scalehg1_up4_branch2b
I0903 18:00:12.426236 23978 net.cpp:150] Setting up scalehg1_up4_branch2b
I0903 18:00:12.426244 23978 net.cpp:157] Top shape: 2 256 64 64 (2097152)
I0903 18:00:12.426259 23978 net.cpp:165] Memory required for data: 810549248
I0903 18:00:12.426267 23978 layer_factory.hpp:77] Creating layer reshg1_up4_branch2b_relu
I0903 18:00:12.426277 23978 net.cpp:100] Creating Layer reshg1_up4_branch2b_relu
I0903 18:00:12.426281 23978 net.cpp:434] reshg1_up4_branch2b_relu <- reshg1_up4_branch2b
I0903 18:00:12.426287 23978 net.cpp:395] reshg1_up4_branch2b_relu -> reshg1_up4_branch2b (in-place)
I0903 18:00:12.426295 23978 net.cpp:150] Setting up reshg1_up4_branch2b_relu
I0903 18:00:12.426301 23978 net.cpp:157] Top shape: 2 256 64 64 (2097152)
I0903 18:00:12.426306 23978 net.cpp:165] Memory required for data: 818937856
I0903 18:00:12.426311 23978 layer_factory.hpp:77] Creating layer reshg1_up4_branch2c
I0903 18:00:12.426323 23978 net.cpp:100] Creating Layer reshg1_up4_branch2c
I0903 18:00:12.426327 23978 net.cpp:434] reshg1_up4_branch2c <- reshg1_up4_branch2b
I0903 18:00:12.426336 23978 net.cpp:408] reshg1_up4_branch2c -> reshg1_up4_branch2c
I0903 18:00:12.428055 23978 net.cpp:150] Setting up reshg1_up4_branch2c
I0903 18:00:12.428084 23978 net.cpp:157] Top shape: 2 512 64 64 (4194304)
I0903 18:00:12.428088 23978 net.cpp:165] Memory required for data: 835715072
I0903 18:00:12.428098 23978 layer_factory.hpp:77] Creating layer bnhg1_up4_branch2c
I0903 18:00:12.428113 23978 net.cpp:100] Creating Layer bnhg1_up4_branch2c
I0903 18:00:12.428119 23978 net.cpp:434] bnhg1_up4_branch2c <- reshg1_up4_branch2c
I0903 18:00:12.428130 23978 net.cpp:395] bnhg1_up4_branch2c -> reshg1_up4_branch2c (in-place)
I0903 18:00:12.428282 23978 net.cpp:150] Setting up bnhg1_up4_branch2c
I0903 18:00:12.428289 23978 net.cpp:157] Top shape: 2 512 64 64 (4194304)
I0903 18:00:12.428293 23978 net.cpp:165] Memory required for data: 852492288
I0903 18:00:12.428303 23978 layer_factory.hpp:77] Creating layer scalehg1_up4_branch2c
I0903 18:00:12.428314 23978 net.cpp:100] Creating Layer scalehg1_up4_branch2c
I0903 18:00:12.428318 23978 net.cpp:434] scalehg1_up4_branch2c <- reshg1_up4_branch2c
I0903 18:00:12.428333 23978 net.cpp:395] scalehg1_up4_branch2c -> reshg1_up4_branch2c (in-place)
I0903 18:00:12.428378 23978 layer_factory.hpp:77] Creating layer scalehg1_up4_branch2c
I0903 18:00:12.428465 23978 net.cpp:150] Setting up scalehg1_up4_branch2c
I0903 18:00:12.428473 23978 net.cpp:157] Top shape: 2 512 64 64 (4194304)
I0903 18:00:12.428478 23978 net.cpp:165] Memory required for data: 869269504
I0903 18:00:12.428485 23978 layer_factory.hpp:77] Creating layer reshg1_up4
I0903 18:00:12.428493 23978 net.cpp:100] Creating Layer reshg1_up4
I0903 18:00:12.428498 23978 net.cpp:434] reshg1_up4 <- reshg1_up4_branch1
I0903 18:00:12.428503 23978 net.cpp:434] reshg1_up4 <- reshg1_up4_branch2c
I0903 18:00:12.428510 23978 net.cpp:408] reshg1_up4 -> reshg1_up4
I0903 18:00:12.428535 23978 net.cpp:150] Setting up reshg1_up4
I0903 18:00:12.428542 23978 net.cpp:157] Top shape: 2 512 64 64 (4194304)
I0903 18:00:12.428547 23978 net.cpp:165] Memory required for data: 886046720
I0903 18:00:12.428551 23978 layer_factory.hpp:77] Creating layer reshg1_up4_relu
I0903 18:00:12.428562 23978 net.cpp:100] Creating Layer reshg1_up4_relu
I0903 18:00:12.428566 23978 net.cpp:434] reshg1_up4_relu <- reshg1_up4
I0903 18:00:12.428572 23978 net.cpp:395] reshg1_up4_relu -> reshg1_up4 (in-place)
I0903 18:00:12.428580 23978 net.cpp:150] Setting up reshg1_up4_relu
I0903 18:00:12.428586 23978 net.cpp:157] Top shape: 2 512 64 64 (4194304)
I0903 18:00:12.428591 23978 net.cpp:165] Memory required for data: 902823936
I0903 18:00:12.428596 23978 layer_factory.hpp:77] Creating layer hg1_pool1
I0903 18:00:12.428606 23978 net.cpp:100] Creating Layer hg1_pool1
I0903 18:00:12.428620 23978 net.cpp:434] hg1_pool1 <- res6_res6_relu_0_split_2
I0903 18:00:12.428629 23978 net.cpp:408] hg1_pool1 -> hg1_pool1
I0903 18:00:12.428663 23978 net.cpp:150] Setting up hg1_pool1
I0903 18:00:12.428669 23978 net.cpp:157] Top shape: 2 256 32 32 (524288)
I0903 18:00:12.428673 23978 net.cpp:165] Memory required for data: 904921088
I0903 18:00:12.428678 23978 layer_factory.hpp:77] Creating layer hg1_pool1_hg1_pool1_0_split
I0903 18:00:12.428688 23978 net.cpp:100] Creating Layer hg1_pool1_hg1_pool1_0_split
I0903 18:00:12.428692 23978 net.cpp:434] hg1_pool1_hg1_pool1_0_split <- hg1_pool1
I0903 18:00:12.428699 23978 net.cpp:408] hg1_pool1_hg1_pool1_0_split -> hg1_pool1_hg1_pool1_0_split_0
I0903 18:00:12.428707 23978 net.cpp:408] hg1_pool1_hg1_pool1_0_split -> hg1_pool1_hg1_pool1_0_split_1
I0903 18:00:12.428737 23978 net.cpp:150] Setting up hg1_pool1_hg1_pool1_0_split
I0903 18:00:12.428745 23978 net.cpp:157] Top shape: 2 256 32 32 (524288)
I0903 18:00:12.428751 23978 net.cpp:157] Top shape: 2 256 32 32 (524288)
I0903 18:00:12.428755 23978 net.cpp:165] Memory required for data: 909115392
I0903 18:00:12.428760 23978 layer_factory.hpp:77] Creating layer reshg1_low1_branch1
I0903 18:00:12.428772 23978 net.cpp:100] Creating Layer reshg1_low1_branch1
I0903 18:00:12.428776 23978 net.cpp:434] reshg1_low1_branch1 <- hg1_pool1_hg1_pool1_0_split_0
I0903 18:00:12.428784 23978 net.cpp:408] reshg1_low1_branch1 -> reshg1_low1_branch1
I0903 18:00:12.429466 23978 net.cpp:150] Setting up reshg1_low1_branch1
I0903 18:00:12.429474 23978 net.cpp:157] Top shape: 2 256 32 32 (524288)
I0903 18:00:12.429478 23978 net.cpp:165] Memory required for data: 911212544
I0903 18:00:12.429486 23978 layer_factory.hpp:77] Creating layer bnhg1_low1_branch1
I0903 18:00:12.429497 23978 net.cpp:100] Creating Layer bnhg1_low1_branch1
I0903 18:00:12.429500 23978 net.cpp:434] bnhg1_low1_branch1 <- reshg1_low1_branch1
I0903 18:00:12.429507 23978 net.cpp:395] bnhg1_low1_branch1 -> reshg1_low1_branch1 (in-place)
I0903 18:00:12.429638 23978 net.cpp:150] Setting up bnhg1_low1_branch1
I0903 18:00:12.429646 23978 net.cpp:157] Top shape: 2 256 32 32 (524288)
I0903 18:00:12.429649 23978 net.cpp:165] Memory required for data: 913309696
I0903 18:00:12.429659 23978 layer_factory.hpp:77] Creating layer scalehg1_low1_branch1
I0903 18:00:12.429667 23978 net.cpp:100] Creating Layer scalehg1_low1_branch1
I0903 18:00:12.429672 23978 net.cpp:434] scalehg1_low1_branch1 <- reshg1_low1_branch1
I0903 18:00:12.429679 23978 net.cpp:395] scalehg1_low1_branch1 -> reshg1_low1_branch1 (in-place)
I0903 18:00:12.429713 23978 layer_factory.hpp:77] Creating layer scalehg1_low1_branch1
I0903 18:00:12.429792 23978 net.cpp:150] Setting up scalehg1_low1_branch1
I0903 18:00:12.429800 23978 net.cpp:157] Top shape: 2 256 32 32 (524288)
I0903 18:00:12.429803 23978 net.cpp:165] Memory required for data: 915406848
I0903 18:00:12.429811 23978 layer_factory.hpp:77] Creating layer reshg1_low1_branch2a
I0903 18:00:12.429824 23978 net.cpp:100] Creating Layer reshg1_low1_branch2a
I0903 18:00:12.429828 23978 net.cpp:434] reshg1_low1_branch2a <- hg1_pool1_hg1_pool1_0_split_1
I0903 18:00:12.429836 23978 net.cpp:408] reshg1_low1_branch2a -> reshg1_low1_branch2a
I0903 18:00:12.430627 23978 net.cpp:150] Setting up reshg1_low1_branch2a
I0903 18:00:12.430639 23978 net.cpp:157] Top shape: 2 128 32 32 (262144)
I0903 18:00:12.430644 23978 net.cpp:165] Memory required for data: 916455424
I0903 18:00:12.430649 23978 layer_factory.hpp:77] Creating layer bnhg1_low1_branch2a
I0903 18:00:12.430660 23978 net.cpp:100] Creating Layer bnhg1_low1_branch2a
I0903 18:00:12.430665 23978 net.cpp:434] bnhg1_low1_branch2a <- reshg1_low1_branch2a
I0903 18:00:12.430673 23978 net.cpp:395] bnhg1_low1_branch2a -> reshg1_low1_branch2a (in-place)
I0903 18:00:12.430810 23978 net.cpp:150] Setting up bnhg1_low1_branch2a
I0903 18:00:12.430819 23978 net.cpp:157] Top shape: 2 128 32 32 (262144)
I0903 18:00:12.430824 23978 net.cpp:165] Memory required for data: 917504000
I0903 18:00:12.430832 23978 layer_factory.hpp:77] Creating layer scalehg1_low1_branch2a
I0903 18:00:12.430848 23978 net.cpp:100] Creating Layer scalehg1_low1_branch2a
I0903 18:00:12.430855 23978 net.cpp:434] scalehg1_low1_branch2a <- reshg1_low1_branch2a
I0903 18:00:12.430862 23978 net.cpp:395] scalehg1_low1_branch2a -> reshg1_low1_branch2a (in-place)
I0903 18:00:12.430896 23978 layer_factory.hpp:77] Creating layer scalehg1_low1_branch2a
I0903 18:00:12.430972 23978 net.cpp:150] Setting up scalehg1_low1_branch2a
I0903 18:00:12.430980 23978 net.cpp:157] Top shape: 2 128 32 32 (262144)
I0903 18:00:12.430984 23978 net.cpp:165] Memory required for data: 918552576
I0903 18:00:12.430992 23978 layer_factory.hpp:77] Creating layer reshg1_low1_branch2a_relu
I0903 18:00:12.431000 23978 net.cpp:100] Creating Layer reshg1_low1_branch2a_relu
I0903 18:00:12.431005 23978 net.cpp:434] reshg1_low1_branch2a_relu <- reshg1_low1_branch2a
I0903 18:00:12.431012 23978 net.cpp:395] reshg1_low1_branch2a_relu -> reshg1_low1_branch2a (in-place)
I0903 18:00:12.431020 23978 net.cpp:150] Setting up reshg1_low1_branch2a_relu
I0903 18:00:12.431026 23978 net.cpp:157] Top shape: 2 128 32 32 (262144)
I0903 18:00:12.431031 23978 net.cpp:165] Memory required for data: 919601152
I0903 18:00:12.431035 23978 layer_factory.hpp:77] Creating layer reshg1_low1_branch2b
I0903 18:00:12.431046 23978 net.cpp:100] Creating Layer reshg1_low1_branch2b
I0903 18:00:12.431051 23978 net.cpp:434] reshg1_low1_branch2b <- reshg1_low1_branch2a
I0903 18:00:12.431057 23978 net.cpp:408] reshg1_low1_branch2b -> reshg1_low1_branch2b
I0903 18:00:12.432742 23978 net.cpp:150] Setting up reshg1_low1_branch2b
I0903 18:00:12.432754 23978 net.cpp:157] Top shape: 2 128 32 32 (262144)
I0903 18:00:12.432759 23978 net.cpp:165] Memory required for data: 920649728
I0903 18:00:12.432765 23978 layer_factory.hpp:77] Creating layer bnhg1_low1_branch2b
I0903 18:00:12.432773 23978 net.cpp:100] Creating Layer bnhg1_low1_branch2b
I0903 18:00:12.432780 23978 net.cpp:434] bnhg1_low1_branch2b <- reshg1_low1_branch2b
I0903 18:00:12.432787 23978 net.cpp:395] bnhg1_low1_branch2b -> reshg1_low1_branch2b (in-place)
I0903 18:00:12.432926 23978 net.cpp:150] Setting up bnhg1_low1_branch2b
I0903 18:00:12.432934 23978 net.cpp:157] Top shape: 2 128 32 32 (262144)
I0903 18:00:12.432938 23978 net.cpp:165] Memory required for data: 921698304
I0903 18:00:12.432950 23978 layer_factory.hpp:77] Creating layer scalehg1_low1_branch2b
I0903 18:00:12.432974 23978 net.cpp:100] Creating Layer scalehg1_low1_branch2b
I0903 18:00:12.432979 23978 net.cpp:434] scalehg1_low1_branch2b <- reshg1_low1_branch2b
I0903 18:00:12.432986 23978 net.cpp:395] scalehg1_low1_branch2b -> reshg1_low1_branch2b (in-place)
I0903 18:00:12.433022 23978 layer_factory.hpp:77] Creating layer scalehg1_low1_branch2b
I0903 18:00:12.433099 23978 net.cpp:150] Setting up scalehg1_low1_branch2b
I0903 18:00:12.433105 23978 net.cpp:157] Top shape: 2 128 32 32 (262144)
I0903 18:00:12.433109 23978 net.cpp:165] Memory required for data: 922746880
I0903 18:00:12.433118 23978 layer_factory.hpp:77] Creating layer reshg1_low1_branch2b_relu
I0903 18:00:12.433125 23978 net.cpp:100] Creating Layer reshg1_low1_branch2b_relu
I0903 18:00:12.433130 23978 net.cpp:434] reshg1_low1_branch2b_relu <- reshg1_low1_branch2b
I0903 18:00:12.433138 23978 net.cpp:395] reshg1_low1_branch2b_relu -> reshg1_low1_branch2b (in-place)
I0903 18:00:12.433145 23978 net.cpp:150] Setting up reshg1_low1_branch2b_relu
I0903 18:00:12.433151 23978 net.cpp:157] Top shape: 2 128 32 32 (262144)
I0903 18:00:12.433156 23978 net.cpp:165] Memory required for data: 923795456
I0903 18:00:12.433161 23978 layer_factory.hpp:77] Creating layer reshg1_low1_branch2c
I0903 18:00:12.433171 23978 net.cpp:100] Creating Layer reshg1_low1_branch2c
I0903 18:00:12.433174 23978 net.cpp:434] reshg1_low1_branch2c <- reshg1_low1_branch2b
I0903 18:00:12.433182 23978 net.cpp:408] reshg1_low1_branch2c -> reshg1_low1_branch2c
I0903 18:00:12.433851 23978 net.cpp:150] Setting up reshg1_low1_branch2c
I0903 18:00:12.433861 23978 net.cpp:157] Top shape: 2 256 32 32 (524288)
I0903 18:00:12.433873 23978 net.cpp:165] Memory required for data: 925892608
I0903 18:00:12.433881 23978 layer_factory.hpp:77] Creating layer bnhg1_low1_branch2c
I0903 18:00:12.433889 23978 net.cpp:100] Creating Layer bnhg1_low1_branch2c
I0903 18:00:12.433895 23978 net.cpp:434] bnhg1_low1_branch2c <- reshg1_low1_branch2c
I0903 18:00:12.433905 23978 net.cpp:395] bnhg1_low1_branch2c -> reshg1_low1_branch2c (in-place)
I0903 18:00:12.434041 23978 net.cpp:150] Setting up bnhg1_low1_branch2c
I0903 18:00:12.434047 23978 net.cpp:157] Top shape: 2 256 32 32 (524288)
I0903 18:00:12.434051 23978 net.cpp:165] Memory required for data: 927989760
I0903 18:00:12.434062 23978 layer_factory.hpp:77] Creating layer scalehg1_low1_branch2c
I0903 18:00:12.434069 23978 net.cpp:100] Creating Layer scalehg1_low1_branch2c
I0903 18:00:12.434074 23978 net.cpp:434] scalehg1_low1_branch2c <- reshg1_low1_branch2c
I0903 18:00:12.434082 23978 net.cpp:395] scalehg1_low1_branch2c -> reshg1_low1_branch2c (in-place)
I0903 18:00:12.434116 23978 layer_factory.hpp:77] Creating layer scalehg1_low1_branch2c
I0903 18:00:12.434193 23978 net.cpp:150] Setting up scalehg1_low1_branch2c
I0903 18:00:12.434201 23978 net.cpp:157] Top shape: 2 256 32 32 (524288)
I0903 18:00:12.434204 23978 net.cpp:165] Memory required for data: 930086912
I0903 18:00:12.434212 23978 layer_factory.hpp:77] Creating layer reshg1_low1
I0903 18:00:12.434221 23978 net.cpp:100] Creating Layer reshg1_low1
I0903 18:00:12.434226 23978 net.cpp:434] reshg1_low1 <- reshg1_low1_branch1
I0903 18:00:12.434231 23978 net.cpp:434] reshg1_low1 <- reshg1_low1_branch2c
I0903 18:00:12.434239 23978 net.cpp:408] reshg1_low1 -> reshg1_low1
I0903 18:00:12.434262 23978 net.cpp:150] Setting up reshg1_low1
I0903 18:00:12.434268 23978 net.cpp:157] Top shape: 2 256 32 32 (524288)
I0903 18:00:12.434273 23978 net.cpp:165] Memory required for data: 932184064
I0903 18:00:12.434278 23978 layer_factory.hpp:77] Creating layer reshg1_low1_relu
I0903 18:00:12.434285 23978 net.cpp:100] Creating Layer reshg1_low1_relu
I0903 18:00:12.434289 23978 net.cpp:434] reshg1_low1_relu <- reshg1_low1
I0903 18:00:12.434295 23978 net.cpp:395] reshg1_low1_relu -> reshg1_low1 (in-place)
I0903 18:00:12.434304 23978 net.cpp:150] Setting up reshg1_low1_relu
I0903 18:00:12.434311 23978 net.cpp:157] Top shape: 2 256 32 32 (524288)
I0903 18:00:12.434315 23978 net.cpp:165] Memory required for data: 934281216
I0903 18:00:12.434319 23978 layer_factory.hpp:77] Creating layer reshg1_low1_reshg1_low1_relu_0_split
I0903 18:00:12.434327 23978 net.cpp:100] Creating Layer reshg1_low1_reshg1_low1_relu_0_split
I0903 18:00:12.434331 23978 net.cpp:434] reshg1_low1_reshg1_low1_relu_0_split <- reshg1_low1
I0903 18:00:12.434339 23978 net.cpp:408] reshg1_low1_reshg1_low1_relu_0_split -> reshg1_low1_reshg1_low1_relu_0_split_0
I0903 18:00:12.434346 23978 net.cpp:408] reshg1_low1_reshg1_low1_relu_0_split -> reshg1_low1_reshg1_low1_relu_0_split_1
I0903 18:00:12.434377 23978 net.cpp:150] Setting up reshg1_low1_reshg1_low1_relu_0_split
I0903 18:00:12.434384 23978 net.cpp:157] Top shape: 2 256 32 32 (524288)
I0903 18:00:12.434391 23978 net.cpp:157] Top shape: 2 256 32 32 (524288)
I0903 18:00:12.434396 23978 net.cpp:165] Memory required for data: 938475520
I0903 18:00:12.434399 23978 layer_factory.hpp:77] Creating layer reshg1_low2_branch2a
I0903 18:00:12.434411 23978 net.cpp:100] Creating Layer reshg1_low2_branch2a
I0903 18:00:12.434414 23978 net.cpp:434] reshg1_low2_branch2a <- reshg1_low1_reshg1_low1_relu_0_split_0
I0903 18:00:12.434422 23978 net.cpp:408] reshg1_low2_branch2a -> reshg1_low2_branch2a
I0903 18:00:12.434844 23978 net.cpp:150] Setting up reshg1_low2_branch2a
I0903 18:00:12.434854 23978 net.cpp:157] Top shape: 2 128 32 32 (262144)
I0903 18:00:12.434857 23978 net.cpp:165] Memory required for data: 939524096
I0903 18:00:12.434864 23978 layer_factory.hpp:77] Creating layer bnhg1_low2_branch2a
I0903 18:00:12.434873 23978 net.cpp:100] Creating Layer bnhg1_low2_branch2a
I0903 18:00:12.434878 23978 net.cpp:434] bnhg1_low2_branch2a <- reshg1_low2_branch2a
I0903 18:00:12.434885 23978 net.cpp:395] bnhg1_low2_branch2a -> reshg1_low2_branch2a (in-place)
I0903 18:00:12.435026 23978 net.cpp:150] Setting up bnhg1_low2_branch2a
I0903 18:00:12.435034 23978 net.cpp:157] Top shape: 2 128 32 32 (262144)
I0903 18:00:12.435039 23978 net.cpp:165] Memory required for data: 940572672
I0903 18:00:12.435048 23978 layer_factory.hpp:77] Creating layer scalehg1_low2_branch2a
I0903 18:00:12.435058 23978 net.cpp:100] Creating Layer scalehg1_low2_branch2a
I0903 18:00:12.435063 23978 net.cpp:434] scalehg1_low2_branch2a <- reshg1_low2_branch2a
I0903 18:00:12.435070 23978 net.cpp:395] scalehg1_low2_branch2a -> reshg1_low2_branch2a (in-place)
I0903 18:00:12.435106 23978 layer_factory.hpp:77] Creating layer scalehg1_low2_branch2a
I0903 18:00:12.435184 23978 net.cpp:150] Setting up scalehg1_low2_branch2a
I0903 18:00:12.435192 23978 net.cpp:157] Top shape: 2 128 32 32 (262144)
I0903 18:00:12.435195 23978 net.cpp:165] Memory required for data: 941621248
I0903 18:00:12.435204 23978 layer_factory.hpp:77] Creating layer reshg1_low2_branch2a_relu
I0903 18:00:12.435214 23978 net.cpp:100] Creating Layer reshg1_low2_branch2a_relu
I0903 18:00:12.435219 23978 net.cpp:434] reshg1_low2_branch2a_relu <- reshg1_low2_branch2a
I0903 18:00:12.435225 23978 net.cpp:395] reshg1_low2_branch2a_relu -> reshg1_low2_branch2a (in-place)
I0903 18:00:12.435231 23978 net.cpp:150] Setting up reshg1_low2_branch2a_relu
I0903 18:00:12.435238 23978 net.cpp:157] Top shape: 2 128 32 32 (262144)
I0903 18:00:12.435242 23978 net.cpp:165] Memory required for data: 942669824
I0903 18:00:12.435246 23978 layer_factory.hpp:77] Creating layer reshg1_low2_branch2b
I0903 18:00:12.435257 23978 net.cpp:100] Creating Layer reshg1_low2_branch2b
I0903 18:00:12.435261 23978 net.cpp:434] reshg1_low2_branch2b <- reshg1_low2_branch2a
I0903 18:00:12.435271 23978 net.cpp:408] reshg1_low2_branch2b -> reshg1_low2_branch2b
I0903 18:00:12.436981 23978 net.cpp:150] Setting up reshg1_low2_branch2b
I0903 18:00:12.436993 23978 net.cpp:157] Top shape: 2 128 32 32 (262144)
I0903 18:00:12.436998 23978 net.cpp:165] Memory required for data: 943718400
I0903 18:00:12.437005 23978 layer_factory.hpp:77] Creating layer bnhg1_low2_branch2b
I0903 18:00:12.437014 23978 net.cpp:100] Creating Layer bnhg1_low2_branch2b
I0903 18:00:12.437019 23978 net.cpp:434] bnhg1_low2_branch2b <- reshg1_low2_branch2b
I0903 18:00:12.437027 23978 net.cpp:395] bnhg1_low2_branch2b -> reshg1_low2_branch2b (in-place)
I0903 18:00:12.437163 23978 net.cpp:150] Setting up bnhg1_low2_branch2b
I0903 18:00:12.437171 23978 net.cpp:157] Top shape: 2 128 32 32 (262144)
I0903 18:00:12.437175 23978 net.cpp:165] Memory required for data: 944766976
I0903 18:00:12.437185 23978 layer_factory.hpp:77] Creating layer scalehg1_low2_branch2b
I0903 18:00:12.437194 23978 net.cpp:100] Creating Layer scalehg1_low2_branch2b
I0903 18:00:12.437199 23978 net.cpp:434] scalehg1_low2_branch2b <- reshg1_low2_branch2b
I0903 18:00:12.437206 23978 net.cpp:395] scalehg1_low2_branch2b -> reshg1_low2_branch2b (in-place)
I0903 18:00:12.437242 23978 layer_factory.hpp:77] Creating layer scalehg1_low2_branch2b
I0903 18:00:12.437321 23978 net.cpp:150] Setting up scalehg1_low2_branch2b
I0903 18:00:12.437328 23978 net.cpp:157] Top shape: 2 128 32 32 (262144)
I0903 18:00:12.437332 23978 net.cpp:165] Memory required for data: 945815552
I0903 18:00:12.437340 23978 layer_factory.hpp:77] Creating layer reshg1_low2_branch2b_relu
I0903 18:00:12.437350 23978 net.cpp:100] Creating Layer reshg1_low2_branch2b_relu
I0903 18:00:12.437355 23978 net.cpp:434] reshg1_low2_branch2b_relu <- reshg1_low2_branch2b
I0903 18:00:12.437361 23978 net.cpp:395] reshg1_low2_branch2b_relu -> reshg1_low2_branch2b (in-place)
I0903 18:00:12.437367 23978 net.cpp:150] Setting up reshg1_low2_branch2b_relu
I0903 18:00:12.437374 23978 net.cpp:157] Top shape: 2 128 32 32 (262144)
I0903 18:00:12.437379 23978 net.cpp:165] Memory required for data: 946864128
I0903 18:00:12.437383 23978 layer_factory.hpp:77] Creating layer reshg1_low2_branch2c
I0903 18:00:12.437394 23978 net.cpp:100] Creating Layer reshg1_low2_branch2c
I0903 18:00:12.437407 23978 net.cpp:434] reshg1_low2_branch2c <- reshg1_low2_branch2b
I0903 18:00:12.437417 23978 net.cpp:408] reshg1_low2_branch2c -> reshg1_low2_branch2c
I0903 18:00:12.437831 23978 net.cpp:150] Setting up reshg1_low2_branch2c
I0903 18:00:12.437840 23978 net.cpp:157] Top shape: 2 256 32 32 (524288)
I0903 18:00:12.437844 23978 net.cpp:165] Memory required for data: 948961280
I0903 18:00:12.437851 23978 layer_factory.hpp:77] Creating layer bnhg1_low2_branch2c
I0903 18:00:12.437861 23978 net.cpp:100] Creating Layer bnhg1_low2_branch2c
I0903 18:00:12.437866 23978 net.cpp:434] bnhg1_low2_branch2c <- reshg1_low2_branch2c
I0903 18:00:12.437872 23978 net.cpp:395] bnhg1_low2_branch2c -> reshg1_low2_branch2c (in-place)
I0903 18:00:12.438005 23978 net.cpp:150] Setting up bnhg1_low2_branch2c
I0903 18:00:12.438012 23978 net.cpp:157] Top shape: 2 256 32 32 (524288)
I0903 18:00:12.438016 23978 net.cpp:165] Memory required for data: 951058432
I0903 18:00:12.438026 23978 layer_factory.hpp:77] Creating layer scalehg1_low2_branch2c
I0903 18:00:12.438035 23978 net.cpp:100] Creating Layer scalehg1_low2_branch2c
I0903 18:00:12.438040 23978 net.cpp:434] scalehg1_low2_branch2c <- reshg1_low2_branch2c
I0903 18:00:12.438047 23978 net.cpp:395] scalehg1_low2_branch2c -> reshg1_low2_branch2c (in-place)
I0903 18:00:12.438081 23978 layer_factory.hpp:77] Creating layer scalehg1_low2_branch2c
I0903 18:00:12.438160 23978 net.cpp:150] Setting up scalehg1_low2_branch2c
I0903 18:00:12.438169 23978 net.cpp:157] Top shape: 2 256 32 32 (524288)
I0903 18:00:12.438174 23978 net.cpp:165] Memory required for data: 953155584
I0903 18:00:12.438180 23978 layer_factory.hpp:77] Creating layer reshg1_low2
I0903 18:00:12.438189 23978 net.cpp:100] Creating Layer reshg1_low2
I0903 18:00:12.438194 23978 net.cpp:434] reshg1_low2 <- reshg1_low1_reshg1_low1_relu_0_split_1
I0903 18:00:12.438199 23978 net.cpp:434] reshg1_low2 <- reshg1_low2_branch2c
I0903 18:00:12.438206 23978 net.cpp:408] reshg1_low2 -> reshg1_low2
I0903 18:00:12.438230 23978 net.cpp:150] Setting up reshg1_low2
I0903 18:00:12.438236 23978 net.cpp:157] Top shape: 2 256 32 32 (524288)
I0903 18:00:12.438241 23978 net.cpp:165] Memory required for data: 955252736
I0903 18:00:12.438246 23978 layer_factory.hpp:77] Creating layer reshg1_low2_relu
I0903 18:00:12.438252 23978 net.cpp:100] Creating Layer reshg1_low2_relu
I0903 18:00:12.438257 23978 net.cpp:434] reshg1_low2_relu <- reshg1_low2
I0903 18:00:12.438264 23978 net.cpp:395] reshg1_low2_relu -> reshg1_low2 (in-place)
I0903 18:00:12.438271 23978 net.cpp:150] Setting up reshg1_low2_relu
I0903 18:00:12.438277 23978 net.cpp:157] Top shape: 2 256 32 32 (524288)
I0903 18:00:12.438282 23978 net.cpp:165] Memory required for data: 957349888
I0903 18:00:12.438287 23978 layer_factory.hpp:77] Creating layer reshg1_low2_reshg1_low2_relu_0_split
I0903 18:00:12.438293 23978 net.cpp:100] Creating Layer reshg1_low2_reshg1_low2_relu_0_split
I0903 18:00:12.438298 23978 net.cpp:434] reshg1_low2_reshg1_low2_relu_0_split <- reshg1_low2
I0903 18:00:12.438305 23978 net.cpp:408] reshg1_low2_reshg1_low2_relu_0_split -> reshg1_low2_reshg1_low2_relu_0_split_0
I0903 18:00:12.438314 23978 net.cpp:408] reshg1_low2_reshg1_low2_relu_0_split -> reshg1_low2_reshg1_low2_relu_0_split_1
I0903 18:00:12.438344 23978 net.cpp:150] Setting up reshg1_low2_reshg1_low2_relu_0_split
I0903 18:00:12.438351 23978 net.cpp:157] Top shape: 2 256 32 32 (524288)
I0903 18:00:12.438357 23978 net.cpp:157] Top shape: 2 256 32 32 (524288)
I0903 18:00:12.438361 23978 net.cpp:165] Memory required for data: 961544192
I0903 18:00:12.438366 23978 layer_factory.hpp:77] Creating layer reshg1_low5_branch2a
I0903 18:00:12.438377 23978 net.cpp:100] Creating Layer reshg1_low5_branch2a
I0903 18:00:12.438381 23978 net.cpp:434] reshg1_low5_branch2a <- reshg1_low2_reshg1_low2_relu_0_split_0
I0903 18:00:12.438390 23978 net.cpp:408] reshg1_low5_branch2a -> reshg1_low5_branch2a
I0903 18:00:12.438803 23978 net.cpp:150] Setting up reshg1_low5_branch2a
I0903 18:00:12.438812 23978 net.cpp:157] Top shape: 2 128 32 32 (262144)
I0903 18:00:12.438823 23978 net.cpp:165] Memory required for data: 962592768
I0903 18:00:12.438830 23978 layer_factory.hpp:77] Creating layer bnhg1_low5_branch2a
I0903 18:00:12.438838 23978 net.cpp:100] Creating Layer bnhg1_low5_branch2a
I0903 18:00:12.438843 23978 net.cpp:434] bnhg1_low5_branch2a <- reshg1_low5_branch2a
I0903 18:00:12.438851 23978 net.cpp:395] bnhg1_low5_branch2a -> reshg1_low5_branch2a (in-place)
I0903 18:00:12.438987 23978 net.cpp:150] Setting up bnhg1_low5_branch2a
I0903 18:00:12.438995 23978 net.cpp:157] Top shape: 2 128 32 32 (262144)
I0903 18:00:12.439000 23978 net.cpp:165] Memory required for data: 963641344
I0903 18:00:12.439009 23978 layer_factory.hpp:77] Creating layer scalehg1_low5_branch2a
I0903 18:00:12.439016 23978 net.cpp:100] Creating Layer scalehg1_low5_branch2a
I0903 18:00:12.439021 23978 net.cpp:434] scalehg1_low5_branch2a <- reshg1_low5_branch2a
I0903 18:00:12.439029 23978 net.cpp:395] scalehg1_low5_branch2a -> reshg1_low5_branch2a (in-place)
I0903 18:00:12.439061 23978 layer_factory.hpp:77] Creating layer scalehg1_low5_branch2a
I0903 18:00:12.439141 23978 net.cpp:150] Setting up scalehg1_low5_branch2a
I0903 18:00:12.439149 23978 net.cpp:157] Top shape: 2 128 32 32 (262144)
I0903 18:00:12.439153 23978 net.cpp:165] Memory required for data: 964689920
I0903 18:00:12.439162 23978 layer_factory.hpp:77] Creating layer reshg1_low5_branch2a_relu
I0903 18:00:12.439168 23978 net.cpp:100] Creating Layer reshg1_low5_branch2a_relu
I0903 18:00:12.439175 23978 net.cpp:434] reshg1_low5_branch2a_relu <- reshg1_low5_branch2a
I0903 18:00:12.439182 23978 net.cpp:395] reshg1_low5_branch2a_relu -> reshg1_low5_branch2a (in-place)
I0903 18:00:12.439188 23978 net.cpp:150] Setting up reshg1_low5_branch2a_relu
I0903 18:00:12.439195 23978 net.cpp:157] Top shape: 2 128 32 32 (262144)
I0903 18:00:12.439199 23978 net.cpp:165] Memory required for data: 965738496
I0903 18:00:12.439203 23978 layer_factory.hpp:77] Creating layer reshg1_low5_branch2b
I0903 18:00:12.439214 23978 net.cpp:100] Creating Layer reshg1_low5_branch2b
I0903 18:00:12.439218 23978 net.cpp:434] reshg1_low5_branch2b <- reshg1_low5_branch2a
I0903 18:00:12.439226 23978 net.cpp:408] reshg1_low5_branch2b -> reshg1_low5_branch2b
I0903 18:00:12.441192 23978 net.cpp:150] Setting up reshg1_low5_branch2b
I0903 18:00:12.441205 23978 net.cpp:157] Top shape: 2 128 32 32 (262144)
I0903 18:00:12.441210 23978 net.cpp:165] Memory required for data: 966787072
I0903 18:00:12.441216 23978 layer_factory.hpp:77] Creating layer bnhg1_low5_branch2b
I0903 18:00:12.441226 23978 net.cpp:100] Creating Layer bnhg1_low5_branch2b
I0903 18:00:12.441231 23978 net.cpp:434] bnhg1_low5_branch2b <- reshg1_low5_branch2b
I0903 18:00:12.441241 23978 net.cpp:395] bnhg1_low5_branch2b -> reshg1_low5_branch2b (in-place)
I0903 18:00:12.441380 23978 net.cpp:150] Setting up bnhg1_low5_branch2b
I0903 18:00:12.441387 23978 net.cpp:157] Top shape: 2 128 32 32 (262144)
I0903 18:00:12.441393 23978 net.cpp:165] Memory required for data: 967835648
I0903 18:00:12.441402 23978 layer_factory.hpp:77] Creating layer scalehg1_low5_branch2b
I0903 18:00:12.441411 23978 net.cpp:100] Creating Layer scalehg1_low5_branch2b
I0903 18:00:12.441416 23978 net.cpp:434] scalehg1_low5_branch2b <- reshg1_low5_branch2b
I0903 18:00:12.441424 23978 net.cpp:395] scalehg1_low5_branch2b -> reshg1_low5_branch2b (in-place)
I0903 18:00:12.441458 23978 layer_factory.hpp:77] Creating layer scalehg1_low5_branch2b
I0903 18:00:12.441537 23978 net.cpp:150] Setting up scalehg1_low5_branch2b
I0903 18:00:12.441545 23978 net.cpp:157] Top shape: 2 128 32 32 (262144)
I0903 18:00:12.441550 23978 net.cpp:165] Memory required for data: 968884224
I0903 18:00:12.441558 23978 layer_factory.hpp:77] Creating layer reshg1_low5_branch2b_relu
I0903 18:00:12.441565 23978 net.cpp:100] Creating Layer reshg1_low5_branch2b_relu
I0903 18:00:12.441571 23978 net.cpp:434] reshg1_low5_branch2b_relu <- reshg1_low5_branch2b
I0903 18:00:12.441577 23978 net.cpp:395] reshg1_low5_branch2b_relu -> reshg1_low5_branch2b (in-place)
I0903 18:00:12.441586 23978 net.cpp:150] Setting up reshg1_low5_branch2b_relu
I0903 18:00:12.441599 23978 net.cpp:157] Top shape: 2 128 32 32 (262144)
I0903 18:00:12.441604 23978 net.cpp:165] Memory required for data: 969932800
I0903 18:00:12.441609 23978 layer_factory.hpp:77] Creating layer reshg1_low5_branch2c
I0903 18:00:12.441622 23978 net.cpp:100] Creating Layer reshg1_low5_branch2c
I0903 18:00:12.441625 23978 net.cpp:434] reshg1_low5_branch2c <- reshg1_low5_branch2b
I0903 18:00:12.441635 23978 net.cpp:408] reshg1_low5_branch2c -> reshg1_low5_branch2c
I0903 18:00:12.442059 23978 net.cpp:150] Setting up reshg1_low5_branch2c
I0903 18:00:12.442068 23978 net.cpp:157] Top shape: 2 256 32 32 (524288)
I0903 18:00:12.442071 23978 net.cpp:165] Memory required for data: 972029952
I0903 18:00:12.442080 23978 layer_factory.hpp:77] Creating layer bnhg1_low5_branch2c
I0903 18:00:12.442090 23978 net.cpp:100] Creating Layer bnhg1_low5_branch2c
I0903 18:00:12.442095 23978 net.cpp:434] bnhg1_low5_branch2c <- reshg1_low5_branch2c
I0903 18:00:12.442102 23978 net.cpp:395] bnhg1_low5_branch2c -> reshg1_low5_branch2c (in-place)
I0903 18:00:12.442245 23978 net.cpp:150] Setting up bnhg1_low5_branch2c
I0903 18:00:12.442252 23978 net.cpp:157] Top shape: 2 256 32 32 (524288)
I0903 18:00:12.442255 23978 net.cpp:165] Memory required for data: 974127104
I0903 18:00:12.442265 23978 layer_factory.hpp:77] Creating layer scalehg1_low5_branch2c
I0903 18:00:12.442281 23978 net.cpp:100] Creating Layer scalehg1_low5_branch2c
I0903 18:00:12.442286 23978 net.cpp:434] scalehg1_low5_branch2c <- reshg1_low5_branch2c
I0903 18:00:12.442292 23978 net.cpp:395] scalehg1_low5_branch2c -> reshg1_low5_branch2c (in-place)
I0903 18:00:12.442330 23978 layer_factory.hpp:77] Creating layer scalehg1_low5_branch2c
I0903 18:00:12.442414 23978 net.cpp:150] Setting up scalehg1_low5_branch2c
I0903 18:00:12.442421 23978 net.cpp:157] Top shape: 2 256 32 32 (524288)
I0903 18:00:12.442425 23978 net.cpp:165] Memory required for data: 976224256
I0903 18:00:12.442433 23978 layer_factory.hpp:77] Creating layer reshg1_low5
I0903 18:00:12.442441 23978 net.cpp:100] Creating Layer reshg1_low5
I0903 18:00:12.442446 23978 net.cpp:434] reshg1_low5 <- reshg1_low2_reshg1_low2_relu_0_split_1
I0903 18:00:12.442453 23978 net.cpp:434] reshg1_low5 <- reshg1_low5_branch2c
I0903 18:00:12.442462 23978 net.cpp:408] reshg1_low5 -> reshg1_low5
I0903 18:00:12.442487 23978 net.cpp:150] Setting up reshg1_low5
I0903 18:00:12.442494 23978 net.cpp:157] Top shape: 2 256 32 32 (524288)
I0903 18:00:12.442499 23978 net.cpp:165] Memory required for data: 978321408
I0903 18:00:12.442504 23978 layer_factory.hpp:77] Creating layer reshg1_low5_relu
I0903 18:00:12.442512 23978 net.cpp:100] Creating Layer reshg1_low5_relu
I0903 18:00:12.442517 23978 net.cpp:434] reshg1_low5_relu <- reshg1_low5
I0903 18:00:12.442526 23978 net.cpp:395] reshg1_low5_relu -> reshg1_low5 (in-place)
I0903 18:00:12.442534 23978 net.cpp:150] Setting up reshg1_low5_relu
I0903 18:00:12.442541 23978 net.cpp:157] Top shape: 2 256 32 32 (524288)
I0903 18:00:12.442545 23978 net.cpp:165] Memory required for data: 980418560
I0903 18:00:12.442549 23978 layer_factory.hpp:77] Creating layer reshg1_low5_reshg1_low5_relu_0_split
I0903 18:00:12.442558 23978 net.cpp:100] Creating Layer reshg1_low5_reshg1_low5_relu_0_split
I0903 18:00:12.442561 23978 net.cpp:434] reshg1_low5_reshg1_low5_relu_0_split <- reshg1_low5
I0903 18:00:12.442569 23978 net.cpp:408] reshg1_low5_reshg1_low5_relu_0_split -> reshg1_low5_reshg1_low5_relu_0_split_0
I0903 18:00:12.442577 23978 net.cpp:408] reshg1_low5_reshg1_low5_relu_0_split -> reshg1_low5_reshg1_low5_relu_0_split_1
I0903 18:00:12.442586 23978 net.cpp:408] reshg1_low5_reshg1_low5_relu_0_split -> reshg1_low5_reshg1_low5_relu_0_split_2
I0903 18:00:12.442629 23978 net.cpp:150] Setting up reshg1_low5_reshg1_low5_relu_0_split
I0903 18:00:12.442636 23978 net.cpp:157] Top shape: 2 256 32 32 (524288)
I0903 18:00:12.442641 23978 net.cpp:157] Top shape: 2 256 32 32 (524288)
I0903 18:00:12.442648 23978 net.cpp:157] Top shape: 2 256 32 32 (524288)
I0903 18:00:12.442652 23978 net.cpp:165] Memory required for data: 986710016
I0903 18:00:12.442672 23978 layer_factory.hpp:77] Creating layer reshg1_low6_up1_branch1
I0903 18:00:12.442687 23978 net.cpp:100] Creating Layer reshg1_low6_up1_branch1
I0903 18:00:12.442692 23978 net.cpp:434] reshg1_low6_up1_branch1 <- reshg1_low5_reshg1_low5_relu_0_split_0
I0903 18:00:12.442699 23978 net.cpp:408] reshg1_low6_up1_branch1 -> reshg1_low6_up1_branch1
I0903 18:00:12.443433 23978 net.cpp:150] Setting up reshg1_low6_up1_branch1
I0903 18:00:12.443449 23978 net.cpp:157] Top shape: 2 256 32 32 (524288)
I0903 18:00:12.443454 23978 net.cpp:165] Memory required for data: 988807168
I0903 18:00:12.443464 23978 layer_factory.hpp:77] Creating layer bnhg1_low6_up1_branch1
I0903 18:00:12.443476 23978 net.cpp:100] Creating Layer bnhg1_low6_up1_branch1
I0903 18:00:12.443483 23978 net.cpp:434] bnhg1_low6_up1_branch1 <- reshg1_low6_up1_branch1
I0903 18:00:12.443495 23978 net.cpp:395] bnhg1_low6_up1_branch1 -> reshg1_low6_up1_branch1 (in-place)
I0903 18:00:12.443651 23978 net.cpp:150] Setting up bnhg1_low6_up1_branch1
I0903 18:00:12.443660 23978 net.cpp:157] Top shape: 2 256 32 32 (524288)
I0903 18:00:12.443663 23978 net.cpp:165] Memory required for data: 990904320
I0903 18:00:12.443675 23978 layer_factory.hpp:77] Creating layer scalehg1_low6_up1_branch1
I0903 18:00:12.443688 23978 net.cpp:100] Creating Layer scalehg1_low6_up1_branch1
I0903 18:00:12.443694 23978 net.cpp:434] scalehg1_low6_up1_branch1 <- reshg1_low6_up1_branch1
I0903 18:00:12.443701 23978 net.cpp:395] scalehg1_low6_up1_branch1 -> reshg1_low6_up1_branch1 (in-place)
I0903 18:00:12.443748 23978 layer_factory.hpp:77] Creating layer scalehg1_low6_up1_branch1
I0903 18:00:12.443838 23978 net.cpp:150] Setting up scalehg1_low6_up1_branch1
I0903 18:00:12.443846 23978 net.cpp:157] Top shape: 2 256 32 32 (524288)
I0903 18:00:12.443850 23978 net.cpp:165] Memory required for data: 993001472
I0903 18:00:12.443858 23978 layer_factory.hpp:77] Creating layer reshg1_low6_up1_branch2a
I0903 18:00:12.443871 23978 net.cpp:100] Creating Layer reshg1_low6_up1_branch2a
I0903 18:00:12.443876 23978 net.cpp:434] reshg1_low6_up1_branch2a <- reshg1_low5_reshg1_low5_relu_0_split_1
I0903 18:00:12.443883 23978 net.cpp:408] reshg1_low6_up1_branch2a -> reshg1_low6_up1_branch2a
I0903 18:00:12.444849 23978 net.cpp:150] Setting up reshg1_low6_up1_branch2a
I0903 18:00:12.444875 23978 net.cpp:157] Top shape: 2 128 32 32 (262144)
I0903 18:00:12.444880 23978 net.cpp:165] Memory required for data: 994050048
I0903 18:00:12.444888 23978 layer_factory.hpp:77] Creating layer bnhg1_low6_up1_branch2a
I0903 18:00:12.449544 23978 net.cpp:100] Creating Layer bnhg1_low6_up1_branch2a
I0903 18:00:12.449587 23978 net.cpp:434] bnhg1_low6_up1_branch2a <- reshg1_low6_up1_branch2a
I0903 18:00:12.449610 23978 net.cpp:395] bnhg1_low6_up1_branch2a -> reshg1_low6_up1_branch2a (in-place)
I0903 18:00:12.449865 23978 net.cpp:150] Setting up bnhg1_low6_up1_branch2a
I0903 18:00:12.449877 23978 net.cpp:157] Top shape: 2 128 32 32 (262144)
I0903 18:00:12.449880 23978 net.cpp:165] Memory required for data: 995098624
I0903 18:00:12.449894 23978 layer_factory.hpp:77] Creating layer scalehg1_low6_up1_branch2a
I0903 18:00:12.449911 23978 net.cpp:100] Creating Layer scalehg1_low6_up1_branch2a
I0903 18:00:12.449919 23978 net.cpp:434] scalehg1_low6_up1_branch2a <- reshg1_low6_up1_branch2a
I0903 18:00:12.449928 23978 net.cpp:395] scalehg1_low6_up1_branch2a -> reshg1_low6_up1_branch2a (in-place)
I0903 18:00:12.449990 23978 layer_factory.hpp:77] Creating layer scalehg1_low6_up1_branch2a
I0903 18:00:12.450088 23978 net.cpp:150] Setting up scalehg1_low6_up1_branch2a
I0903 18:00:12.450098 23978 net.cpp:157] Top shape: 2 128 32 32 (262144)
I0903 18:00:12.450103 23978 net.cpp:165] Memory required for data: 996147200
I0903 18:00:12.450111 23978 layer_factory.hpp:77] Creating layer reshg1_low6_up1_branch2a_relu
I0903 18:00:12.450120 23978 net.cpp:100] Creating Layer reshg1_low6_up1_branch2a_relu
I0903 18:00:12.450126 23978 net.cpp:434] reshg1_low6_up1_branch2a_relu <- reshg1_low6_up1_branch2a
I0903 18:00:12.450155 23978 net.cpp:395] reshg1_low6_up1_branch2a_relu -> reshg1_low6_up1_branch2a (in-place)
I0903 18:00:12.450175 23978 net.cpp:150] Setting up reshg1_low6_up1_branch2a_relu
I0903 18:00:12.450196 23978 net.cpp:157] Top shape: 2 128 32 32 (262144)
I0903 18:00:12.450201 23978 net.cpp:165] Memory required for data: 997195776
I0903 18:00:12.450204 23978 layer_factory.hpp:77] Creating layer reshg1_low6_up1_branch2b
I0903 18:00:12.450214 23978 net.cpp:100] Creating Layer reshg1_low6_up1_branch2b
I0903 18:00:12.450217 23978 net.cpp:434] reshg1_low6_up1_branch2b <- reshg1_low6_up1_branch2a
I0903 18:00:12.450222 23978 net.cpp:408] reshg1_low6_up1_branch2b -> reshg1_low6_up1_branch2b
I0903 18:00:12.452059 23978 net.cpp:150] Setting up reshg1_low6_up1_branch2b
I0903 18:00:12.452082 23978 net.cpp:157] Top shape: 2 128 32 32 (262144)
I0903 18:00:12.452085 23978 net.cpp:165] Memory required for data: 998244352
I0903 18:00:12.452095 23978 layer_factory.hpp:77] Creating layer bnhg1_low6_up1_branch2b
I0903 18:00:12.452111 23978 net.cpp:100] Creating Layer bnhg1_low6_up1_branch2b
I0903 18:00:12.452119 23978 net.cpp:434] bnhg1_low6_up1_branch2b <- reshg1_low6_up1_branch2b
I0903 18:00:12.452131 23978 net.cpp:395] bnhg1_low6_up1_branch2b -> reshg1_low6_up1_branch2b (in-place)
I0903 18:00:12.452283 23978 net.cpp:150] Setting up bnhg1_low6_up1_branch2b
I0903 18:00:12.452291 23978 net.cpp:157] Top shape: 2 128 32 32 (262144)
I0903 18:00:12.452296 23978 net.cpp:165] Memory required for data: 999292928
I0903 18:00:12.452306 23978 layer_factory.hpp:77] Creating layer scalehg1_low6_up1_branch2b
I0903 18:00:12.452334 23978 net.cpp:100] Creating Layer scalehg1_low6_up1_branch2b
I0903 18:00:12.452343 23978 net.cpp:434] scalehg1_low6_up1_branch2b <- reshg1_low6_up1_branch2b
I0903 18:00:12.452353 23978 net.cpp:395] scalehg1_low6_up1_branch2b -> reshg1_low6_up1_branch2b (in-place)
I0903 18:00:12.452399 23978 layer_factory.hpp:77] Creating layer scalehg1_low6_up1_branch2b
I0903 18:00:12.452484 23978 net.cpp:150] Setting up scalehg1_low6_up1_branch2b
I0903 18:00:12.452491 23978 net.cpp:157] Top shape: 2 128 32 32 (262144)
I0903 18:00:12.452497 23978 net.cpp:165] Memory required for data: 1000341504
I0903 18:00:12.452505 23978 layer_factory.hpp:77] Creating layer reshg1_low6_up1_branch2b_relu
I0903 18:00:12.452514 23978 net.cpp:100] Creating Layer reshg1_low6_up1_branch2b_relu
I0903 18:00:12.452520 23978 net.cpp:434] reshg1_low6_up1_branch2b_relu <- reshg1_low6_up1_branch2b
I0903 18:00:12.452529 23978 net.cpp:395] reshg1_low6_up1_branch2b_relu -> reshg1_low6_up1_branch2b (in-place)
I0903 18:00:12.452538 23978 net.cpp:150] Setting up reshg1_low6_up1_branch2b_relu
I0903 18:00:12.452545 23978 net.cpp:157] Top shape: 2 128 32 32 (262144)
I0903 18:00:12.452550 23978 net.cpp:165] Memory required for data: 1001390080
I0903 18:00:12.452555 23978 layer_factory.hpp:77] Creating layer reshg1_low6_up1_branch2c
I0903 18:00:12.452569 23978 net.cpp:100] Creating Layer reshg1_low6_up1_branch2c
I0903 18:00:12.452572 23978 net.cpp:434] reshg1_low6_up1_branch2c <- reshg1_low6_up1_branch2b
I0903 18:00:12.452581 23978 net.cpp:408] reshg1_low6_up1_branch2c -> reshg1_low6_up1_branch2c
I0903 18:00:12.453009 23978 net.cpp:150] Setting up reshg1_low6_up1_branch2c
I0903 18:00:12.453017 23978 net.cpp:157] Top shape: 2 256 32 32 (524288)
I0903 18:00:12.453022 23978 net.cpp:165] Memory required for data: 1003487232
I0903 18:00:12.453029 23978 layer_factory.hpp:77] Creating layer bnhg1_low6_up1_branch2c
I0903 18:00:12.453038 23978 net.cpp:100] Creating Layer bnhg1_low6_up1_branch2c
I0903 18:00:12.453045 23978 net.cpp:434] bnhg1_low6_up1_branch2c <- reshg1_low6_up1_branch2c
I0903 18:00:12.453054 23978 net.cpp:395] bnhg1_low6_up1_branch2c -> reshg1_low6_up1_branch2c (in-place)
I0903 18:00:12.453197 23978 net.cpp:150] Setting up bnhg1_low6_up1_branch2c
I0903 18:00:12.453203 23978 net.cpp:157] Top shape: 2 256 32 32 (524288)
I0903 18:00:12.453208 23978 net.cpp:165] Memory required for data: 1005584384
I0903 18:00:12.453217 23978 layer_factory.hpp:77] Creating layer scalehg1_low6_up1_branch2c
I0903 18:00:12.453238 23978 net.cpp:100] Creating Layer scalehg1_low6_up1_branch2c
I0903 18:00:12.453244 23978 net.cpp:434] scalehg1_low6_up1_branch2c <- reshg1_low6_up1_branch2c
I0903 18:00:12.453254 23978 net.cpp:395] scalehg1_low6_up1_branch2c -> reshg1_low6_up1_branch2c (in-place)
I0903 18:00:12.453292 23978 layer_factory.hpp:77] Creating layer scalehg1_low6_up1_branch2c
I0903 18:00:12.453373 23978 net.cpp:150] Setting up scalehg1_low6_up1_branch2c
I0903 18:00:12.453380 23978 net.cpp:157] Top shape: 2 256 32 32 (524288)
I0903 18:00:12.453385 23978 net.cpp:165] Memory required for data: 1007681536
I0903 18:00:12.453393 23978 layer_factory.hpp:77] Creating layer reshg1_low6_up1
I0903 18:00:12.453403 23978 net.cpp:100] Creating Layer reshg1_low6_up1
I0903 18:00:12.453409 23978 net.cpp:434] reshg1_low6_up1 <- reshg1_low6_up1_branch1
I0903 18:00:12.453416 23978 net.cpp:434] reshg1_low6_up1 <- reshg1_low6_up1_branch2c
I0903 18:00:12.453425 23978 net.cpp:408] reshg1_low6_up1 -> reshg1_low6_up1
I0903 18:00:12.453449 23978 net.cpp:150] Setting up reshg1_low6_up1
I0903 18:00:12.453455 23978 net.cpp:157] Top shape: 2 256 32 32 (524288)
I0903 18:00:12.453460 23978 net.cpp:165] Memory required for data: 1009778688
I0903 18:00:12.453465 23978 layer_factory.hpp:77] Creating layer reshg1_low6_up1_relu
I0903 18:00:12.453474 23978 net.cpp:100] Creating Layer reshg1_low6_up1_relu
I0903 18:00:12.453480 23978 net.cpp:434] reshg1_low6_up1_relu <- reshg1_low6_up1
I0903 18:00:12.453488 23978 net.cpp:395] reshg1_low6_up1_relu -> reshg1_low6_up1 (in-place)
I0903 18:00:12.453496 23978 net.cpp:150] Setting up reshg1_low6_up1_relu
I0903 18:00:12.453503 23978 net.cpp:157] Top shape: 2 256 32 32 (524288)
I0903 18:00:12.453508 23978 net.cpp:165] Memory required for data: 1011875840
I0903 18:00:12.453513 23978 layer_factory.hpp:77] Creating layer reshg1_low6_up1_reshg1_low6_up1_relu_0_split
I0903 18:00:12.453521 23978 net.cpp:100] Creating Layer reshg1_low6_up1_reshg1_low6_up1_relu_0_split
I0903 18:00:12.453526 23978 net.cpp:434] reshg1_low6_up1_reshg1_low6_up1_relu_0_split <- reshg1_low6_up1
I0903 18:00:12.453533 23978 net.cpp:408] reshg1_low6_up1_reshg1_low6_up1_relu_0_split -> reshg1_low6_up1_reshg1_low6_up1_relu_0_split_0
I0903 18:00:12.453544 23978 net.cpp:408] reshg1_low6_up1_reshg1_low6_up1_relu_0_split -> reshg1_low6_up1_reshg1_low6_up1_relu_0_split_1
I0903 18:00:12.453578 23978 net.cpp:150] Setting up reshg1_low6_up1_reshg1_low6_up1_relu_0_split
I0903 18:00:12.453584 23978 net.cpp:157] Top shape: 2 256 32 32 (524288)
I0903 18:00:12.453590 23978 net.cpp:157] Top shape: 2 256 32 32 (524288)
I0903 18:00:12.453595 23978 net.cpp:165] Memory required for data: 1016070144
I0903 18:00:12.453600 23978 layer_factory.hpp:77] Creating layer reshg1_low6_up2_branch2a
I0903 18:00:12.453613 23978 net.cpp:100] Creating Layer reshg1_low6_up2_branch2a
I0903 18:00:12.453619 23978 net.cpp:434] reshg1_low6_up2_branch2a <- reshg1_low6_up1_reshg1_low6_up1_relu_0_split_0
I0903 18:00:12.453626 23978 net.cpp:408] reshg1_low6_up2_branch2a -> reshg1_low6_up2_branch2a
I0903 18:00:12.454046 23978 net.cpp:150] Setting up reshg1_low6_up2_branch2a
I0903 18:00:12.454053 23978 net.cpp:157] Top shape: 2 128 32 32 (262144)
I0903 18:00:12.454058 23978 net.cpp:165] Memory required for data: 1017118720
I0903 18:00:12.454066 23978 layer_factory.hpp:77] Creating layer bnhg1_low6_up2_branch2a
I0903 18:00:12.454074 23978 net.cpp:100] Creating Layer bnhg1_low6_up2_branch2a
I0903 18:00:12.454080 23978 net.cpp:434] bnhg1_low6_up2_branch2a <- reshg1_low6_up2_branch2a
I0903 18:00:12.454089 23978 net.cpp:395] bnhg1_low6_up2_branch2a -> reshg1_low6_up2_branch2a (in-place)
I0903 18:00:12.454231 23978 net.cpp:150] Setting up bnhg1_low6_up2_branch2a
I0903 18:00:12.454237 23978 net.cpp:157] Top shape: 2 128 32 32 (262144)
I0903 18:00:12.454241 23978 net.cpp:165] Memory required for data: 1018167296
I0903 18:00:12.454252 23978 layer_factory.hpp:77] Creating layer scalehg1_low6_up2_branch2a
I0903 18:00:12.454260 23978 net.cpp:100] Creating Layer scalehg1_low6_up2_branch2a
I0903 18:00:12.454273 23978 net.cpp:434] scalehg1_low6_up2_branch2a <- reshg1_low6_up2_branch2a
I0903 18:00:12.454283 23978 net.cpp:395] scalehg1_low6_up2_branch2a -> reshg1_low6_up2_branch2a (in-place)
I0903 18:00:12.454321 23978 layer_factory.hpp:77] Creating layer scalehg1_low6_up2_branch2a
I0903 18:00:12.454406 23978 net.cpp:150] Setting up scalehg1_low6_up2_branch2a
I0903 18:00:12.454412 23978 net.cpp:157] Top shape: 2 128 32 32 (262144)
I0903 18:00:12.454417 23978 net.cpp:165] Memory required for data: 1019215872
I0903 18:00:12.454426 23978 layer_factory.hpp:77] Creating layer reshg1_low6_up2_branch2a_relu
I0903 18:00:12.454433 23978 net.cpp:100] Creating Layer reshg1_low6_up2_branch2a_relu
I0903 18:00:12.454438 23978 net.cpp:434] reshg1_low6_up2_branch2a_relu <- reshg1_low6_up2_branch2a
I0903 18:00:12.454448 23978 net.cpp:395] reshg1_low6_up2_branch2a_relu -> reshg1_low6_up2_branch2a (in-place)
I0903 18:00:12.454457 23978 net.cpp:150] Setting up reshg1_low6_up2_branch2a_relu
I0903 18:00:12.454463 23978 net.cpp:157] Top shape: 2 128 32 32 (262144)
I0903 18:00:12.454468 23978 net.cpp:165] Memory required for data: 1020264448
I0903 18:00:12.454473 23978 layer_factory.hpp:77] Creating layer reshg1_low6_up2_branch2b
I0903 18:00:12.454485 23978 net.cpp:100] Creating Layer reshg1_low6_up2_branch2b
I0903 18:00:12.454489 23978 net.cpp:434] reshg1_low6_up2_branch2b <- reshg1_low6_up2_branch2a
I0903 18:00:12.454497 23978 net.cpp:408] reshg1_low6_up2_branch2b -> reshg1_low6_up2_branch2b
I0903 18:00:12.456239 23978 net.cpp:150] Setting up reshg1_low6_up2_branch2b
I0903 18:00:12.456250 23978 net.cpp:157] Top shape: 2 128 32 32 (262144)
I0903 18:00:12.456255 23978 net.cpp:165] Memory required for data: 1021313024
I0903 18:00:12.456264 23978 layer_factory.hpp:77] Creating layer bnhg1_low6_up2_branch2b
I0903 18:00:12.456272 23978 net.cpp:100] Creating Layer bnhg1_low6_up2_branch2b
I0903 18:00:12.456279 23978 net.cpp:434] bnhg1_low6_up2_branch2b <- reshg1_low6_up2_branch2b
I0903 18:00:12.456290 23978 net.cpp:395] bnhg1_low6_up2_branch2b -> reshg1_low6_up2_branch2b (in-place)
I0903 18:00:12.456441 23978 net.cpp:150] Setting up bnhg1_low6_up2_branch2b
I0903 18:00:12.456449 23978 net.cpp:157] Top shape: 2 128 32 32 (262144)
I0903 18:00:12.456454 23978 net.cpp:165] Memory required for data: 1022361600
I0903 18:00:12.456465 23978 layer_factory.hpp:77] Creating layer scalehg1_low6_up2_branch2b
I0903 18:00:12.456475 23978 net.cpp:100] Creating Layer scalehg1_low6_up2_branch2b
I0903 18:00:12.456480 23978 net.cpp:434] scalehg1_low6_up2_branch2b <- reshg1_low6_up2_branch2b
I0903 18:00:12.456490 23978 net.cpp:395] scalehg1_low6_up2_branch2b -> reshg1_low6_up2_branch2b (in-place)
I0903 18:00:12.456527 23978 layer_factory.hpp:77] Creating layer scalehg1_low6_up2_branch2b
I0903 18:00:12.456609 23978 net.cpp:150] Setting up scalehg1_low6_up2_branch2b
I0903 18:00:12.456614 23978 net.cpp:157] Top shape: 2 128 32 32 (262144)
I0903 18:00:12.456619 23978 net.cpp:165] Memory required for data: 1023410176
I0903 18:00:12.456627 23978 layer_factory.hpp:77] Creating layer reshg1_low6_up2_branch2b_relu
I0903 18:00:12.456635 23978 net.cpp:100] Creating Layer reshg1_low6_up2_branch2b_relu
I0903 18:00:12.456641 23978 net.cpp:434] reshg1_low6_up2_branch2b_relu <- reshg1_low6_up2_branch2b
I0903 18:00:12.456650 23978 net.cpp:395] reshg1_low6_up2_branch2b_relu -> reshg1_low6_up2_branch2b (in-place)
I0903 18:00:12.456658 23978 net.cpp:150] Setting up reshg1_low6_up2_branch2b_relu
I0903 18:00:12.456665 23978 net.cpp:157] Top shape: 2 128 32 32 (262144)
I0903 18:00:12.456670 23978 net.cpp:165] Memory required for data: 1024458752
I0903 18:00:12.456676 23978 layer_factory.hpp:77] Creating layer reshg1_low6_up2_branch2c
I0903 18:00:12.456687 23978 net.cpp:100] Creating Layer reshg1_low6_up2_branch2c
I0903 18:00:12.456692 23978 net.cpp:434] reshg1_low6_up2_branch2c <- reshg1_low6_up2_branch2b
I0903 18:00:12.456698 23978 net.cpp:408] reshg1_low6_up2_branch2c -> reshg1_low6_up2_branch2c
I0903 18:00:12.457118 23978 net.cpp:150] Setting up reshg1_low6_up2_branch2c
I0903 18:00:12.457125 23978 net.cpp:157] Top shape: 2 256 32 32 (524288)
I0903 18:00:12.457140 23978 net.cpp:165] Memory required for data: 1026555904
I0903 18:00:12.457149 23978 layer_factory.hpp:77] Creating layer bnhg1_low6_up2_branch2c
I0903 18:00:12.457159 23978 net.cpp:100] Creating Layer bnhg1_low6_up2_branch2c
I0903 18:00:12.457165 23978 net.cpp:434] bnhg1_low6_up2_branch2c <- reshg1_low6_up2_branch2c
I0903 18:00:12.457172 23978 net.cpp:395] bnhg1_low6_up2_branch2c -> reshg1_low6_up2_branch2c (in-place)
I0903 18:00:12.457314 23978 net.cpp:150] Setting up bnhg1_low6_up2_branch2c
I0903 18:00:12.457320 23978 net.cpp:157] Top shape: 2 256 32 32 (524288)
I0903 18:00:12.457325 23978 net.cpp:165] Memory required for data: 1028653056
I0903 18:00:12.457335 23978 layer_factory.hpp:77] Creating layer scalehg1_low6_up2_branch2c
I0903 18:00:12.457348 23978 net.cpp:100] Creating Layer scalehg1_low6_up2_branch2c
I0903 18:00:12.457353 23978 net.cpp:434] scalehg1_low6_up2_branch2c <- reshg1_low6_up2_branch2c
I0903 18:00:12.457360 23978 net.cpp:395] scalehg1_low6_up2_branch2c -> reshg1_low6_up2_branch2c (in-place)
I0903 18:00:12.457398 23978 layer_factory.hpp:77] Creating layer scalehg1_low6_up2_branch2c
I0903 18:00:12.457479 23978 net.cpp:150] Setting up scalehg1_low6_up2_branch2c
I0903 18:00:12.457486 23978 net.cpp:157] Top shape: 2 256 32 32 (524288)
I0903 18:00:12.457490 23978 net.cpp:165] Memory required for data: 1030750208
I0903 18:00:12.457523 23978 layer_factory.hpp:77] Creating layer reshg1_low6_up2
I0903 18:00:12.457531 23978 net.cpp:100] Creating Layer reshg1_low6_up2
I0903 18:00:12.457537 23978 net.cpp:434] reshg1_low6_up2 <- reshg1_low6_up1_reshg1_low6_up1_relu_0_split_1
I0903 18:00:12.457545 23978 net.cpp:434] reshg1_low6_up2 <- reshg1_low6_up2_branch2c
I0903 18:00:12.457551 23978 net.cpp:408] reshg1_low6_up2 -> reshg1_low6_up2
I0903 18:00:12.457577 23978 net.cpp:150] Setting up reshg1_low6_up2
I0903 18:00:12.457583 23978 net.cpp:157] Top shape: 2 256 32 32 (524288)
I0903 18:00:12.457588 23978 net.cpp:165] Memory required for data: 1032847360
I0903 18:00:12.457593 23978 layer_factory.hpp:77] Creating layer reshg1_low6_up2_relu
I0903 18:00:12.457600 23978 net.cpp:100] Creating Layer reshg1_low6_up2_relu
I0903 18:00:12.457607 23978 net.cpp:434] reshg1_low6_up2_relu <- reshg1_low6_up2
I0903 18:00:12.457615 23978 net.cpp:395] reshg1_low6_up2_relu -> reshg1_low6_up2 (in-place)
I0903 18:00:12.457624 23978 net.cpp:150] Setting up reshg1_low6_up2_relu
I0903 18:00:12.457631 23978 net.cpp:157] Top shape: 2 256 32 32 (524288)
I0903 18:00:12.457636 23978 net.cpp:165] Memory required for data: 1034944512
I0903 18:00:12.457640 23978 layer_factory.hpp:77] Creating layer reshg1_low6_up2_reshg1_low6_up2_relu_0_split
I0903 18:00:12.457648 23978 net.cpp:100] Creating Layer reshg1_low6_up2_reshg1_low6_up2_relu_0_split
I0903 18:00:12.457653 23978 net.cpp:434] reshg1_low6_up2_reshg1_low6_up2_relu_0_split <- reshg1_low6_up2
I0903 18:00:12.457659 23978 net.cpp:408] reshg1_low6_up2_reshg1_low6_up2_relu_0_split -> reshg1_low6_up2_reshg1_low6_up2_relu_0_split_0
I0903 18:00:12.457669 23978 net.cpp:408] reshg1_low6_up2_reshg1_low6_up2_relu_0_split -> reshg1_low6_up2_reshg1_low6_up2_relu_0_split_1
I0903 18:00:12.457703 23978 net.cpp:150] Setting up reshg1_low6_up2_reshg1_low6_up2_relu_0_split
I0903 18:00:12.457710 23978 net.cpp:157] Top shape: 2 256 32 32 (524288)
I0903 18:00:12.457717 23978 net.cpp:157] Top shape: 2 256 32 32 (524288)
I0903 18:00:12.457721 23978 net.cpp:165] Memory required for data: 1039138816
I0903 18:00:12.457726 23978 layer_factory.hpp:77] Creating layer reshg1_low6_up4_branch1
I0903 18:00:12.457736 23978 net.cpp:100] Creating Layer reshg1_low6_up4_branch1
I0903 18:00:12.457741 23978 net.cpp:434] reshg1_low6_up4_branch1 <- reshg1_low6_up2_reshg1_low6_up2_relu_0_split_0
I0903 18:00:12.457751 23978 net.cpp:408] reshg1_low6_up4_branch1 -> reshg1_low6_up4_branch1
I0903 18:00:12.458986 23978 net.cpp:150] Setting up reshg1_low6_up4_branch1
I0903 18:00:12.458992 23978 net.cpp:157] Top shape: 2 512 32 32 (1048576)
I0903 18:00:12.458997 23978 net.cpp:165] Memory required for data: 1043333120
I0903 18:00:12.459013 23978 layer_factory.hpp:77] Creating layer bnhg1_low6_up4_branch1
I0903 18:00:12.459025 23978 net.cpp:100] Creating Layer bnhg1_low6_up4_branch1
I0903 18:00:12.459031 23978 net.cpp:434] bnhg1_low6_up4_branch1 <- reshg1_low6_up4_branch1
I0903 18:00:12.459039 23978 net.cpp:395] bnhg1_low6_up4_branch1 -> reshg1_low6_up4_branch1 (in-place)
I0903 18:00:12.459182 23978 net.cpp:150] Setting up bnhg1_low6_up4_branch1
I0903 18:00:12.459189 23978 net.cpp:157] Top shape: 2 512 32 32 (1048576)
I0903 18:00:12.459193 23978 net.cpp:165] Memory required for data: 1047527424
I0903 18:00:12.459203 23978 layer_factory.hpp:77] Creating layer scalehg1_low6_up4_branch1
I0903 18:00:12.459211 23978 net.cpp:100] Creating Layer scalehg1_low6_up4_branch1
I0903 18:00:12.459216 23978 net.cpp:434] scalehg1_low6_up4_branch1 <- reshg1_low6_up4_branch1
I0903 18:00:12.459224 23978 net.cpp:395] scalehg1_low6_up4_branch1 -> reshg1_low6_up4_branch1 (in-place)
I0903 18:00:12.459254 23978 layer_factory.hpp:77] Creating layer scalehg1_low6_up4_branch1
I0903 18:00:12.459336 23978 net.cpp:150] Setting up scalehg1_low6_up4_branch1
I0903 18:00:12.459344 23978 net.cpp:157] Top shape: 2 512 32 32 (1048576)
I0903 18:00:12.459349 23978 net.cpp:165] Memory required for data: 1051721728
I0903 18:00:12.459357 23978 layer_factory.hpp:77] Creating layer reshg1_low6_up4_branch2a
I0903 18:00:12.459367 23978 net.cpp:100] Creating Layer reshg1_low6_up4_branch2a
I0903 18:00:12.459370 23978 net.cpp:434] reshg1_low6_up4_branch2a <- reshg1_low6_up2_reshg1_low6_up2_relu_0_split_1
I0903 18:00:12.459379 23978 net.cpp:408] reshg1_low6_up4_branch2a -> reshg1_low6_up4_branch2a
I0903 18:00:12.460077 23978 net.cpp:150] Setting up reshg1_low6_up4_branch2a
I0903 18:00:12.460085 23978 net.cpp:157] Top shape: 2 256 32 32 (524288)
I0903 18:00:12.460089 23978 net.cpp:165] Memory required for data: 1053818880
I0903 18:00:12.460095 23978 layer_factory.hpp:77] Creating layer bnhg1_low6_up4_branch2a
I0903 18:00:12.460105 23978 net.cpp:100] Creating Layer bnhg1_low6_up4_branch2a
I0903 18:00:12.460110 23978 net.cpp:434] bnhg1_low6_up4_branch2a <- reshg1_low6_up4_branch2a
I0903 18:00:12.460117 23978 net.cpp:395] bnhg1_low6_up4_branch2a -> reshg1_low6_up4_branch2a (in-place)
I0903 18:00:12.460255 23978 net.cpp:150] Setting up bnhg1_low6_up4_branch2a
I0903 18:00:12.460263 23978 net.cpp:157] Top shape: 2 256 32 32 (524288)
I0903 18:00:12.460266 23978 net.cpp:165] Memory required for data: 1055916032
I0903 18:00:12.460288 23978 layer_factory.hpp:77] Creating layer scalehg1_low6_up4_branch2a
I0903 18:00:12.460299 23978 net.cpp:100] Creating Layer scalehg1_low6_up4_branch2a
I0903 18:00:12.460314 23978 net.cpp:434] scalehg1_low6_up4_branch2a <- reshg1_low6_up4_branch2a
I0903 18:00:12.460328 23978 net.cpp:395] scalehg1_low6_up4_branch2a -> reshg1_low6_up4_branch2a (in-place)
I0903 18:00:12.460376 23978 layer_factory.hpp:77] Creating layer scalehg1_low6_up4_branch2a
I0903 18:00:12.460465 23978 net.cpp:150] Setting up scalehg1_low6_up4_branch2a
I0903 18:00:12.460474 23978 net.cpp:157] Top shape: 2 256 32 32 (524288)
I0903 18:00:12.460477 23978 net.cpp:165] Memory required for data: 1058013184
I0903 18:00:12.460494 23978 layer_factory.hpp:77] Creating layer reshg1_low6_up4_branch2a_relu
…
I0903 18:00:15.151470 23978 net.cpp:150] Setting up reshg2_low6_low6_low6_low6_branch2c
I0903 18:00:15.151479 23978 net.cpp:157] Top shape: 1 512 4 4 (8192)
I0903 18:00:15.151484 23978 net.cpp:165] Memory required for data: 1073676288
I0903 18:00:15.151490 23978 layer_factory.hpp:77] Creating layer bnhg2_low6_low6_low6_low6_branch2c
I0903 18:00:15.151499 23978 net.cpp:100] Creating Layer bnhg2_low6_low6_low6_low6_branch2c
I0903 18:00:15.151504 23978 net.cpp:434] bnhg2_low6_low6_low6_low6_branch2c <- reshg2_low6_low6_low6_low6_branch2c
I0903 18:00:15.151511 23978 net.cpp:395] bnhg2_low6_low6_low6_low6_branch2c -> reshg2_low6_low6_low6_low6_branch2c (in-place)
I0903 18:00:15.151703 23978 net.cpp:150] Setting up bnhg2_low6_low6_low6_low6_branch2c
I0903 18:00:15.151712 23978 net.cpp:157] Top shape: 1 512 4 4 (8192)
I0903 18:00:15.151715 23978 net.cpp:165] Memory required for data: 1073709056
I0903 18:00:15.151726 23978 layer_factory.hpp:77] Creating layer scalehg2_low6_low6_low6_low6_branch2c
I0903 18:00:15.151736 23978 net.cpp:100] Creating Layer scalehg2_low6_low6_low6_low6_branch2c
I0903 18:00:15.151741 23978 net.cpp:434] scalehg2_low6_low6_low6_low6_branch2c <- reshg2_low6_low6_low6_low6_branch2c
I0903 18:00:15.151747 23978 net.cpp:395] scalehg2_low6_low6_low6_low6_branch2c -> reshg2_low6_low6_low6_low6_branch2c (in-place)
I0903 18:00:15.151788 23978 layer_factory.hpp:77] Creating layer scalehg2_low6_low6_low6_low6_branch2c
I0903 18:00:15.151893 23978 net.cpp:150] Setting up scalehg2_low6_low6_low6_low6_branch2c
I0903 18:00:15.151901 23978 net.cpp:157] Top shape: 1 512 4 4 (8192)
I0903 18:00:15.151904 23978 net.cpp:165] Memory required for data: 1073741824
I0903 18:00:15.151912 23978 layer_factory.hpp:77] Creating layer reshg2_low6_low6_low6_low6
I0903 18:00:15.151921 23978 net.cpp:100] Creating Layer reshg2_low6_low6_low6_low6
I0903 18:00:15.151926 23978 net.cpp:434] reshg2_low6_low6_low6_low6 <- reshg2_low6_low6_low6_low6_branch1
I0903 18:00:15.151932 23978 net.cpp:434] reshg2_low6_low6_low6_low6 <- reshg2_low6_low6_low6_low6_branch2c
I0903 18:00:15.151940 23978 net.cpp:408] reshg2_low6_low6_low6_low6 -> reshg2_low6_low6_low6_low6
I0903 18:00:15.151964 23978 net.cpp:150] Setting up reshg2_low6_low6_low6_low6
I0903 18:00:15.151971 23978 net.cpp:157] Top shape: 1 512 4 4 (8192)
I0903 18:00:15.151975 23978 net.cpp:165] Memory required for data: 1073774592
I0903 18:00:15.151980 23978 layer_factory.hpp:77] Creating layer reshg2_low6_low6_low6_low6_relu
I0903 18:00:15.151989 23978 net.cpp:100] Creating Layer reshg2_low6_low6_low6_low6_relu
I0903 18:00:15.151993 23978 net.cpp:434] reshg2_low6_low6_low6_low6_relu <- reshg2_low6_low6_low6_low6
I0903 18:00:15.152000 23978 net.cpp:395] reshg2_low6_low6_low6_low6_relu -> reshg2_low6_low6_low6_low6 (in-place)
I0903 18:00:15.152007 23978 net.cpp:150] Setting up reshg2_low6_low6_low6_low6_relu
I0903 18:00:15.152014 23978 net.cpp:157] Top shape: 1 512 4 4 (8192)
I0903 18:00:15.152019 23978 net.cpp:165] Memory required for data: 1073807360
I0903 18:00:15.152021 23978 layer_factory.hpp:77] Creating layer reshg2_low6_low6_low6_low6_reshg2_low6_low6_low6_low6_relu_0_split
I0903 18:00:15.152029 23978 net.cpp:100] Creating Layer reshg2_low6_low6_low6_low6_reshg2_low6_low6_low6_low6_relu_0_split
I0903 18:00:15.152034 23978 net.cpp:434] reshg2_low6_low6_low6_low6_reshg2_low6_low6_low6_low6_relu_0_split <- reshg2_low6_low6_low6_low6
I0903 18:00:15.152045 23978 net.cpp:408] reshg2_low6_low6_low6_low6_reshg2_low6_low6_low6_low6_relu_0_split -> reshg2_low6_low6_low6_low6_reshg2_low6_low6_low6_low6_relu_0_split_0
I0903 18:00:15.152053 23978 net.cpp:408] reshg2_low6_low6_low6_low6_reshg2_low6_low6_low6_low6_relu_0_split -> reshg2_low6_low6_low6_low6_reshg2_low6_low6_low6_low6_relu_0_split_1
I0903 18:00:15.152086 23978 net.cpp:150] Setting up reshg2_low6_low6_low6_low6_reshg2_low6_low6_low6_low6_relu_0_split
I0903 18:00:15.152093 23978 net.cpp:157] Top shape: 1 512 4 4 (8192)
I0903 18:00:15.152101 23978 net.cpp:157] Top shape: 1 512 4 4 (8192)
I0903 18:00:15.152104 23978 net.cpp:165] Memory required for data: 1073872896
I0903 18:00:15.152108 23978 layer_factory.hpp:77] Creating layer reshg2_low6_low6_low6_low7_branch2a
I0903 18:00:15.152119 23978 net.cpp:100] Creating Layer reshg2_low6_low6_low6_low7_branch2a
I0903 18:00:15.152123 23978 net.cpp:434] reshg2_low6_low6_low6_low7_branch2a <- reshg2_low6_low6_low6_low6_reshg2_low6_low6_low6_low6_relu_0_split_0
I0903 18:00:15.152132 23978 net.cpp:408] reshg2_low6_low6_low6_low7_branch2a -> reshg2_low6_low6_low6_low7_branch2a
I0903 18:00:15.153779 23978 net.cpp:150] Setting up reshg2_low6_low6_low6_low7_branch2a
I0903 18:00:15.153791 23978 net.cpp:157] Top shape: 1 256 4 4 (4096)
I0903 18:00:15.153805 23978 net.cpp:165] Memory required for data: 1073889280
I0903 18:00:15.153815 23978 layer_factory.hpp:77] Creating layer bnhg2_low6_low6_low6_low7_branch2a
I0903 18:00:15.153825 23978 net.cpp:100] Creating Layer bnhg2_low6_low6_low6_low7_branch2a
I0903 18:00:15.153831 23978 net.cpp:434] bnhg2_low6_low6_low6_low7_branch2a <- reshg2_low6_low6_low6_low7_branch2a
I0903 18:00:15.153838 23978 net.cpp:395] bnhg2_low6_low6_low6_low7_branch2a -> reshg2_low6_low6_low6_low7_branch2a (in-place)
I0903 18:00:15.153996 23978 net.cpp:150] Setting up bnhg2_low6_low6_low6_low7_branch2a
I0903 18:00:15.154005 23978 net.cpp:157] Top shape: 1 256 4 4 (4096)
I0903 18:00:15.154008 23978 net.cpp:165] Memory required for data: 1073905664
I0903 18:00:15.154018 23978 layer_factory.hpp:77] Creating layer scalehg2_low6_low6_low6_low7_branch2a
I0903 18:00:15.154027 23978 net.cpp:100] Creating Layer scalehg2_low6_low6_low6_low7_branch2a
I0903 18:00:15.154032 23978 net.cpp:434] scalehg2_low6_low6_low6_low7_branch2a <- reshg2_low6_low6_low6_low7_branch2a
I0903 18:00:15.154039 23978 net.cpp:395] scalehg2_low6_low6_low6_low7_branch2a -> reshg2_low6_low6_low6_low7_branch2a (in-place)
I0903 18:00:15.154076 23978 layer_factory.hpp:77] Creating layer scalehg2_low6_low6_low6_low7_branch2a
I0903 18:00:15.154168 23978 net.cpp:150] Setting up scalehg2_low6_low6_low6_low7_branch2a
I0903 18:00:15.154175 23978 net.cpp:157] Top shape: 1 256 4 4 (4096)
I0903 18:00:15.154180 23978 net.cpp:165] Memory required for data: 1073922048
I0903 18:00:15.154187 23978 layer_factory.hpp:77] Creating layer reshg2_low6_low6_low6_low7_branch2a_relu
I0903 18:00:15.154196 23978 net.cpp:100] Creating Layer reshg2_low6_low6_low6_low7_branch2a_relu
I0903 18:00:15.154201 23978 net.cpp:434] reshg2_low6_low6_low6_low7_branch2a_relu <- reshg2_low6_low6_low6_low7_branch2a
I0903 18:00:15.154206 23978 net.cpp:395] reshg2_low6_low6_low6_low7_branch2a_relu -> reshg2_low6_low6_low6_low7_branch2a (in-place)
I0903 18:00:15.154216 23978 net.cpp:150] Setting up reshg2_low6_low6_low6_low7_branch2a_relu
I0903 18:00:15.154222 23978 net.cpp:157] Top shape: 1 256 4 4 (4096)
I0903 18:00:15.154227 23978 net.cpp:165] Memory required for data: 1073938432
I0903 18:00:15.154230 23978 layer_factory.hpp:77] Creating layer reshg2_low6_low6_low6_low7_branch2b
I0903 18:00:15.154240 23978 net.cpp:100] Creating Layer reshg2_low6_low6_low6_low7_branch2b
I0903 18:00:15.154244 23978 net.cpp:434] reshg2_low6_low6_low6_low7_branch2b <- reshg2_low6_low6_low6_low7_branch2a
I0903 18:00:15.154253 23978 net.cpp:408] reshg2_low6_low6_low6_low7_branch2b -> reshg2_low6_low6_low6_low7_branch2b
I0903 18:00:15.160120 23978 net.cpp:150] Setting up reshg2_low6_low6_low6_low7_branch2b
I0903 18:00:15.160135 23978 net.cpp:157] Top shape: 1 256 4 4 (4096)
I0903 18:00:15.160140 23978 net.cpp:165] Memory required for data: 1073954816
I0903 18:00:15.160146 23978 layer_factory.hpp:77] Creating layer bnhg2_low6_low6_low6_low7_branch2b
I0903 18:00:15.160157 23978 net.cpp:100] Creating Layer bnhg2_low6_low6_low6_low7_branch2b
I0903 18:00:15.160163 23978 net.cpp:434] bnhg2_low6_low6_low6_low7_branch2b <- reshg2_low6_low6_low6_low7_branch2b
I0903 18:00:15.160172 23978 net.cpp:395] bnhg2_low6_low6_low6_low7_branch2b -> reshg2_low6_low6_low6_low7_branch2b (in-place)
I0903 18:00:15.160342 23978 net.cpp:150] Setting up bnhg2_low6_low6_low6_low7_branch2b
I0903 18:00:15.160351 23978 net.cpp:157] Top shape: 1 256 4 4 (4096)
I0903 18:00:15.160356 23978 net.cpp:165] Memory required for data: 1073971200
I0903 18:00:15.160364 23978 layer_factory.hpp:77] Creating layer scalehg2_low6_low6_low6_low7_branch2b
I0903 18:00:15.160374 23978 net.cpp:100] Creating Layer scalehg2_low6_low6_low6_low7_branch2b
I0903 18:00:15.160379 23978 net.cpp:434] scalehg2_low6_low6_low6_low7_branch2b <- reshg2_low6_low6_low6_low7_branch2b
I0903 18:00:15.160387 23978 net.cpp:395] scalehg2_low6_low6_low6_low7_branch2b -> reshg2_low6_low6_low6_low7_branch2b (in-place)
I0903 18:00:15.160424 23978 layer_factory.hpp:77] Creating layer scalehg2_low6_low6_low6_low7_branch2b
I0903 18:00:15.160526 23978 net.cpp:150] Setting up scalehg2_low6_low6_low6_low7_branch2b
I0903 18:00:15.160536 23978 net.cpp:157] Top shape: 1 256 4 4 (4096)
I0903 18:00:15.160540 23978 net.cpp:165] Memory required for data: 1073987584
I0903 18:00:15.160548 23978 layer_factory.hpp:77] Creating layer reshg2_low6_low6_low6_low7_branch2b_relu
I0903 18:00:15.160555 23978 net.cpp:100] Creating Layer reshg2_low6_low6_low6_low7_branch2b_relu
I0903 18:00:15.160560 23978 net.cpp:434] reshg2_low6_low6_low6_low7_branch2b_relu <- reshg2_low6_low6_low6_low7_branch2b
I0903 18:00:15.160568 23978 net.cpp:395] reshg2_low6_low6_low6_low7_branch2b_relu -> reshg2_low6_low6_low6_low7_branch2b (in-place)
I0903 18:00:15.160576 23978 net.cpp:150] Setting up reshg2_low6_low6_low6_low7_branch2b_relu
I0903 18:00:15.160583 23978 net.cpp:157] Top shape: 1 256 4 4 (4096)
I0903 18:00:15.160588 23978 net.cpp:165] Memory required for data: 1074003968
I0903 18:00:15.160591 23978 layer_factory.hpp:77] Creating layer reshg2_low6_low6_low6_low7_branch2c
I0903 18:00:15.160604 23978 net.cpp:100] Creating Layer reshg2_low6_low6_low6_low7_branch2c
I0903 18:00:15.160607 23978 net.cpp:434] reshg2_low6_low6_low6_low7_branch2c <- reshg2_low6_low6_low6_low7_branch2b
I0903 18:00:15.160615 23978 net.cpp:408] reshg2_low6_low6_low6_low7_branch2c -> reshg2_low6_low6_low6_low7_branch2c
I0903 18:00:15.161916 23978 net.cpp:150] Setting up reshg2_low6_low6_low6_low7_branch2c
I0903 18:00:15.161926 23978 net.cpp:157] Top shape: 1 512 4 4 (8192)
I0903 18:00:15.161929 23978 net.cpp:165] Memory required for data: 1074036736
I0903 18:00:15.161936 23978 layer_factory.hpp:77] Creating layer bnhg2_low6_low6_low6_low7_branch2c
I0903 18:00:15.161944 23978 net.cpp:100] Creating Layer bnhg2_low6_low6_low6_low7_branch2c
I0903 18:00:15.161949 23978 net.cpp:434] bnhg2_low6_low6_low6_low7_branch2c <- reshg2_low6_low6_low6_low7_branch2c
I0903 18:00:15.161957 23978 net.cpp:395] bnhg2_low6_low6_low6_low7_branch2c -> reshg2_low6_low6_low6_low7_branch2c (in-place)
I0903 18:00:15.162140 23978 net.cpp:150] Setting up bnhg2_low6_low6_low6_low7_branch2c
I0903 18:00:15.162148 23978 net.cpp:157] Top shape: 1 512 4 4 (8192)
I0903 18:00:15.162153 23978 net.cpp:165] Memory required for data: 1074069504
I0903 18:00:15.162163 23978 layer_factory.hpp:77] Creating layer scalehg2_low6_low6_low6_low7_branch2c
I0903 18:00:15.162173 23978 net.cpp:100] Creating Layer scalehg2_low6_low6_low6_low7_branch2c
I0903 18:00:15.162178 23978 net.cpp:434] scalehg2_low6_low6_low6_low7_branch2c <- reshg2_low6_low6_low6_low7_branch2c
I0903 18:00:15.162184 23978 net.cpp:395] scalehg2_low6_low6_low6_low7_branch2c -> reshg2_low6_low6_low6_low7_branch2c (in-place)
I0903 18:00:15.162223 23978 layer_factory.hpp:77] Creating layer scalehg2_low6_low6_low6_low7_branch2c
I0903 18:00:15.162328 23978 net.cpp:150] Setting up scalehg2_low6_low6_low6_low7_branch2c
I0903 18:00:15.162335 23978 net.cpp:157] Top shape: 1 512 4 4 (8192)
I0903 18:00:15.162338 23978 net.cpp:165] Memory required for data: 1074102272
I0903 18:00:15.162348 23978 layer_factory.hpp:77] Creating layer reshg2_low6_low6_low6_low7
I0903 18:00:15.162354 23978 net.cpp:100] Creating Layer reshg2_low6_low6_low6_low7
I0903 18:00:15.162360 23978 net.cpp:434] reshg2_low6_low6_low6_low7 <- reshg2_low6_low6_low6_low6_reshg2_low6_low6_low6_low6_relu_0_split_1
I0903 18:00:15.162369 23978 net.cpp:434] reshg2_low6_low6_low6_low7 <- reshg2_low6_low6_low6_low7_branch2c
I0903 18:00:15.162376 23978 net.cpp:408] reshg2_low6_low6_low6_low7 -> reshg2_low6_low6_low6_low7
I0903 18:00:15.162403 23978 net.cpp:150] Setting up reshg2_low6_low6_low6_low7
I0903 18:00:15.162410 23978 net.cpp:157] Top shape: 1 512 4 4 (8192)
I0903 18:00:15.162415 23978 net.cpp:165] Memory required for data: 1074135040
I0903 18:00:15.162420 23978 layer_factory.hpp:77] Creating layer reshg2_low6_low6_low6_low7_relu
I0903 18:00:15.162425 23978 net.cpp:100] Creating Layer reshg2_low6_low6_low6_low7_relu
I0903 18:00:15.162431 23978 net.cpp:434] reshg2_low6_low6_low6_low7_relu <- reshg2_low6_low6_low6_low7
I0903 18:00:15.162444 23978 net.cpp:395] reshg2_low6_low6_low6_low7_relu -> reshg2_low6_low6_low6_low7 (in-place)
I0903 18:00:15.162453 23978 net.cpp:150] Setting up reshg2_low6_low6_low6_low7_relu
I0903 18:00:15.162459 23978 net.cpp:157] Top shape: 1 512 4 4 (8192)
I0903 18:00:15.162464 23978 net.cpp:165] Memory required for data: 1074167808
I0903 18:00:15.162468 23978 layer_factory.hpp:77] Creating layer hg2_low6_low6_low6_up5
I0903 18:00:15.162477 23978 net.cpp:100] Creating Layer hg2_low6_low6_low6_up5
I0903 18:00:15.162482 23978 net.cpp:434] hg2_low6_low6_low6_up5 <- reshg2_low6_low6_low6_low7
I0903 18:00:15.162492 23978 net.cpp:408] hg2_low6_low6_low6_up5 -> hg2_low6_low6_low6_up5
I0903 18:00:15.316953 23978 net.cpp:150] Setting up hg2_low6_low6_low6_up5
I0903 18:00:15.316982 23978 net.cpp:157] Top shape: 1 512 8 8 (32768)
I0903 18:00:15.316987 23978 net.cpp:165] Memory required for data: 1074298880
I0903 18:00:15.316997 23978 layer_factory.hpp:77] Creating layer hg2_low6_low6_low6
I0903 18:00:15.317008 23978 net.cpp:100] Creating Layer hg2_low6_low6_low6
I0903 18:00:15.317016 23978 net.cpp:434] hg2_low6_low6_low6 <- reshg2_low6_low6_low6_up4
I0903 18:00:15.317028 23978 net.cpp:434] hg2_low6_low6_low6 <- hg2_low6_low6_low6_up5
I0903 18:00:15.317034 23978 net.cpp:408] hg2_low6_low6_low6 -> hg2_low6_low6_low6
I0903 18:00:15.317073 23978 net.cpp:150] Setting up hg2_low6_low6_low6
I0903 18:00:15.317080 23978 net.cpp:157] Top shape: 1 512 8 8 (32768)
I0903 18:00:15.317085 23978 net.cpp:165] Memory required for data: 1074429952
I0903 18:00:15.317088 23978 layer_factory.hpp:77] Creating layer hg2_low6_low6_low6_hg2_low6_low6_low6_0_split
I0903 18:00:15.317096 23978 net.cpp:100] Creating Layer hg2_low6_low6_low6_hg2_low6_low6_low6_0_split
I0903 18:00:15.317102 23978 net.cpp:434] hg2_low6_low6_low6_hg2_low6_low6_low6_0_split <- hg2_low6_low6_low6
I0903 18:00:15.317109 23978 net.cpp:408] hg2_low6_low6_low6_hg2_low6_low6_low6_0_split -> hg2_low6_low6_low6_hg2_low6_low6_low6_0_split_0
I0903 18:00:15.317119 23978 net.cpp:408] hg2_low6_low6_low6_hg2_low6_low6_low6_0_split -> hg2_low6_low6_low6_hg2_low6_low6_low6_0_split_1
I0903 18:00:15.317158 23978 net.cpp:150] Setting up hg2_low6_low6_low6_hg2_low6_low6_low6_0_split
I0903 18:00:15.317165 23978 net.cpp:157] Top shape: 1 512 8 8 (32768)
I0903 18:00:15.317173 23978 net.cpp:157] Top shape: 1 512 8 8 (32768)
I0903 18:00:15.317176 23978 net.cpp:165] Memory required for data: 1074692096
I0903 18:00:15.317181 23978 layer_factory.hpp:77] Creating layer reshg2_low6_low6_low7_branch2a
I0903 18:00:15.317194 23978 net.cpp:100] Creating Layer reshg2_low6_low6_low7_branch2a
I0903 18:00:15.317199 23978 net.cpp:434] reshg2_low6_low6_low7_branch2a <- hg2_low6_low6_low6_hg2_low6_low6_low6_0_split_0
I0903 18:00:15.317209 23978 net.cpp:408] reshg2_low6_low6_low7_branch2a -> reshg2_low6_low6_low7_branch2a
I0903 18:00:15.318891 23978 net.cpp:150] Setting up reshg2_low6_low6_low7_branch2a
I0903 18:00:15.318902 23978 net.cpp:157] Top shape: 1 256 8 8 (16384)
I0903 18:00:15.318905 23978 net.cpp:165] Memory required for data: 1074757632
I0903 18:00:15.318912 23978 layer_factory.hpp:77] Creating layer bnhg2_low6_low6_low7_branch2a
I0903 18:00:15.318923 23978 net.cpp:100] Creating Layer bnhg2_low6_low6_low7_branch2a
I0903 18:00:15.318929 23978 net.cpp:434] bnhg2_low6_low6_low7_branch2a <- reshg2_low6_low6_low7_branch2a
I0903 18:00:15.318936 23978 net.cpp:395] bnhg2_low6_low6_low7_branch2a -> reshg2_low6_low6_low7_branch2a (in-place)
I0903 18:00:15.319103 23978 net.cpp:150] Setting up bnhg2_low6_low6_low7_branch2a
I0903 18:00:15.319110 23978 net.cpp:157] Top shape: 1 256 8 8 (16384)
I0903 18:00:15.319114 23978 net.cpp:165] Memory required for data: 1074823168
I0903 18:00:15.319124 23978 layer_factory.hpp:77] Creating layer scalehg2_low6_low6_low7_branch2a
I0903 18:00:15.319135 23978 net.cpp:100] Creating Layer scalehg2_low6_low6_low7_branch2a
I0903 18:00:15.319139 23978 net.cpp:434] scalehg2_low6_low6_low7_branch2a <- reshg2_low6_low6_low7_branch2a
I0903 18:00:15.319149 23978 net.cpp:395] scalehg2_low6_low6_low7_branch2a -> reshg2_low6_low6_low7_branch2a (in-place)
I0903 18:00:15.319196 23978 layer_factory.hpp:77] Creating layer scalehg2_low6_low6_low7_branch2a
I0903 18:00:15.319295 23978 net.cpp:150] Setting up scalehg2_low6_low6_low7_branch2a
I0903 18:00:15.319303 23978 net.cpp:157] Top shape: 1 256 8 8 (16384)
I0903 18:00:15.319306 23978 net.cpp:165] Memory required for data: 1074888704
I0903 18:00:15.319315 23978 layer_factory.hpp:77] Creating layer reshg2_low6_low6_low7_branch2a_relu
I0903 18:00:15.319324 23978 net.cpp:100] Creating Layer reshg2_low6_low6_low7_branch2a_relu
I0903 18:00:15.319329 23978 net.cpp:434] reshg2_low6_low6_low7_branch2a_relu <- reshg2_low6_low6_low7_branch2a
I0903 18:00:15.319339 23978 net.cpp:395] reshg2_low6_low6_low7_branch2a_relu -> reshg2_low6_low6_low7_branch2a (in-place)
I0903 18:00:15.319347 23978 net.cpp:150] Setting up reshg2_low6_low6_low7_branch2a_relu
I0903 18:00:15.319353 23978 net.cpp:157] Top shape: 1 256 8 8 (16384)
I0903 18:00:15.319358 23978 net.cpp:165] Memory required for data: 1074954240
I0903 18:00:15.319362 23978 layer_factory.hpp:77] Creating layer reshg2_low6_low6_low7_branch2b
I0903 18:00:15.319373 23978 net.cpp:100] Creating Layer reshg2_low6_low6_low7_branch2b
I0903 18:00:15.319378 23978 net.cpp:434] reshg2_low6_low6_low7_branch2b <- reshg2_low6_low6_low7_branch2a
I0903 18:00:15.319386 23978 net.cpp:408] reshg2_low6_low6_low7_branch2b -> reshg2_low6_low6_low7_branch2b
I0903 18:00:15.325047 23978 net.cpp:150] Setting up reshg2_low6_low6_low7_branch2b
I0903 18:00:15.325065 23978 net.cpp:157] Top shape: 1 256 8 8 (16384)
I0903 18:00:15.325069 23978 net.cpp:165] Memory required for data: 1075019776
I0903 18:00:15.325078 23978 layer_factory.hpp:77] Creating layer bnhg2_low6_low6_low7_branch2b
I0903 18:00:15.325089 23978 net.cpp:100] Creating Layer bnhg2_low6_low6_low7_branch2b
I0903 18:00:15.325095 23978 net.cpp:434] bnhg2_low6_low6_low7_branch2b <- reshg2_low6_low6_low7_branch2b
I0903 18:00:15.325104 23978 net.cpp:395] bnhg2_low6_low6_low7_branch2b -> reshg2_low6_low6_low7_branch2b (in-place)
I0903 18:00:15.325273 23978 net.cpp:150] Setting up bnhg2_low6_low6_low7_branch2b
I0903 18:00:15.325281 23978 net.cpp:157] Top shape: 1 256 8 8 (16384)
I0903 18:00:15.325285 23978 net.cpp:165] Memory required for data: 1075085312
I0903 18:00:15.325295 23978 layer_factory.hpp:77] Creating layer scalehg2_low6_low6_low7_branch2b
I0903 18:00:15.325305 23978 net.cpp:100] Creating Layer scalehg2_low6_low6_low7_branch2b
I0903 18:00:15.325310 23978 net.cpp:434] scalehg2_low6_low6_low7_branch2b <- reshg2_low6_low6_low7_branch2b
I0903 18:00:15.325317 23978 net.cpp:395] scalehg2_low6_low6_low7_branch2b -> reshg2_low6_low6_low7_branch2b (in-place)
I0903 18:00:15.325357 23978 layer_factory.hpp:77] Creating layer scalehg2_low6_low6_low7_branch2b
I0903 18:00:15.325453 23978 net.cpp:150] Setting up scalehg2_low6_low6_low7_branch2b
I0903 18:00:15.325461 23978 net.cpp:157] Top shape: 1 256 8 8 (16384)
I0903 18:00:15.325464 23978 net.cpp:165] Memory required for data: 1075150848
I0903 18:00:15.325474 23978 layer_factory.hpp:77] Creating layer reshg2_low6_low6_low7_branch2b_relu
I0903 18:00:15.325480 23978 net.cpp:100] Creating Layer reshg2_low6_low6_low7_branch2b_relu
I0903 18:00:15.325486 23978 net.cpp:434] reshg2_low6_low6_low7_branch2b_relu <- reshg2_low6_low6_low7_branch2b
I0903 18:00:15.325494 23978 net.cpp:395] reshg2_low6_low6_low7_branch2b_relu -> reshg2_low6_low6_low7_branch2b (in-place)
I0903 18:00:15.325501 23978 net.cpp:150] Setting up reshg2_low6_low6_low7_branch2b_relu
I0903 18:00:15.325507 23978 net.cpp:157] Top shape: 1 256 8 8 (16384)
I0903 18:00:15.325511 23978 net.cpp:165] Memory required for data: 1075216384
I0903 18:00:15.325515 23978 layer_factory.hpp:77] Creating layer reshg2_low6_low6_low7_branch2c
I0903 18:00:15.325525 23978 net.cpp:100] Creating Layer reshg2_low6_low6_low7_branch2c
I0903 18:00:15.325530 23978 net.cpp:434] reshg2_low6_low6_low7_branch2c <- reshg2_low6_low6_low7_branch2b
I0903 18:00:15.325538 23978 net.cpp:408] reshg2_low6_low6_low7_branch2c -> reshg2_low6_low6_low7_branch2c
I0903 18:00:15.326799 23978 net.cpp:150] Setting up reshg2_low6_low6_low7_branch2c
I0903 18:00:15.326808 23978 net.cpp:157] Top shape: 1 512 8 8 (32768)
I0903 18:00:15.326812 23978 net.cpp:165] Memory required for data: 1075347456
I0903 18:00:15.326819 23978 layer_factory.hpp:77] Creating layer bnhg2_low6_low6_low7_branch2c
I0903 18:00:15.326829 23978 net.cpp:100] Creating Layer bnhg2_low6_low6_low7_branch2c
I0903 18:00:15.326834 23978 net.cpp:434] bnhg2_low6_low6_low7_branch2c <- reshg2_low6_low6_low7_branch2c
I0903 18:00:15.326841 23978 net.cpp:395] bnhg2_low6_low6_low7_branch2c -> reshg2_low6_low6_low7_branch2c (in-place)
I0903 18:00:15.327030 23978 net.cpp:150] Setting up bnhg2_low6_low6_low7_branch2c
I0903 18:00:15.327039 23978 net.cpp:157] Top shape: 1 512 8 8 (32768)
I0903 18:00:15.327042 23978 net.cpp:165] Memory required for data: 1075478528
I0903 18:00:15.327052 23978 layer_factory.hpp:77] Creating layer scalehg2_low6_low6_low7_branch2c
I0903 18:00:15.327061 23978 net.cpp:100] Creating Layer scalehg2_low6_low6_low7_branch2c
I0903 18:00:15.327066 23978 net.cpp:434] scalehg2_low6_low6_low7_branch2c <- reshg2_low6_low6_low7_branch2c
I0903 18:00:15.327074 23978 net.cpp:395] scalehg2_low6_low6_low7_branch2c -> reshg2_low6_low6_low7_branch2c (in-place)
I0903 18:00:15.327113 23978 layer_factory.hpp:77] Creating layer scalehg2_low6_low6_low7_branch2c
I0903 18:00:15.327220 23978 net.cpp:150] Setting up scalehg2_low6_low6_low7_branch2c
I0903 18:00:15.327229 23978 net.cpp:157] Top shape: 1 512 8 8 (32768)
I0903 18:00:15.327231 23978 net.cpp:165] Memory required for data: 1075609600
I0903 18:00:15.327240 23978 layer_factory.hpp:77] Creating layer reshg2_low6_low6_low7
I0903 18:00:15.327250 23978 net.cpp:100] Creating Layer reshg2_low6_low6_low7
I0903 18:00:15.327255 23978 net.cpp:434] reshg2_low6_low6_low7 <- hg2_low6_low6_low6_hg2_low6_low6_low6_0_split_1
I0903 18:00:15.327262 23978 net.cpp:434] reshg2_low6_low6_low7 <- reshg2_low6_low6_low7_branch2c
I0903 18:00:15.327270 23978 net.cpp:408] reshg2_low6_low6_low7 -> reshg2_low6_low6_low7
I0903 18:00:15.327296 23978 net.cpp:150] Setting up reshg2_low6_low6_low7
I0903 18:00:15.327303 23978 net.cpp:157] Top shape: 1 512 8 8 (32768)
I0903 18:00:15.327308 23978 net.cpp:165] Memory required for data: 1075740672
I0903 18:00:15.327312 23978 layer_factory.hpp:77] Creating layer reshg2_low6_low6_low7_relu
I0903 18:00:15.327321 23978 net.cpp:100] Creating Layer reshg2_low6_low6_low7_relu
I0903 18:00:15.327325 23978 net.cpp:434] reshg2_low6_low6_low7_relu <- reshg2_low6_low6_low7
I0903 18:00:15.327332 23978 net.cpp:395] reshg2_low6_low6_low7_relu -> reshg2_low6_low6_low7 (in-place)
I0903 18:00:15.327339 23978 net.cpp:150] Setting up reshg2_low6_low6_low7_relu
I0903 18:00:15.327347 23978 net.cpp:157] Top shape: 1 512 8 8 (32768)
I0903 18:00:15.327350 23978 net.cpp:165] Memory required for data: 1075871744
I0903 18:00:15.327354 23978 layer_factory.hpp:77] Creating layer hg2_low6_low6_up5
I0903 18:00:15.327363 23978 net.cpp:100] Creating Layer hg2_low6_low6_up5
I0903 18:00:15.327368 23978 net.cpp:434] hg2_low6_low6_up5 <- reshg2_low6_low6_low7
I0903 18:00:15.327378 23978 net.cpp:408] hg2_low6_low6_up5 -> hg2_low6_low6_up5
I0903 18:00:15.478154 23978 net.cpp:150] Setting up hg2_low6_low6_up5
I0903 18:00:15.478181 23978 net.cpp:157] Top shape: 1 512 16 16 (131072)
I0903 18:00:15.478184 23978 net.cpp:165] Memory required for data: 1076396032
I0903 18:00:15.478204 23978 layer_factory.hpp:77] Creating layer hg2_low6_low6
I0903 18:00:15.478224 23978 net.cpp:100] Creating Layer hg2_low6_low6
I0903 18:00:15.478231 23978 net.cpp:434] hg2_low6_low6 <- reshg2_low6_low6_up4
I0903 18:00:15.478241 23978 net.cpp:434] hg2_low6_low6 <- hg2_low6_low6_up5
I0903 18:00:15.478248 23978 net.cpp:408] hg2_low6_low6 -> hg2_low6_low6
I0903 18:00:15.478277 23978 net.cpp:150] Setting up hg2_low6_low6
I0903 18:00:15.478286 23978 net.cpp:157] Top shape: 1 512 16 16 (131072)
I0903 18:00:15.478291 23978 net.cpp:165] Memory required for data: 1076920320
I0903 18:00:15.478294 23978 layer_factory.hpp:77] Creating layer hg2_low6_low6_hg2_low6_low6_0_split
I0903 18:00:15.478314 23978 net.cpp:100] Creating Layer hg2_low6_low6_hg2_low6_low6_0_split
I0903 18:00:15.478319 23978 net.cpp:434] hg2_low6_low6_hg2_low6_low6_0_split <- hg2_low6_low6
I0903 18:00:15.478327 23978 net.cpp:408] hg2_low6_low6_hg2_low6_low6_0_split -> hg2_low6_low6_hg2_low6_low6_0_split_0
I0903 18:00:15.478337 23978 net.cpp:408] hg2_low6_low6_hg2_low6_low6_0_split -> hg2_low6_low6_hg2_low6_low6_0_split_1
I0903 18:00:15.478374 23978 net.cpp:150] Setting up hg2_low6_low6_hg2_low6_low6_0_split
I0903 18:00:15.478380 23978 net.cpp:157] Top shape: 1 512 16 16 (131072)
I0903 18:00:15.478387 23978 net.cpp:157] Top shape: 1 512 16 16 (131072)
I0903 18:00:15.478391 23978 net.cpp:165] Memory required for data: 1077968896
I0903 18:00:15.478395 23978 layer_factory.hpp:77] Creating layer reshg2_low6_low7_branch2a
I0903 18:00:15.478410 23978 net.cpp:100] Creating Layer reshg2_low6_low7_branch2a
I0903 18:00:15.478415 23978 net.cpp:434] reshg2_low6_low7_branch2a <- hg2_low6_low6_hg2_low6_low6_0_split_0
I0903 18:00:15.478425 23978 net.cpp:408] reshg2_low6_low7_branch2a -> reshg2_low6_low7_branch2a
I0903 18:00:15.480123 23978 net.cpp:150] Setting up reshg2_low6_low7_branch2a
I0903 18:00:15.480134 23978 net.cpp:157] Top shape: 1 256 16 16 (65536)
I0903 18:00:15.480139 23978 net.cpp:165] Memory required for data: 1078231040
I0903 18:00:15.480145 23978 layer_factory.hpp:77] Creating layer bnhg2_low6_low7_branch2a
I0903 18:00:15.480155 23978 net.cpp:100] Creating Layer bnhg2_low6_low7_branch2a
I0903 18:00:15.480160 23978 net.cpp:434] bnhg2_low6_low7_branch2a <- reshg2_low6_low7_branch2a
I0903 18:00:15.480170 23978 net.cpp:395] bnhg2_low6_low7_branch2a -> reshg2_low6_low7_branch2a (in-place)
I0903 18:00:15.480330 23978 net.cpp:150] Setting up bnhg2_low6_low7_branch2a
I0903 18:00:15.480340 23978 net.cpp:157] Top shape: 1 256 16 16 (65536)
I0903 18:00:15.480343 23978 net.cpp:165] Memory required for data: 1078493184
I0903 18:00:15.480355 23978 layer_factory.hpp:77] Creating layer scalehg2_low6_low7_branch2a
I0903 18:00:15.480365 23978 net.cpp:100] Creating Layer scalehg2_low6_low7_branch2a
I0903 18:00:15.480370 23978 net.cpp:434] scalehg2_low6_low7_branch2a <- reshg2_low6_low7_branch2a
I0903 18:00:15.480376 23978 net.cpp:395] scalehg2_low6_low7_branch2a -> reshg2_low6_low7_branch2a (in-place)
I0903 18:00:15.480415 23978 layer_factory.hpp:77] Creating layer scalehg2_low6_low7_branch2a
I0903 18:00:15.480507 23978 net.cpp:150] Setting up scalehg2_low6_low7_branch2a
I0903 18:00:15.480515 23978 net.cpp:157] Top shape: 1 256 16 16 (65536)
I0903 18:00:15.480518 23978 net.cpp:165] Memory required for data: 1078755328
I0903 18:00:15.480527 23978 layer_factory.hpp:77] Creating layer reshg2_low6_low7_branch2a_relu
I0903 18:00:15.480535 23978 net.cpp:100] Creating Layer reshg2_low6_low7_branch2a_relu
I0903 18:00:15.480540 23978 net.cpp:434] reshg2_low6_low7_branch2a_relu <- reshg2_low6_low7_branch2a
I0903 18:00:15.480548 23978 net.cpp:395] reshg2_low6_low7_branch2a_relu -> reshg2_low6_low7_branch2a (in-place)
I0903 18:00:15.480556 23978 net.cpp:150] Setting up reshg2_low6_low7_branch2a_relu
I0903 18:00:15.480562 23978 net.cpp:157] Top shape: 1 256 16 16 (65536)
I0903 18:00:15.480567 23978 net.cpp:165] Memory required for data: 1079017472
I0903 18:00:15.480571 23978 layer_factory.hpp:77] Creating layer reshg2_low6_low7_branch2b
I0903 18:00:15.480581 23978 net.cpp:100] Creating Layer reshg2_low6_low7_branch2b
I0903 18:00:15.480587 23978 net.cpp:434] reshg2_low6_low7_branch2b <- reshg2_low6_low7_branch2a
I0903 18:00:15.480597 23978 net.cpp:408] reshg2_low6_low7_branch2b -> reshg2_low6_low7_branch2b
I0903 18:00:15.486268 23978 net.cpp:150] Setting up reshg2_low6_low7_branch2b
I0903 18:00:15.486282 23978 net.cpp:157] Top shape: 1 256 16 16 (65536)
I0903 18:00:15.486286 23978 net.cpp:165] Memory required for data: 1079279616
I0903 18:00:15.486294 23978 layer_factory.hpp:77] Creating layer bnhg2_low6_low7_branch2b
I0903 18:00:15.486304 23978 net.cpp:100] Creating Layer bnhg2_low6_low7_branch2b
I0903 18:00:15.486318 23978 net.cpp:434] bnhg2_low6_low7_branch2b <- reshg2_low6_low7_branch2b
I0903 18:00:15.486330 23978 net.cpp:395] bnhg2_low6_low7_branch2b -> reshg2_low6_low7_branch2b (in-place)
I0903 18:00:15.486496 23978 net.cpp:150] Setting up bnhg2_low6_low7_branch2b
I0903 18:00:15.486505 23978 net.cpp:157] Top shape: 1 256 16 16 (65536)
I0903 18:00:15.486510 23978 net.cpp:165] Memory required for data: 1079541760
I0903 18:00:15.486518 23978 layer_factory.hpp:77] Creating layer scalehg2_low6_low7_branch2b
I0903 18:00:15.486528 23978 net.cpp:100] Creating Layer scalehg2_low6_low7_branch2b
I0903 18:00:15.486533 23978 net.cpp:434] scalehg2_low6_low7_branch2b <- reshg2_low6_low7_branch2b
I0903 18:00:15.486541 23978 net.cpp:395] scalehg2_low6_low7_branch2b -> reshg2_low6_low7_branch2b (in-place)
I0903 18:00:15.486578 23978 layer_factory.hpp:77] Creating layer scalehg2_low6_low7_branch2b
I0903 18:00:15.486670 23978 net.cpp:150] Setting up scalehg2_low6_low7_branch2b
I0903 18:00:15.486676 23978 net.cpp:157] Top shape: 1 256 16 16 (65536)
I0903 18:00:15.486680 23978 net.cpp:165] Memory required for data: 1079803904
I0903 18:00:15.486690 23978 layer_factory.hpp:77] Creating layer reshg2_low6_low7_branch2b_relu
I0903 18:00:15.486697 23978 net.cpp:100] Creating Layer reshg2_low6_low7_branch2b_relu
I0903 18:00:15.486702 23978 net.cpp:434] reshg2_low6_low7_branch2b_relu <- reshg2_low6_low7_branch2b
I0903 18:00:15.486711 23978 net.cpp:395] reshg2_low6_low7_branch2b_relu -> reshg2_low6_low7_branch2b (in-place)
I0903 18:00:15.486717 23978 net.cpp:150] Setting up reshg2_low6_low7_branch2b_relu
I0903 18:00:15.486724 23978 net.cpp:157] Top shape: 1 256 16 16 (65536)
I0903 18:00:15.486728 23978 net.cpp:165] Memory required for data: 1080066048
I0903 18:00:15.486732 23978 layer_factory.hpp:77] Creating layer reshg2_low6_low7_branch2c
I0903 18:00:15.486742 23978 net.cpp:100] Creating Layer reshg2_low6_low7_branch2c
I0903 18:00:15.486747 23978 net.cpp:434] reshg2_low6_low7_branch2c <- reshg2_low6_low7_branch2b
I0903 18:00:15.486755 23978 net.cpp:408] reshg2_low6_low7_branch2c -> reshg2_low6_low7_branch2c
I0903 18:00:15.488005 23978 net.cpp:150] Setting up reshg2_low6_low7_branch2c
I0903 18:00:15.488014 23978 net.cpp:157] Top shape: 1 512 16 16 (131072)
I0903 18:00:15.488018 23978 net.cpp:165] Memory required for data: 1080590336
I0903 18:00:15.488024 23978 layer_factory.hpp:77] Creating layer bnhg2_low6_low7_branch2c
I0903 18:00:15.488034 23978 net.cpp:100] Creating Layer bnhg2_low6_low7_branch2c
I0903 18:00:15.488039 23978 net.cpp:434] bnhg2_low6_low7_branch2c <- reshg2_low6_low7_branch2c
I0903 18:00:15.488046 23978 net.cpp:395] bnhg2_low6_low7_branch2c -> reshg2_low6_low7_branch2c (in-place)
I0903 18:00:15.488229 23978 net.cpp:150] Setting up bnhg2_low6_low7_branch2c
I0903 18:00:15.488236 23978 net.cpp:157] Top shape: 1 512 16 16 (131072)
I0903 18:00:15.488240 23978 net.cpp:165] Memory required for data: 1081114624
I0903 18:00:15.488250 23978 layer_factory.hpp:77] Creating layer scalehg2_low6_low7_branch2c
I0903 18:00:15.488258 23978 net.cpp:100] Creating Layer scalehg2_low6_low7_branch2c
I0903 18:00:15.488263 23978 net.cpp:434] scalehg2_low6_low7_branch2c <- reshg2_low6_low7_branch2c
I0903 18:00:15.488271 23978 net.cpp:395] scalehg2_low6_low7_branch2c -> reshg2_low6_low7_branch2c (in-place)
I0903 18:00:15.488309 23978 layer_factory.hpp:77] Creating layer scalehg2_low6_low7_branch2c
I0903 18:00:15.488420 23978 net.cpp:150] Setting up scalehg2_low6_low7_branch2c
I0903 18:00:15.488432 23978 net.cpp:157] Top shape: 1 512 16 16 (131072)
I0903 18:00:15.488437 23978 net.cpp:165] Memory required for data: 1081638912
I0903 18:00:15.488445 23978 layer_factory.hpp:77] Creating layer reshg2_low6_low7
I0903 18:00:15.488453 23978 net.cpp:100] Creating Layer reshg2_low6_low7
I0903 18:00:15.488459 23978 net.cpp:434] reshg2_low6_low7 <- hg2_low6_low6_hg2_low6_low6_0_split_1
I0903 18:00:15.488466 23978 net.cpp:434] reshg2_low6_low7 <- reshg2_low6_low7_branch2c
I0903 18:00:15.488474 23978 net.cpp:408] reshg2_low6_low7 -> reshg2_low6_low7
I0903 18:00:15.488504 23978 net.cpp:150] Setting up reshg2_low6_low7
I0903 18:00:15.488512 23978 net.cpp:157] Top shape: 1 512 16 16 (131072)
I0903 18:00:15.488517 23978 net.cpp:165] Memory required for data: 1082163200
I0903 18:00:15.488521 23978 layer_factory.hpp:77] Creating layer reshg2_low6_low7_relu
I0903 18:00:15.488528 23978 net.cpp:100] Creating Layer reshg2_low6_low7_relu
I0903 18:00:15.488534 23978 net.cpp:434] reshg2_low6_low7_relu <- reshg2_low6_low7
I0903 18:00:15.488541 23978 net.cpp:395] reshg2_low6_low7_relu -> reshg2_low6_low7 (in-place)
I0903 18:00:15.488548 23978 net.cpp:150] Setting up reshg2_low6_low7_relu
I0903 18:00:15.488555 23978 net.cpp:157] Top shape: 1 512 16 16 (131072)
I0903 18:00:15.488559 23978 net.cpp:165] Memory required for data: 1082687488
I0903 18:00:15.488564 23978 layer_factory.hpp:77] Creating layer hg2_low6_up5
I0903 18:00:15.488574 23978 net.cpp:100] Creating Layer hg2_low6_up5
I0903 18:00:15.488579 23978 net.cpp:434] hg2_low6_up5 <- reshg2_low6_low7
I0903 18:00:15.488585 23978 net.cpp:408] hg2_low6_up5 -> hg2_low6_up5
I0903 18:00:15.637013 23978 net.cpp:150] Setting up hg2_low6_up5
I0903 18:00:15.637040 23978 net.cpp:157] Top shape: 1 512 32 32 (524288)
I0903 18:00:15.637043 23978 net.cpp:165] Memory required for data: 1084784640
I0903 18:00:15.637063 23978 layer_factory.hpp:77] Creating layer hg2_low6
I0903 18:00:15.637074 23978 net.cpp:100] Creating Layer hg2_low6
I0903 18:00:15.637081 23978 net.cpp:434] hg2_low6 <- reshg2_low6_up4
I0903 18:00:15.637100 23978 net.cpp:434] hg2_low6 <- hg2_low6_up5
I0903 18:00:15.637107 23978 net.cpp:408] hg2_low6 -> hg2_low6
I0903 18:00:15.637145 23978 net.cpp:150] Setting up hg2_low6
I0903 18:00:15.637161 23978 net.cpp:157] Top shape: 1 512 32 32 (524288)
I0903 18:00:15.637166 23978 net.cpp:165] Memory required for data: 1086881792
I0903 18:00:15.637181 23978 layer_factory.hpp:77] Creating layer hg2_low6_hg2_low6_0_split
I0903 18:00:15.637197 23978 net.cpp:100] Creating Layer hg2_low6_hg2_low6_0_split
I0903 18:00:15.637202 23978 net.cpp:434] hg2_low6_hg2_low6_0_split <- hg2_low6
I0903 18:00:15.637219 23978 net.cpp:408] hg2_low6_hg2_low6_0_split -> hg2_low6_hg2_low6_0_split_0
I0903 18:00:15.637228 23978 net.cpp:408] hg2_low6_hg2_low6_0_split -> hg2_low6_hg2_low6_0_split_1
I0903 18:00:15.637275 23978 net.cpp:150] Setting up hg2_low6_hg2_low6_0_split
I0903 18:00:15.637291 23978 net.cpp:157] Top shape: 1 512 32 32 (524288)
I0903 18:00:15.637307 23978 net.cpp:157] Top shape: 1 512 32 32 (524288)
I0903 18:00:15.637311 23978 net.cpp:165] Memory required for data: 1091076096
I0903 18:00:15.637316 23978 layer_factory.hpp:77] Creating layer reshg2_low7_branch2a
I0903 18:00:15.637339 23978 net.cpp:100] Creating Layer reshg2_low7_branch2a
I0903 18:00:15.637344 23978 net.cpp:434] reshg2_low7_branch2a <- hg2_low6_hg2_low6_0_split_0
I0903 18:00:15.637354 23978 net.cpp:408] reshg2_low7_branch2a -> reshg2_low7_branch2a
I0903 18:00:15.639011 23978 net.cpp:150] Setting up reshg2_low7_branch2a
I0903 18:00:15.639022 23978 net.cpp:157] Top shape: 1 256 32 32 (262144)
I0903 18:00:15.639026 23978 net.cpp:165] Memory required for data: 1092124672
I0903 18:00:15.639042 23978 layer_factory.hpp:77] Creating layer bnhg2_low7_branch2a
I0903 18:00:15.639052 23978 net.cpp:100] Creating Layer bnhg2_low7_branch2a
I0903 18:00:15.639057 23978 net.cpp:434] bnhg2_low7_branch2a <- reshg2_low7_branch2a
I0903 18:00:15.639068 23978 net.cpp:395] bnhg2_low7_branch2a -> reshg2_low7_branch2a (in-place)
I0903 18:00:15.639248 23978 net.cpp:150] Setting up bnhg2_low7_branch2a
I0903 18:00:15.639256 23978 net.cpp:157] Top shape: 1 256 32 32 (262144)
I0903 18:00:15.639261 23978 net.cpp:165] Memory required for data: 1093173248
I0903 18:00:15.639281 23978 layer_factory.hpp:77] Creating layer scalehg2_low7_branch2a
I0903 18:00:15.639289 23978 net.cpp:100] Creating Layer scalehg2_low7_branch2a
I0903 18:00:15.639294 23978 net.cpp:434] scalehg2_low7_branch2a <- reshg2_low7_branch2a
I0903 18:00:15.639302 23978 net.cpp:395] scalehg2_low7_branch2a -> reshg2_low7_branch2a (in-place)
I0903 18:00:15.639348 23978 layer_factory.hpp:77] Creating layer scalehg2_low7_branch2a
I0903 18:00:15.639482 23978 net.cpp:150] Setting up scalehg2_low7_branch2a
I0903 18:00:15.639490 23978 net.cpp:157] Top shape: 1 256 32 32 (262144)
I0903 18:00:15.639494 23978 net.cpp:165] Memory required for data: 1094221824
I0903 18:00:15.639513 23978 layer_factory.hpp:77] Creating layer reshg2_low7_branch2a_relu
I0903 18:00:15.639520 23978 net.cpp:100] Creating Layer reshg2_low7_branch2a_relu
I0903 18:00:15.639526 23978 net.cpp:434] reshg2_low7_branch2a_relu <- reshg2_low7_branch2a
I0903 18:00:15.639535 23978 net.cpp:395] reshg2_low7_branch2a_relu -> reshg2_low7_branch2a (in-place)
I0903 18:00:15.639544 23978 net.cpp:150] Setting up reshg2_low7_branch2a_relu
I0903 18:00:15.639549 23978 net.cpp:157] Top shape: 1 256 32 32 (262144)
I0903 18:00:15.639554 23978 net.cpp:165] Memory required for data: 1095270400
I0903 18:00:15.639559 23978 layer_factory.hpp:77] Creating layer reshg2_low7_branch2b
I0903 18:00:15.639569 23978 net.cpp:100] Creating Layer reshg2_low7_branch2b
I0903 18:00:15.639574 23978 net.cpp:434] reshg2_low7_branch2b <- reshg2_low7_branch2a
I0903 18:00:15.639581 23978 net.cpp:408] reshg2_low7_branch2b -> reshg2_low7_branch2b
I0903 18:00:15.645231 23978 net.cpp:150] Setting up reshg2_low7_branch2b
I0903 18:00:15.645243 23978 net.cpp:157] Top shape: 1 256 32 32 (262144)
I0903 18:00:15.645247 23978 net.cpp:165] Memory required for data: 1096318976
I0903 18:00:15.645253 23978 layer_factory.hpp:77] Creating layer bnhg2_low7_branch2b
I0903 18:00:15.645263 23978 net.cpp:100] Creating Layer bnhg2_low7_branch2b
I0903 18:00:15.645269 23978 net.cpp:434] bnhg2_low7_branch2b <- reshg2_low7_branch2b
I0903 18:00:15.645279 23978 net.cpp:395] bnhg2_low7_branch2b -> reshg2_low7_branch2b (in-place)
I0903 18:00:15.645454 23978 net.cpp:150] Setting up bnhg2_low7_branch2b
I0903 18:00:15.645462 23978 net.cpp:157] Top shape: 1 256 32 32 (262144)
I0903 18:00:15.645467 23978 net.cpp:165] Memory required for data: 1097367552
I0903 18:00:15.645476 23978 layer_factory.hpp:77] Creating layer scalehg2_low7_branch2b
I0903 18:00:15.645485 23978 net.cpp:100] Creating Layer scalehg2_low7_branch2b
I0903 18:00:15.645490 23978 net.cpp:434] scalehg2_low7_branch2b <- reshg2_low7_branch2b
I0903 18:00:15.645498 23978 net.cpp:395] scalehg2_low7_branch2b -> reshg2_low7_branch2b (in-place)
I0903 18:00:15.645534 23978 layer_factory.hpp:77] Creating layer scalehg2_low7_branch2b
I0903 18:00:15.645633 23978 net.cpp:150] Setting up scalehg2_low7_branch2b
I0903 18:00:15.645640 23978 net.cpp:157] Top shape: 1 256 32 32 (262144)
I0903 18:00:15.645644 23978 net.cpp:165] Memory required for data: 1098416128
I0903 18:00:15.645653 23978 layer_factory.hpp:77] Creating layer reshg2_low7_branch2b_relu
I0903 18:00:15.645660 23978 net.cpp:100] Creating Layer reshg2_low7_branch2b_relu
I0903 18:00:15.645665 23978 net.cpp:434] reshg2_low7_branch2b_relu <- reshg2_low7_branch2b
I0903 18:00:15.645674 23978 net.cpp:395] reshg2_low7_branch2b_relu -> reshg2_low7_branch2b (in-place)
I0903 18:00:15.645681 23978 net.cpp:150] Setting up reshg2_low7_branch2b_relu
I0903 18:00:15.645689 23978 net.cpp:157] Top shape: 1 256 32 32 (262144)
I0903 18:00:15.645692 23978 net.cpp:165] Memory required for data: 1099464704
I0903 18:00:15.645696 23978 layer_factory.hpp:77] Creating layer reshg2_low7_branch2c
I0903 18:00:15.645709 23978 net.cpp:100] Creating Layer reshg2_low7_branch2c
I0903 18:00:15.645712 23978 net.cpp:434] reshg2_low7_branch2c <- reshg2_low7_branch2b
I0903 18:00:15.645720 23978 net.cpp:408] reshg2_low7_branch2c -> reshg2_low7_branch2c
I0903 18:00:15.646975 23978 net.cpp:150] Setting up reshg2_low7_branch2c
I0903 18:00:15.646984 23978 net.cpp:157] Top shape: 1 512 32 32 (524288)
I0903 18:00:15.646988 23978 net.cpp:165] Memory required for data: 1101561856
I0903 18:00:15.646996 23978 layer_factory.hpp:77] Creating layer bnhg2_low7_branch2c
I0903 18:00:15.647006 23978 net.cpp:100] Creating Layer bnhg2_low7_branch2c
I0903 18:00:15.647011 23978 net.cpp:434] bnhg2_low7_branch2c <- reshg2_low7_branch2c
I0903 18:00:15.647027 23978 net.cpp:395] bnhg2_low7_branch2c -> reshg2_low7_branch2c (in-place)
I0903 18:00:15.647202 23978 net.cpp:150] Setting up bnhg2_low7_branch2c
I0903 18:00:15.647209 23978 net.cpp:157] Top shape: 1 512 32 32 (524288)
I0903 18:00:15.647213 23978 net.cpp:165] Memory required for data: 1103659008
I0903 18:00:15.647223 23978 layer_factory.hpp:77] Creating layer scalehg2_low7_branch2c
I0903 18:00:15.647231 23978 net.cpp:100] Creating Layer scalehg2_low7_branch2c
I0903 18:00:15.647236 23978 net.cpp:434] scalehg2_low7_branch2c <- reshg2_low7_branch2c
I0903 18:00:15.647244 23978 net.cpp:395] scalehg2_low7_branch2c -> reshg2_low7_branch2c (in-place)
I0903 18:00:15.647284 23978 layer_factory.hpp:77] Creating layer scalehg2_low7_branch2c
I0903 18:00:15.647388 23978 net.cpp:150] Setting up scalehg2_low7_branch2c
I0903 18:00:15.647397 23978 net.cpp:157] Top shape: 1 512 32 32 (524288)
I0903 18:00:15.647399 23978 net.cpp:165] Memory required for data: 1105756160
I0903 18:00:15.647408 23978 layer_factory.hpp:77] Creating layer reshg2_low7
I0903 18:00:15.647415 23978 net.cpp:100] Creating Layer reshg2_low7
I0903 18:00:15.647423 23978 net.cpp:434] reshg2_low7 <- hg2_low6_hg2_low6_0_split_1
I0903 18:00:15.647428 23978 net.cpp:434] reshg2_low7 <- reshg2_low7_branch2c
I0903 18:00:15.647436 23978 net.cpp:408] reshg2_low7 -> reshg2_low7
I0903 18:00:15.647462 23978 net.cpp:150] Setting up reshg2_low7
I0903 18:00:15.647469 23978 net.cpp:157] Top shape: 1 512 32 32 (524288)
I0903 18:00:15.647475 23978 net.cpp:165] Memory required for data: 1107853312
I0903 18:00:15.647478 23978 layer_factory.hpp:77] Creating layer reshg2_low7_relu
I0903 18:00:15.647486 23978 net.cpp:100] Creating Layer reshg2_low7_relu
I0903 18:00:15.647491 23978 net.cpp:434] reshg2_low7_relu <- reshg2_low7
I0903 18:00:15.647497 23978 net.cpp:395] reshg2_low7_relu -> reshg2_low7 (in-place)
I0903 18:00:15.647505 23978 net.cpp:150] Setting up reshg2_low7_relu
I0903 18:00:15.647511 23978 net.cpp:157] Top shape: 1 512 32 32 (524288)
I0903 18:00:15.647516 23978 net.cpp:165] Memory required for data: 1109950464
I0903 18:00:15.647519 23978 layer_factory.hpp:77] Creating layer hg2_up5
I0903 18:00:15.647529 23978 net.cpp:100] Creating Layer hg2_up5
I0903 18:00:15.647533 23978 net.cpp:434] hg2_up5 <- reshg2_low7
I0903 18:00:15.647541 23978 net.cpp:408] hg2_up5 -> hg2_up5
I0903 18:00:15.795963 23978 net.cpp:150] Setting up hg2_up5
I0903 18:00:15.795991 23978 net.cpp:157] Top shape: 1 512 64 64 (2097152)
I0903 18:00:15.795994 23978 net.cpp:165] Memory required for data: 1118339072
I0903 18:00:15.796013 23978 layer_factory.hpp:77] Creating layer hg2
I0903 18:00:15.796025 23978 net.cpp:100] Creating Layer hg2
I0903 18:00:15.796042 23978 net.cpp:434] hg2 <- reshg2_up4
I0903 18:00:15.796051 23978 net.cpp:434] hg2 <- hg2_up5
I0903 18:00:15.796059 23978 net.cpp:408] hg2 -> hg2
I0903 18:00:15.796090 23978 net.cpp:150] Setting up hg2
I0903 18:00:15.796106 23978 net.cpp:157] Top shape: 1 512 64 64 (2097152)
I0903 18:00:15.796111 23978 net.cpp:165] Memory required for data: 1126727680
I0903 18:00:15.796126 23978 layer_factory.hpp:77] Creating layer linear3
I0903 18:00:15.796139 23978 net.cpp:100] Creating Layer linear3
I0903 18:00:15.796152 23978 net.cpp:434] linear3 <- hg2
I0903 18:00:15.796177 23978 net.cpp:408] linear3 -> linear3
I0903 18:00:15.798882 23978 net.cpp:150] Setting up linear3
I0903 18:00:15.798893 23978 net.cpp:157] Top shape: 1 512 64 64 (2097152)
I0903 18:00:15.798897 23978 net.cpp:165] Memory required for data: 1135116288
I0903 18:00:15.798913 23978 layer_factory.hpp:77] Creating layer bn_linear3
I0903 18:00:15.798921 23978 net.cpp:100] Creating Layer bn_linear3
I0903 18:00:15.798938 23978 net.cpp:434] bn_linear3 <- linear3
I0903 18:00:15.798945 23978 net.cpp:395] bn_linear3 -> linear3 (in-place)
I0903 18:00:15.799141 23978 net.cpp:150] Setting up bn_linear3
I0903 18:00:15.799149 23978 net.cpp:157] Top shape: 1 512 64 64 (2097152)
I0903 18:00:15.799154 23978 net.cpp:165] Memory required for data: 1143504896
I0903 18:00:15.799162 23978 layer_factory.hpp:77] Creating layer scale_linear3
I0903 18:00:15.799191 23978 net.cpp:100] Creating Layer scale_linear3
I0903 18:00:15.799196 23978 net.cpp:434] scale_linear3 <- linear3
I0903 18:00:15.799203 23978 net.cpp:395] scale_linear3 -> linear3 (in-place)
I0903 18:00:15.799247 23978 layer_factory.hpp:77] Creating layer scale_linear3
I0903 18:00:15.799366 23978 net.cpp:150] Setting up scale_linear3
I0903 18:00:15.799374 23978 net.cpp:157] Top shape: 1 512 64 64 (2097152)
I0903 18:00:15.799378 23978 net.cpp:165] Memory required for data: 1151893504
I0903 18:00:15.799396 23978 layer_factory.hpp:77] Creating layer linear3_relu
I0903 18:00:15.799403 23978 net.cpp:100] Creating Layer linear3_relu
I0903 18:00:15.799408 23978 net.cpp:434] linear3_relu <- linear3
I0903 18:00:15.799415 23978 net.cpp:395] linear3_relu -> linear3 (in-place)
I0903 18:00:15.799422 23978 net.cpp:150] Setting up linear3_relu
I0903 18:00:15.799429 23978 net.cpp:157] Top shape: 1 512 64 64 (2097152)
I0903 18:00:15.799434 23978 net.cpp:165] Memory required for data: 1160282112
I0903 18:00:15.799438 23978 layer_factory.hpp:77] Creating layer linear4
I0903 18:00:15.799448 23978 net.cpp:100] Creating Layer linear4
I0903 18:00:15.799453 23978 net.cpp:434] linear4 <- linear3
I0903 18:00:15.799460 23978 net.cpp:408] linear4 -> linear4
I0903 18:00:15.802134 23978 net.cpp:150] Setting up linear4
I0903 18:00:15.802146 23978 net.cpp:157] Top shape: 1 512 64 64 (2097152)
I0903 18:00:15.802150 23978 net.cpp:165] Memory required for data: 1168670720
I0903 18:00:15.802156 23978 layer_factory.hpp:77] Creating layer bn_linear4
I0903 18:00:15.802167 23978 net.cpp:100] Creating Layer bn_linear4
I0903 18:00:15.802171 23978 net.cpp:434] bn_linear4 <- linear4
I0903 18:00:15.802180 23978 net.cpp:395] bn_linear4 -> linear4 (in-place)
I0903 18:00:15.802357 23978 net.cpp:150] Setting up bn_linear4
I0903 18:00:15.802366 23978 net.cpp:157] Top shape: 1 512 64 64 (2097152)
I0903 18:00:15.802369 23978 net.cpp:165] Memory required for data: 1177059328
I0903 18:00:15.802379 23978 layer_factory.hpp:77] Creating layer scale_linear4
I0903 18:00:15.802387 23978 net.cpp:100] Creating Layer scale_linear4
I0903 18:00:15.802392 23978 net.cpp:434] scale_linear4 <- linear4
I0903 18:00:15.802399 23978 net.cpp:395] scale_linear4 -> linear4 (in-place)
I0903 18:00:15.802438 23978 layer_factory.hpp:77] Creating layer scale_linear4
I0903 18:00:15.802549 23978 net.cpp:150] Setting up scale_linear4
I0903 18:00:15.802557 23978 net.cpp:157] Top shape: 1 512 64 64 (2097152)
I0903 18:00:15.802561 23978 net.cpp:165] Memory required for data: 1185447936
I0903 18:00:15.802569 23978 layer_factory.hpp:77] Creating layer linear4_relu
I0903 18:00:15.802577 23978 net.cpp:100] Creating Layer linear4_relu
I0903 18:00:15.802582 23978 net.cpp:434] linear4_relu <- linear4
I0903 18:00:15.802589 23978 net.cpp:395] linear4_relu -> linear4 (in-place)
I0903 18:00:15.802597 23978 net.cpp:150] Setting up linear4_relu
I0903 18:00:15.802603 23978 net.cpp:157] Top shape: 1 512 64 64 (2097152)
I0903 18:00:15.802608 23978 net.cpp:165] Memory required for data: 1193836544
I0903 18:00:15.802611 23978 layer_factory.hpp:77] Creating layer output
I0903 18:00:15.802623 23978 net.cpp:100] Creating Layer output
I0903 18:00:15.802626 23978 net.cpp:434] output <- linear4
I0903 18:00:15.802634 23978 net.cpp:408] output -> output
I0903 18:00:15.802909 23978 net.cpp:150] Setting up output
I0903 18:00:15.802918 23978 net.cpp:157] Top shape: 1 16 64 64 (65536)
I0903 18:00:15.802922 23978 net.cpp:165] Memory required for data: 1194098688
I0903 18:00:15.802929 23978 layer_factory.hpp:77] Creating layer output_relu
I0903 18:00:15.802937 23978 net.cpp:100] Creating Layer output_relu
I0903 18:00:15.802942 23978 net.cpp:434] output_relu <- output
I0903 18:00:15.802952 23978 net.cpp:395] output_relu -> output (in-place)
I0903 18:00:15.802958 23978 net.cpp:150] Setting up output_relu
I0903 18:00:15.802965 23978 net.cpp:157] Top shape: 1 16 64 64 (65536)
I0903 18:00:15.802969 23978 net.cpp:165] Memory required for data: 1194360832
I0903 18:00:15.802973 23978 layer_factory.hpp:77] Creating layer heatmap_loss
I0903 18:00:15.802990 23978 net.cpp:100] Creating Layer heatmap_loss
I0903 18:00:15.802994 23978 net.cpp:434] heatmap_loss <- output
I0903 18:00:15.803000 23978 net.cpp:434] heatmap_loss <- label
I0903 18:00:15.803006 23978 net.cpp:434] heatmap_loss <- data_data_0_split_1
…
