…
I0903 17:38:12.728433 20433 net.cpp:58] Initializing net from parameters: 
name: "SHG_MPII_SHG_256x256_train"
state {
  phase: TRAIN
  level: 0
  stage: ""
}
layer {
  name: "data"
  type: "DataHeatmap"
  top: "data"
  top: "label"
  include {
    phase: TRAIN
  }
  transform_param {
    mirror: false
  }
  visualise: false
  heatmap_data_param {
    segmentation: false
    multfact: 1
    batchsize: 1
    root_img_dir: "data/MPII/images/"
    data_augment: false
    sample_per_cluster: false
    source: "data/MPII/train.txt"
    outsize: 256
    label_width: 64
    label_height: 64
    angle_max: 30
  }
}
layer {
  name: "conv1"
  type: "Convolution"
  bottom: "data"
  top: "conv1"
  param {
    lr_mult: 0
    decay_mult: 1
  }
  convolution_param {
    num_output: 64
    bias_term: false
    pad: 3
    kernel_size: 7
    stride: 2
    weight_filler {
      type: "gaussian"
      std: 0.01
    }
  }
}
layer {
  name: "bn_conv1"
  type: "BatchNorm"
  bottom: "conv1"
  top: "conv1"
  param {
    lr_mult: 0
    decay_mult: 0
  }
  param {
    lr_mult: 0
    decay_mult: 0
  }
  param {
    lr_mult: 0
    decay_mult: 0
  }
  batch_norm_param {
    eps: 0.001
  }
}
layer {
  name: "scale_conv1"
  type: "Scale"
  bottom: "conv1"
  top: "conv1"
  param {
    lr_mult: 0
    decay_mult: 1
  }
  param {
    lr_mult: 0
    decay_mult: 0
  }
  scale_param {
    filler {
      type: "constant"
      value: 1
    }
    bias_term: true
    bias_filler {
      type: "constant"
      value: 0
    }
  }
}
layer {
  name: "conv1_relu"
  type: "ReLU"
  bottom: "conv1"
  top: "conv1"
}
layer {
  name: "res1_branch1"
  type: "Convolution"
  bottom: "conv1"
  top: "res1_branch1"
  param {
    lr_mult: 0
    decay_mult: 1
  }
  convolution_param {
    num_output: 128
    bias_term: false
    pad: 0
    kernel_size: 1
    stride: 1
    weight_filler {
      type: "gaussian"
      std: 0.01
    }
  }
}
layer {
  name: "bn1_branch1"
  type: "BatchNorm"
  bottom: "res1_branch1"
  top: "res1_branch1"
  param {
    lr_mult: 0
    decay_mult: 0
  }
  param {
    lr_mult: 0
    decay_mult: 0
  }
  param {
    lr_mult: 0
    decay_mult: 0
  }
  batch_norm_param {
    eps: 0.001
  }
}
layer {
  name: "scale1_branch1"
  type: "Scale"
  bottom: "res1_branch1"
  top: "res1_branch1"
  param {
    lr_mult: 0
    decay_mult: 1
  }
  param {
    lr_mult: 0
    decay_mult: 0
  }
  scale_param {
    filler {
      type: "constant"
      value: 1
    }
    bias_term: true
    bias_filler {
      type: "constant"
      value: 0
    }
  }
}
layer {
  name: "res1_branch2a"
  type: "Convolution"
  bottom: "conv1"
  top: "res1_branch2a"
  param {
    lr_mult: 0
    decay_mult: 1
  }
  convolution_param {
    num_output: 64
    bias_term: false
    pad: 0
    kernel_size: 1
    stride: 1
    weight_filler {
      type: "gaussian"
      std: 0.01
    }
  }
}
layer {
  name: "bn1_branch2a"
  type: "BatchNorm"
  bottom: "res1_branch2a"
  top: "res1_branch2a"
  param {
    lr_mult: 0
    decay_mult: 0
  }
  param {
    lr_mult: 0
    decay_mult: 0
  }
  param {
    lr_mult: 0
    decay_mult: 0
  }
  batch_norm_param {
    eps: 0.001
  }
}
layer {
  name: "scale1_branch2a"
  type: "Scale"
  bottom: "res1_branch2a"
  top: "res1_branch2a"
  param {
    lr_mult: 0
    decay_mult: 1
  }
  param {
    lr_mult: 0
    decay_mult: 0
  }
  scale_param {
    filler {
      type: "constant"
      value: 1
    }
    bias_term: true
    bias_filler {
      type: "constant"
      value: 0
    }
  }
}
layer {
  name: "res1_branch2a_relu"
  type: "ReLU"
  bottom: "res1_branch2a"
  top: "res1_branch2a"
}
layer {
  name: "res1_branch2b"
  type: "Convolution"
  bottom: "res1_branch2a"
  top: "res1_branch2b"
  param {
    lr_mult: 0
    decay_mult: 1
  }
  convolution_param {
    num_output: 64
    bias_term: false
    pad: 1
    kernel_size: 3
    stride: 1
    weight_filler {
      type: "gaussian"
      std: 0.01
    }
  }
}
layer {
  name: "bn1_branch2b"
  type: "BatchNorm"
  bottom: "res1_branch2b"
  top: "res1_branch2b"
  param {
    lr_mult: 0
    decay_mult: 0
  }
  param {
    lr_mult: 0
    decay_mult: 0
  }
  param {
    lr_mult: 0
    decay_mult: 0
  }
  batch_norm_param {
    eps: 0.001
  }
}
layer {
  name: "scale1_branch2b"
  type: "Scale"
  bottom: "res1_branch2b"
  top: "res1_branch2b"
  param {
    lr_mult: 0
    decay_mult: 1
  }
  param {
    lr_mult: 0
    decay_mult: 0
  }
  scale_param {
    filler {
      type: "constant"
      value: 1
    }
    bias_term: true
    bias_filler {
      type: "constant"
      value: 0
    }
  }
}
layer {
  name: "res1_branch2b_relu"
  type: "ReLU"
  bottom: "res1_branch2b"
  top: "res1_branch2b"
}
layer {
  name: "res1_branch2c"
  type: "Convolution"
  bottom: "res1_branch2b"
  top: "res1_branch2c"
  param {
    lr_mult: 0
    decay_mult: 1
  }
  convolution_param {
    num_output: 128
    bias_term: false
    pad: 0
    kernel_size: 1
    stride: 1
    weight_filler {
      type: "gaussian"
      std: 0.01
    }
  }
}
layer {
  name: "bn1_branch2c"
  type: "BatchNorm"
  bottom: "res1_branch2c"
  top: "res1_branch2c"
  param {
    lr_mult: 0
    decay_mult: 0
  }
  param {
    lr_mult: 0
    decay_mult: 0
  }
  param {
    lr_mult: 0
    decay_mult: 0
  }
  batch_norm_param {
    eps: 0.001
  }
}
layer {
  name: "scale1_branch2c"
  type: "Scale"
  bottom: "res1_branch2c"
  top: "res1_branch2c"
  param {
    lr_mult: 0
    decay_mult: 1
  }
  param {
    lr_mult: 0
    decay_mult: 0
  }
  scale_param {
    filler {
      type: "constant"
      value: 1
    }
    bias_term: true
    bias_filler {
      type: "constant"
      value: 0
    }
  }
}
layer {
  name: "res1"
  type: "Eltwise"
  bottom: "res1_branch1"
  bottom: "res1_branch2c"
  top: "res1"
}
layer {
  name: "res1_relu"
  type: "ReLU"
  bottom: "res1"
  top: "res1"
}
layer {
  name: "pool1"
  type: "Pooling"
  bottom: "res1"
  top: "pool1"
  pooling_param {
    pool: MAX
    kernel_size: 2
    stride: 2
  }
}
layer {
  name: "res4_branch2a"
  type: "Convolution"
  bottom: "pool1"
  top: "res4_branch2a"
  param {
    lr_mult: 0
    decay_mult: 1
  }
  convolution_param {
    num_output: 64
    bias_term: false
    pad: 0
    kernel_size: 1
    stride: 1
    weight_filler {
      type: "gaussian"
      std: 0.01
    }
  }
}
layer {
  name: "bn4_branch2a"
  type: "BatchNorm"
  bottom: "res4_branch2a"
  top: "res4_branch2a"
  param {
    lr_mult: 0
    decay_mult: 0
  }
  param {
    lr_mult: 0
    decay_mult: 0
  }
  param {
    lr_mult: 0
    decay_mult: 0
  }
  batch_norm_param {
    eps: 0.001
  }
}
layer {
  name: "scale4_branch2a"
  type: "Scale"
  bottom: "res4_branch2a"
  top: "res4_branch2a"
  param {
    lr_mult: 0
    decay_mult: 1
  }
  param {
    lr_mult: 0
    decay_mult: 0
  }
  scale_param {
    filler {
      type: "constant"
      value: 1
    }
    bias_term: true
    bias_filler {
      type: "constant"
      value: 0
    }
  }
}
layer {
  name: "res4_branch2a_relu"
  type: "ReLU"
  bottom: "res4_branch2a"
  top: "res4_branch2a"
}
layer {
  name: "res4_branch2b"
  type: "Convolution"
  bottom: "res4_branch2a"
  top: "res4_branch2b"
  param {
    lr_mult: 0
    decay_mult: 1
  }
  convolution_param {
    num_output: 64
    bias_term: false
    pad: 1
    kernel_size: 3
    stride: 1
    weight_filler {
      type: "gaussian"
      std: 0.01
    }
  }
}
layer {
  name: "bn4_branch2b"
  type: "BatchNorm"
  bottom: "res4_branch2b"
  top: "res4_branch2b"
  param {
    lr_mult: 0
    decay_mult: 0
  }
  param {
    lr_mult: 0
    decay_mult: 0
  }
  param {
    lr_mult: 0
    decay_mult: 0
  }
  batch_norm_param {
    eps: 0.001
  }
}
layer {
  name: "scale4_branch2b"
  type: "Scale"
  bottom: "res4_branch2b"
  top: "res4_branch2b"
  param {
    lr_mult: 0
    decay_mult: 1
  }
  param {
    lr_mult: 0
    decay_mult: 0
  }
  scale_param {
    filler {
      type: "constant"
      value: 1
    }
    bias_term: true
    bias_filler {
      type: "constant"
      value: 0
    }
  }
}
layer {
  name: "res4_branch2b_relu"
  type: "ReLU"
  bottom: "res4_branch2b"
  top: "res4_branch2b"
}
layer {
  name: "res4_branch2c"
  type: "Convolution"
  bottom: "res4_branch2b"
  top: "res4_branch2c"
  param {
    lr_mult: 0
    decay_mult: 1
  }
  convolution_param {
    num_output: 128
    bias_term: false
    pad: 0
    kernel_size: 1
    stride: 1
    weight_filler {
      type: "gaussian"
      std: 0.01
    }
  }
}
layer {
  name: "bn4_branch2c"
  type: "BatchNorm"
  bottom: "res4_branch2c"
  top: "res4_branch2c"
  param {
    lr_mult: 0
    decay_mult: 0
  }
  param {
    lr_mult: 0
    decay_mult: 0
  }
  param {
    lr_mult: 0
    decay_mult: 0
  }
  batch_norm_param {
    eps: 0.001
  }
}
layer {
  name: "scale4_branch2c"
  type: "Scale"
  bottom: "res4_branch2c"
  top: "res4_branch2c"
  param {
    lr_mult: 0
    decay_mult: 1
  }
  param {
    lr_mult: 0
    decay_mult: 0
  }
  scale_param {
    filler {
      type: "constant"
      value: 1
    }
    bias_term: true
    bias_filler {
      type: "constant"
      value: 0
    }
  }
}
layer {
  name: "res4"
  type: "Eltwise"
  bottom: "pool1"
  bottom: "res4_branch2c"
  top: "res4"
}
layer {
  name: "res4_relu"
  type: "ReLU"
  bottom: "res4"
  top: "res4"
}
layer {
  name: "res5_branch2a"
  type: "Convolution"
  bottom: "res4"
  top: "res5_branch2a"
  param {
    lr_mult: 0
    decay_mult: 1
  }
  convolution_param {
    num_output: 64
    bias_term: false
    pad: 0
    kernel_size: 1
    stride: 1
    weight_filler {
      type: "gaussian"
      std: 0.01
    }
  }
}
layer {
  name: "bn5_branch2a"
  type: "BatchNorm"
  bottom: "res5_branch2a"
  top: "res5_branch2a"
  param {
    lr_mult: 0
    decay_mult: 0
  }
  param {
    lr_mult: 0
    decay_mult: 0
  }
  param {
    lr_mult: 0
    decay_mult: 0
  }
  batch_norm_param {
    eps: 0.001
  }
}
layer {
  name: "scale5_branch2a"
  type: "Scale"
  bottom: "res5_branch2a"
  top: "res5_branch2a"
  param {
    lr_mult: 0
    decay_mult: 1
  }
  param {
    lr_mult: 0
    decay_mult: 0
  }
  scale_param {
    filler {
      type: "constant"
      value: 1
    }
    bias_term: true
    bias_filler {
      type: "constant"
      value: 0
    }
  }
}
layer {
  name: "res5_branch2a_relu"
  type: "ReLU"
  bottom: "res5_branch2a"
  top: "res5_branch2a"
}
layer {
  name: "res5_branch2b"
  type: "Convolution"
  bottom: "res5_branch2a"
  top: "res5_branch2b"
  param {
    lr_mult: 0
    decay_mult: 1
  }
  convolution_param {
    num_output: 64
    bias_term: false
    pad: 1
    kernel_size: 3
    stride: 1
    weight_filler {
      type: "gaussian"
      std: 0.01
    }
  }
}
layer {
  name: "bn5_branch2b"
  type: "BatchNorm"
  bottom: "res5_branch2b"
  top: "res5_branch2b"
  param {
    lr_mult: 0
    decay_mult: 0
  }
  param {
    lr_mult: 0
    decay_mult: 0
  }
  param {
    lr_mult: 0
    decay_mult: 0
  }
  batch_norm_param {
    eps: 0.001
  }
}
layer {
  name: "scale5_branch2b"
  type: "Scale"
  bottom: "res5_branch2b"
  top: "res5_branch2b"
  param {
    lr_mult: 0
    decay_mult: 1
  }
  param {
    lr_mult: 0
    decay_mult: 0
  }
  scale_param {
    filler {
      type: "constant"
      value: 1
    }
    bias_term: true
    bias_filler {
      type: "constant"
      value: 0
    }
  }
}
layer {
  name: "res5_branch2b_relu"
  type: "ReLU"
  bottom: "res5_branch2b"
  top: "res5_branch2b"
}
layer {
  name: "res5_branch2c"
  type: "Convolution"
  bottom: "res5_branch2b"
  top: "res5_branch2c"
  param {
    lr_mult: 0
    decay_mult: 1
  }
  convolution_param {
    num_output: 128
    bias_term: false
    pad: 0
    kernel_size: 1
    stride: 1
    weight_filler {
      type: "gaussian"
      std: 0.01
    }
  }
}
layer {
  name: "bn5_branch2c"
  type: "BatchNorm"
  bottom: "res5_branch2c"
  top: "res5_branch2c"
  param {
    lr_mult: 0
    decay_mult: 0
  }
  param {
    lr_mult: 0
    decay_mult: 0
  }
  param {
    lr_mult: 0
    decay_mult: 0
  }
  batch_norm_param {
    eps: 0.001
  }
}
layer {
  name: "scale5_branch2c"
  type: "Scale"
  bottom: "res5_branch2c"
  top: "res5_branch2c"
  param {
    lr_mult: 0
    decay_mult: 1
  }
  param {
    lr_mult: 0
    decay_mult: 0
  }
  scale_param {
    filler {
      type: "constant"
      value: 1
    }
    bias_term: true
    bias_filler {
      type: "constant"
      value: 0
    }
  }
}
layer {
  name: "res5"
  type: "Eltwise"
  bottom: "res4"
  bottom: "res5_branch2c"
  top: "res5"
}
layer {
  name: "res5_relu"
  type: "ReLU"
  bottom: "res5"
  top: "res5"
}
layer {
  name: "res6_branch1"
  type: "Convolution"
  bottom: "res5"
  top: "res6_branch1"
  param {
    lr_mult: 0
    decay_mult: 1
  }
  convolution_param {
    num_output: 256
    bias_term: false
    pad: 0
    kernel_size: 1
    stride: 1
    weight_filler {
      type: "gaussian"
      std: 0.01
    }
  }
}
layer {
  name: "bn6_branch1"
  type: "BatchNorm"
  bottom: "res6_branch1"
  top: "res6_branch1"
  param {
    lr_mult: 0
    decay_mult: 0
  }
  param {
    lr_mult: 0
    decay_mult: 0
  }
  param {
    lr_mult: 0
    decay_mult: 0
  }
  batch_norm_param {
    eps: 0.001
  }
}
layer {
  name: "scale6_branch1"
  type: "Scale"
  bottom: "res6_branch1"
  top: "res6_branch1"
  param {
    lr_mult: 0
    decay_mult: 1
  }
  param {
    lr_mult: 0
    decay_mult: 0
  }
  scale_param {
    filler {
      type: "constant"
      value: 1
    }
    bias_term: true
    bias_filler {
      type: "constant"
      value: 0
    }
  }
}
layer {
  name: "res6_branch2a"
  type: "Convolution"
  bottom: "res5"
  top: "res6_branch2a"
  param {
    lr_mult: 0
    decay_mult: 1
  }
  convolution_param {
    num_output: 128
    bias_term: false
    pad: 0
    kernel_size: 1
    stride: 1
    weight_filler {
      type: "gaussian"
      std: 0.01
    }
  }
}
layer {
  name: "bn6_branch2a"
  type: "BatchNorm"
  bottom: "res6_branch2a"
  top: "res6_branch2a"
  param {
    lr_mult: 0
    decay_mult: 0
  }
  param {
    lr_mult: 0
    decay_mult: 0
  }
  param {
    lr_mult: 0
    decay_mult: 0
  }
  batch_norm_param {
    eps: 0.001
  }
}
layer {
  name: "scale6_branch2a"
  type: "Scale"
  bottom: "res6_branch2a"
  top: "res6_branch2a"
  param {
    lr_mult: 0
    decay_mult: 1
  }
  param {
    lr_mult: 0
    decay_mult: 0
  }
  scale_param {
    filler {
      type: "constant"
      value: 1
    }
    bias_term: true
    bias_filler {
      type: "constant"
      value: 0
    }
  }
}
layer {
  name: "res6_branch2a_relu"
  type: "ReLU"
  bottom: "res6_branch2a"
  top: "res6_branch2a"
}
layer {
  name: "res6_branch2b"
  type: "Convolution"
  bottom: "res6_branch2a"
  top: "res6_branch2b"
  param {
    lr_mult: 0
    decay_mult: 1
  }
  convolution_param {
    num_output: 128
    bias_term: false
    pad: 1
    kernel_size: 3
    stride: 1
    weight_filler {
      type: "gaussian"
      std: 0.01
    }
  }
}
layer {
  name: "bn6_branch2b"
  type: "BatchNorm"
  bottom: "res6_branch2b"
  top: "res6_branch2b"
  param {
    lr_mult: 0
    decay_mult: 0
  }
  param {
    lr_mult: 0
    decay_mult: 0
  }
  param {
    lr_mult: 0
    decay_mult: 0
  }
  batch_norm_param {
    eps: 0.001
  }
}
layer {
  name: "scale6_branch2b"
  type: "Scale"
  bottom: "res6_branch2b"
  top: "res6_branch2b"
  param {
    lr_mult: 0
    decay_mult: 1
  }
  param {
    lr_mult: 0
    decay_mult: 0
  }
  scale_param {
    filler {
      type: "constant"
      value: 1
    }
    bias_term: true
    bias_filler {
      type: "constant"
      value: 0
    }
  }
}
layer {
  name: "res6_branch2b_relu"
  type: "ReLU"
  bottom: "res6_branch2b"
  top: "res6_branch2b"
}
layer {
  name: "res6_branch2c"
  type: "Convolution"
  bottom: "res6_branch2b"
  top: "res6_branch2c"
  param {
    lr_mult: 0
    decay_mult: 1
  }
  convolution_param {
    num_output: 256
    bias_term: false
    pad: 0
    kernel_size: 1
    stride: 1
    weight_filler {
      type: "gaussian"
      std: 0.01
    }
  }
}
layer {
  name: "bn6_branch2c"
  type: "BatchNorm"
  bottom: "res6_branch2c"
  top: "res6_branch2c"
  param {
    lr_mult: 0
    decay_mult: 0
  }
  param {
    lr_mult: 0
    decay_mult: 0
  }
  param {
    lr_mult: 0
    decay_mult: 0
  }
  batch_norm_param {
    eps: 0.001
  }
}
layer {
  name: "scale6_branch2c"
  type: "Scale"
  bottom: "res6_branch2c"
  top: "res6_branch2c"
  param {
    lr_mult: 0
    decay_mult: 1
  }
  param {
    lr_mult: 0
    decay_mult: 0
  }
  scale_param {
    filler {
      type: "constant"
      value: 1
    }
    bias_term: true
    bias_filler {
      type: "constant"
      value: 0
    }
  }
}
layer {
  name: "res6"
  type: "Eltwise"
  bottom: "res6_branch1"
  bottom: "res6_branch2c"
  top: "res6"
}
layer {
  name: "res6_relu"
  type: "ReLU"
  bottom: "res6"
  top: "res6"
}
layer {
  name: "reshg1_up1_branch1"
  type: "Convolution"
  bottom: "res6"
  top: "reshg1_up1_branch1"
  param {
    lr_mult: 0
    decay_mult: 1
  }
  convolution_param {
    num_output: 256
    bias_term: false
    pad: 0
    kernel_size: 1
    stride: 1
    weight_filler {
      type: "gaussian"
      std: 0.01
    }
  }
}
layer {
  name: "bnhg1_up1_branch1"
  type: "BatchNorm"
  bottom: "reshg1_up1_branch1"
  top: "reshg1_up1_branch1"
  param {
    lr_mult: 0
    decay_mult: 0
  }
  param {
    lr_mult: 0
    decay_mult: 0
  }
  param {
    lr_mult: 0
    decay_mult: 0
  }
  batch_norm_param {
    eps: 0.001
  }
}
layer {
  name: "scalehg1_up1_branch1"
  type: "Scale"
  bottom: "reshg1_up1_branch1"
  top: "reshg1_up1_branch1"
  param {
    lr_mult: 0
    decay_mult: 1
  }
  param {
    lr_mult: 0
    decay_mult: 0
  }
  scale_param {
    filler {
      type: "constant"
      value: 1
    }
    bias_term: true
    bias_filler {
      type: "constant"
      value: 0
    }
  }
}
layer {
  name: "reshg1_up1_branch2a"
  type: "Convolution"
  bottom: "res6"
  top: "reshg1_up1_branch2a"
  param {
    lr_mult: 0
    decay_mult: 1
  }
  convolution_param {
    num_output: 128
    bias_term: false
    pad: 0
    kernel_size: 1
    stride: 1
    weight_filler {
      type: "gaussian"
      std: 0.01
    }
  }
}
layer {
  name: "bnhg1_up1_branch2a"
  type: "BatchNorm"
  bottom: "reshg1_up1_branch2a"
  top: "reshg1_up1_branch2a"
  param {
    lr_mult: 0
    decay_mult: 0
  }
  param {
    lr_mult: 0
    decay_mult: 0
  }
  param {
    lr_mult: 0
    decay_mult: 0
  }
  batch_norm_param {
    eps: 0.001
  }
}
layer {
  name: "scalehg1_up1_branch2a"
  type: "Scale"
  bottom: "reshg1_up1_branch2a"
  top: "reshg1_up1_branch2a"
  param {
    lr_mult: 0
    decay_mult: 1
  }
  param {
    lr_mult: 0
    decay_mult: 0
  }
  scale_param {
    filler {
      type: "constant"
      value: 1
    }
    bias_term: true
    bias_filler {
      type: "constant"
      value: 0
    }
  }
}
layer {
  name: "reshg1_up1_branch2a_relu"
  type: "ReLU"
  bottom: "reshg1_up1_branch2a"
  top: "reshg1_up1_branch2a"
}
layer {
  name: "reshg1_up1_branch2b"
  type: "Convolution"
  bottom: "reshg1_up1_branch2a"
  top: "reshg1_up1_branch2b"
  param {
    lr_mult: 0
    decay_mult: 1
  }
  convolution_param {
    num_output: 128
    bias_term: false
    pad: 1
    kernel_size: 3
    stride: 1
    weight_filler {
      type: "gaussian"
      std: 0.01
    }
  }
}
layer {
  name: "bnhg1_up1_branch2b"
  type: "BatchNorm"
  bottom: "reshg1_up1_branch2b"
  top: "reshg1_up1_branch2b"
  param {
    lr_mult: 0
    decay_mult: 0
  }
  param {
    lr_mult: 0
    decay_mult: 0
  }
  param {
    lr_mult: 0
    decay_mult: 0
  }
  batch_norm_param {
    eps: 0.001
  }
}
layer {
  name: "scalehg1_up1_branch2b"
  type: "Scale"
  bottom: "reshg1_up1_branch2b"
  top: "reshg1_up1_branch2b"
  param {
    lr_mult: 0
    decay_mult: 1
  }
  param {
    lr_mult: 0
    decay_mult: 0
  }
  scale_param {
    filler {
      type: "constant"
      value: 1
    }
    bias_term: true
    bias_filler {
      type: "constant"
      value: 0
    }
  }
}
layer {
  name: "reshg1_up1_branch2b_relu"
  type: "ReLU"
  bottom: "reshg1_up1_branch2b"
  top: "reshg1_up1_branch2b"
}
layer {
  name: "reshg1_up1_branch2c"
  type: "Convolution"
  bottom: "reshg1_up1_branch2b"
  top: "reshg1_up1_branch2c"
  param {
    lr_mult: 0
    decay_mult: 1
  }
  convolution_param {
    num_output: 256
    bias_term: false
    pad: 0
    kernel_size: 1
    stride: 1
    weight_filler {
      type: "gaussian"
      std: 0.01
    }
  }
}
layer {
  name: "bnhg1_up1_branch2c"
  type: "BatchNorm"
  bottom: "reshg1_up1_branch2c"
  top: "reshg1_up1_branch2c"
  param {
    lr_mult: 0
    decay_mult: 0
  }
  param {
    lr_mult: 0
    decay_mult: 0
  }
  param {
    lr_mult: 0
    decay_mult: 0
  }
  batch_norm_param {
    eps: 0.001
  }
}
layer {
  name: "scalehg1_up1_branch2c"
  type: "Scale"
  bottom: "reshg1_up1_branch2c"
  top: "reshg1_up1_branch2c"
  param {
    lr_mult: 0
    decay_mult: 1
  }
  param {
    lr_mult: 0
    decay_mult: 0
  }
  scale_param {
    filler {
      type: "constant"
      value: 1
    }
    bias_term: true
    bias_filler {
      type: "constant"
      value: 0
    }
  }
}
layer {
  name: "reshg1_up1"
  type: "Eltwise"
  bottom: "reshg1_up1_branch1"
  bottom: "reshg1_up1_branch2c"
  top: "reshg1_up1"
}
layer {
  name: "reshg1_up1_relu"
  type: "ReLU"
  bottom: "reshg1_up1"
  top: "reshg1_up1"
}
layer {
  name: "reshg1_up2_branch2a"
  type: "Convolution"
  bottom: "reshg1_up1"
  top: "reshg1_up2_branch2a"
  param {
    lr_mult: 0
    decay_mult: 1
  }
  convolution_param {
    num_output: 128
    bias_term: false
    pad: 0
    kernel_size: 1
    stride: 1
    weight_filler {
      type: "gaussian"
      std: 0.01
    }
  }
}
layer {
  name: "bnhg1_up2_branch2a"
  type: "BatchNorm"
  bottom: "reshg1_up2_branch2a"
  top: "reshg1_up2_branch2a"
  param {
    lr_mult: 0
    decay_mult: 0
  }
  param {
    lr_mult: 0
    decay_mult: 0
  }
  param {
    lr_mult: 0
    decay_mult: 0
  }
  batch_norm_param {
    eps: 0.001
  }
}
layer {
  name: "scalehg1_up2_branch2a"
  type: "Scale"
  bottom: "reshg1_up2_branch2a"
  top: "reshg1_up2_branch2a"
  param {
    lr_mult: 0
    decay_mult: 1
  }
  param {
    lr_mult: 0
    decay_mult: 0
  }
  scale_param {
    filler {
      type: "constant"
      value: 1
    }
    bias_term: true
    bias_filler {
      type: "constant"
      value: 0
    }
  }
}
layer {
  name: "reshg1_up2_branch2a_relu"
  type: "ReLU"
  bottom: "reshg1_up2_branch2a"
  top: "reshg1_up2_branch2a"
}
layer {
  name: "reshg1_up2_branch2b"
  type: "Convolution"
  bottom: "reshg1_up2_branch2a"
  top: "reshg1_up2_branch2b"
  param {
    lr_mult: 0
    decay_mult: 1
  }
  convolution_param {
    num_output: 128
    bias_term: false
    pad: 1
    kernel_size: 3
    stride: 1
    weight_filler {
      type: "gaussian"
      std: 0.01
    }
  }
}
layer {
  name: "bnhg1_up2_branch2b"
  type: "BatchNorm"
  bottom: "reshg1_up2_branch2b"
  top: "reshg1_up2_branch2b"
  param {
    lr_mult: 0
    decay_mult: 0
  }
  param {
    lr_mult: 0
    decay_mult: 0
  }
  param {
    lr_mult: 0
    decay_mult: 0
  }
  batch_norm_param {
    eps: 0.001
  }
}
layer {
  name: "scalehg1_up2_branch2b"
  type: "Scale"
  bottom: "reshg1_up2_branch2b"
  top: "reshg1_up2_branch2b"
  param {
    lr_mult: 0
    decay_mult: 1
  }
  param {
    lr_mult: 0
    decay_mult: 0
  }
  scale_param {
    filler {
      type: "constant"
      value: 1
    }
    bias_term: true
    bias_filler {
      type: "constant"
      value: 0
    }
  }
}
layer {
  name: "reshg1_up2_branch2b_relu"
  type: "ReLU"
  bottom: "reshg1_up2_branch2b"
  top: "reshg1_up2_branch2b"
}
layer {
  name: "reshg1_up2_branch2c"
  type: "Convolution"
  bottom: "reshg1_up2_branch2b"
  top: "reshg1_up2_branch2c"
  param {
    lr_mult: 0
    decay_mult: 1
  }
  convolution_param {
    num_output: 256
    bias_term: false
    pad: 0
    kernel_size: 1
    stride: 1
    weight_filler {
      type: "gaussian"
      std: 0.01
    }
  }
}
layer {
  name: "bnhg1_up2_branch2c"
  type: "BatchNorm"
  bottom: "reshg1_up2_branch2c"
  top: "reshg1_up2_branch2c"
  param {
    lr_mult: 0
    decay_mult: 0
  }
  param {
    lr_mult: 0
    decay_mult: 0
  }
  param {
    lr_mult: 0
    decay_mult: 0
  }
  batch_norm_param {
    eps: 0.001
  }
}
layer {
  name: "scalehg1_up2_branch2c"
  type: "Scale"
  bottom: "reshg1_up2_branch2c"
  top: "reshg1_up2_branch2c"
  param {
    lr_mult: 0
    decay_mult: 1
  }
  param {
    lr_mult: 0
    decay_mult: 0
  }
  scale_param {
    filler {
      type: "constant"
      value: 1
    }
    bias_term: true
    bias_filler {
      type: "constant"
      value: 0
    }
  }
}
layer {
  name: "reshg1_up2"
  type: "Eltwise"
  bottom: "reshg1_up1"
  bottom: "reshg1_up2_branch2c"
  top: "reshg1_up2"
}
layer {
  name: "reshg1_up2_relu"
  type: "ReLU"
  bottom: "reshg1_up2"
  top: "reshg1_up2"
}
layer {
  name: "reshg1_up4_branch1"
  type: "Convolution"
  bottom: "reshg1_up2"
  top: "reshg1_up4_branch1"
  param {
    lr_mult: 0
    decay_mult: 1
  }
  convolution_param {
    num_output: 512
    bias_term: false
    pad: 0
    kernel_size: 1
    stride: 1
    weight_filler {
      type: "gaussian"
      std: 0.01
    }
  }
}
layer {
  name: "bnhg1_up4_branch1"
  type: "BatchNorm"
  bottom: "reshg1_up4_branch1"
  top: "reshg1_up4_branch1"
  param {
    lr_mult: 0
    decay_mult: 0
  }
  param {
    lr_mult: 0
    decay_mult: 0
  }
  param {
    lr_mult: 0
    decay_mult: 0
  }
  batch_norm_param {
    eps: 0.001
  }
}
layer {
  name: "scalehg1_up4_branch1"
  type: "Scale"
  bottom: "reshg1_up4_branch1"
  top: "reshg1_up4_branch1"
  param {
    lr_mult: 0
    decay_mult: 1
  }
  param {
    lr_mult: 0
    decay_mult: 0
  }
  scale_param {
    filler {
      type: "constant"
      value: 1
    }
    bias_term: true
    bias_filler {
      type: "constant"
      value: 0
    }
  }
}
layer {
  name: "reshg1_up4_branch2a"
  type: "Convolution"
  bottom: "reshg1_up2"
  top: "reshg1_up4_branch2a"
  param {
    lr_mult: 0
    decay_mult: 1
  }
  convolution_param {
    num_output: 256
    bias_term: false
    pad: 0
    kernel_size: 1
    stride: 1
    weight_filler {
      type: "gaussian"
      std: 0.01
    }
  }
}
layer {
  name: "bnhg1_up4_branch2a"
  type: "BatchNorm"
  bottom: "reshg1_up4_branch2a"
  top: "reshg1_up4_branch2a"
  param {
    lr_mult: 0
    decay_mult: 0
  }
  param {
    lr_mult: 0
    decay_mult: 0
  }
  param {
    lr_mult: 0
    decay_mult: 0
  }
  batch_norm_param {
    eps: 0.001
  }
}
layer {
  name: "scalehg1_up4_branch2a"
  type: "Scale"
  bottom: "reshg1_up4_branch2a"
  top: "reshg1_up4_branch2a"
  param {
    lr_mult: 0
    decay_mult: 1
  }
  param {
    lr_mult: 0
    decay_mult: 0
  }
  scale_param {
    filler {
      type: "constant"
      value: 1
    }
    bias_term: true
    bias_filler {
      type: "constant"
      value: 0
    }
  }
}
layer {
  name: "reshg1_up4_branch2a_relu"
  type: "ReLU"
  bottom: "reshg1_up4_branch2a"
  top: "reshg1_up4_branch2a"
}
layer {
  name: "reshg1_up4_branch2b"
  type: "Convolution"
  bottom: "reshg1_up4_branch2a"
  top: "reshg1_up4_branch2b"
  param {
    lr_mult: 0
    decay_mult: 1
  }
  convolution_param {
    num_output: 256
    bias_term: false
    pad: 1
    kernel_size: 3
    stride: 1
    weight_filler {
      type: "gaussian"
      std: 0.01
    }
  }
}
layer {
  name: "bnhg1_up4_branch2b"
  type: "BatchNorm"
  bottom: "reshg1_up4_branch2b"
  top: "reshg1_up4_branch2b"
  param {
    lr_mult: 0
    decay_mult: 0
  }
  param {
    lr_mult: 0
    decay_mult: 0
  }
  param {
    lr_mult: 0
    decay_mult: 0
  }
  batch_norm_param {
    eps: 0.001
  }
}
layer {
  name: "scalehg1_up4_branch2b"
  type: "Scale"
  bottom: "reshg1_up4_branch2b"
  top: "reshg1_up4_branch2b"
  param {
    lr_mult: 0
    decay_mult: 1
  }
  param {
    lr_mult: 0
    decay_mult: 0
  }
  scale_param {
    filler {
      type: "constant"
      value: 1
    }
    bias_term: true
    bias_filler {
      type: "constant"
      value: 0
    }
  }
}
layer {
  name: "reshg1_up4_branch2b_relu"
  type: "ReLU"
  bottom: "reshg1_up4_branch2b"
  top: "reshg1_up4_branch2b"
}
layer {
  name: "reshg1_up4_branch2c"
  type: "Convolution"
  bottom: "reshg1_up4_branch2b"
  top: "reshg1_up4_branch2c"
  param {
    lr_mult: 0
    decay_mult: 1
  }
  convolution_param {
    num_output: 512
    bias_term: false
    pad: 0
    kernel_size: 1
    stride: 1
    weight_filler {
      type: "gaussian"
      std: 0.01
    }
  }
}
layer {
  name: "bnhg1_up4_branch2c"
  type: "BatchNorm"
  bottom: "reshg1_up4_branch2c"
  top: "reshg1_up4_branch2c"
  param {
    lr_mult: 0
    decay_mult: 0
  }
  param {
    lr_mult: 0
    decay_mult: 0
  }
  param {
    lr_mult: 0
    decay_mult: 0
  }
  batch_norm_param {
    eps: 0.001
  }
}
layer {
  name: "scalehg1_up4_branch2c"
  type: "Scale"
  bottom: "reshg1_up4_branch2c"
  top: "reshg1_up4_branch2c"
  param {
    lr_mult: 0
    decay_mult: 1
  }
  param {
    lr_mult: 0
    decay_mult: 0
  }
  scale_param {
    filler {
      type: "constant"
      value: 1
    }
    bias_term: true
    bias_filler {
      type: "constant"
      value: 0
    }
  }
}
layer {
  name: "reshg1_up4"
  type: "Eltwise"
  bottom: "reshg1_up4_branch1"
  bottom: "reshg1_up4_branch2c"
  top: "reshg1_up4"
}
layer {
  name: "reshg1_up4_relu"
  type: "ReLU"
  bottom: "reshg1_up4"
  top: "reshg1_up4"
}
layer {
  name: "hg1_pool1"
  type: "Pooling"
  bottom: "res6"
  top: "hg1_pool1"
  pooling_param {
    pool: MAX
    kernel_size: 2
    stride: 2
  }
}
layer {
  name: "reshg1_low1_branch1"
  type: "Convolution"
  bottom: "hg1_pool1"
  top: "reshg1_low1_branch1"
  param {
    lr_mult: 0
    decay_mult: 1
  }
  convolution_param {
    num_output: 256
    bias_term: false
    pad: 0
    kernel_size: 1
    stride: 1
    weight_filler {
      type: "gaussian"
      std: 0.01
    }
  }
}
layer {
  name: "bnhg1_low1_branch1"
  type: "BatchNorm"
  bottom: "reshg1_low1_branch1"
  top: "reshg1_low1_branch1"
  param {
    lr_mult: 0
    decay_mult: 0
  }
  param {
    lr_mult: 0
    decay_mult: 0
  }
  param {
    lr_mult: 0
    decay_mult: 0
  }
I0903 17:38:12.731868 20433 layer_factory.hpp:77] Creating layer data
I0903 17:38:12.731905 20433 net.cpp:100] Creating Layer data
I0903 17:38:12.731912 20433 net.cpp:408] data -> data
I0903 17:38:12.731940 20433 net.cpp:408] data -> label
I0903 17:38:12.732264 20433 data_heatmap.cpp:61] using joint inds:
I0903 17:38:12.732273 20433 data_heatmap.cpp:72] Loading annotation from data/MPII/train.txt
I0903 17:38:12.886487 20433 data_heatmap.cpp:199] output data size: 1,3,256,256
I0903 17:38:12.886507 20433 data_heatmap.cpp:200] output label size: 1,16,64,64
I0903 17:38:12.886508 20433 data_heatmap.cpp:201] number of label channels: 16
I0903 17:38:12.886510 20433 data_heatmap.cpp:202] datum channels: 3
I0903 17:38:12.888649 20433 net.cpp:150] Setting up data
I0903 17:38:12.888674 20433 net.cpp:157] Top shape: 1 3 256 256 (196608)
I0903 17:38:12.888677 20433 net.cpp:157] Top shape: 1 16 64 64 (65536)
I0903 17:38:12.888679 20433 net.cpp:165] Memory required for data: 1048576
I0903 17:38:12.888689 20433 layer_factory.hpp:77] Creating layer data_data_0_split
I0903 17:38:12.888700 20433 net.cpp:100] Creating Layer data_data_0_split
I0903 17:38:12.888706 20433 net.cpp:434] data_data_0_split <- data
I0903 17:38:12.888717 20433 net.cpp:408] data_data_0_split -> data_data_0_split_0
I0903 17:38:12.888727 20433 net.cpp:408] data_data_0_split -> data_data_0_split_1
I0903 17:38:12.888764 20433 net.cpp:150] Setting up data_data_0_split
I0903 17:38:12.888770 20433 net.cpp:157] Top shape: 1 3 256 256 (196608)
I0903 17:38:12.888773 20433 net.cpp:157] Top shape: 1 3 256 256 (196608)
I0903 17:38:12.888775 20433 net.cpp:165] Memory required for data: 2621440
I0903 17:38:12.888778 20433 layer_factory.hpp:77] Creating layer conv1
I0903 17:38:12.888792 20433 net.cpp:100] Creating Layer conv1
I0903 17:38:12.888797 20433 net.cpp:434] conv1 <- data_data_0_split_0
I0903 17:38:12.888800 20433 net.cpp:408] conv1 -> conv1
I0903 17:38:12.889349 20433 net.cpp:150] Setting up conv1
I0903 17:38:12.889369 20433 net.cpp:157] Top shape: 1 64 128 128 (1048576)
I0903 17:38:12.889374 20433 net.cpp:165] Memory required for data: 6815744
I0903 17:38:12.889382 20433 layer_factory.hpp:77] Creating layer bn_conv1
I0903 17:38:12.889391 20433 net.cpp:100] Creating Layer bn_conv1
I0903 17:38:12.889395 20433 net.cpp:434] bn_conv1 <- conv1
I0903 17:38:12.889399 20433 net.cpp:395] bn_conv1 -> conv1 (in-place)
I0903 17:38:12.889628 20433 net.cpp:150] Setting up bn_conv1
I0903 17:38:12.889642 20433 net.cpp:157] Top shape: 1 64 128 128 (1048576)
I0903 17:38:12.889644 20433 net.cpp:165] Memory required for data: 11010048
I0903 17:38:12.889652 20433 layer_factory.hpp:77] Creating layer scale_conv1
I0903 17:38:12.889662 20433 net.cpp:100] Creating Layer scale_conv1
I0903 17:38:12.889667 20433 net.cpp:434] scale_conv1 <- conv1
I0903 17:38:12.889670 20433 net.cpp:395] scale_conv1 -> conv1 (in-place)
I0903 17:38:12.889704 20433 layer_factory.hpp:77] Creating layer scale_conv1
I0903 17:38:12.889801 20433 net.cpp:150] Setting up scale_conv1
I0903 17:38:12.889807 20433 net.cpp:157] Top shape: 1 64 128 128 (1048576)
I0903 17:38:12.889809 20433 net.cpp:165] Memory required for data: 15204352
I0903 17:38:12.889816 20433 layer_factory.hpp:77] Creating layer conv1_relu
I0903 17:38:12.889822 20433 net.cpp:100] Creating Layer conv1_relu
I0903 17:38:12.889824 20433 net.cpp:434] conv1_relu <- conv1
I0903 17:38:12.889829 20433 net.cpp:395] conv1_relu -> conv1 (in-place)
I0903 17:38:12.889834 20433 net.cpp:150] Setting up conv1_relu
I0903 17:38:12.889838 20433 net.cpp:157] Top shape: 1 64 128 128 (1048576)
I0903 17:38:12.889840 20433 net.cpp:165] Memory required for data: 19398656
I0903 17:38:12.889843 20433 layer_factory.hpp:77] Creating layer conv1_conv1_relu_0_split
I0903 17:38:12.889847 20433 net.cpp:100] Creating Layer conv1_conv1_relu_0_split
I0903 17:38:12.889850 20433 net.cpp:434] conv1_conv1_relu_0_split <- conv1
I0903 17:38:12.889853 20433 net.cpp:408] conv1_conv1_relu_0_split -> conv1_conv1_relu_0_split_0
I0903 17:38:12.889858 20433 net.cpp:408] conv1_conv1_relu_0_split -> conv1_conv1_relu_0_split_1
I0903 17:38:12.889883 20433 net.cpp:150] Setting up conv1_conv1_relu_0_split
I0903 17:38:12.889888 20433 net.cpp:157] Top shape: 1 64 128 128 (1048576)
I0903 17:38:12.889890 20433 net.cpp:157] Top shape: 1 64 128 128 (1048576)
I0903 17:38:12.889892 20433 net.cpp:165] Memory required for data: 27787264
I0903 17:38:12.889894 20433 layer_factory.hpp:77] Creating layer res1_branch1
I0903 17:38:12.889901 20433 net.cpp:100] Creating Layer res1_branch1
I0903 17:38:12.889904 20433 net.cpp:434] res1_branch1 <- conv1_conv1_relu_0_split_0
I0903 17:38:12.889909 20433 net.cpp:408] res1_branch1 -> res1_branch1
I0903 17:38:12.890091 20433 net.cpp:150] Setting up res1_branch1
I0903 17:38:12.890097 20433 net.cpp:157] Top shape: 1 128 128 128 (2097152)
I0903 17:38:12.890100 20433 net.cpp:165] Memory required for data: 36175872
I0903 17:38:12.890102 20433 layer_factory.hpp:77] Creating layer bn1_branch1
I0903 17:38:12.890110 20433 net.cpp:100] Creating Layer bn1_branch1
I0903 17:38:12.890112 20433 net.cpp:434] bn1_branch1 <- res1_branch1
I0903 17:38:12.890117 20433 net.cpp:395] bn1_branch1 -> res1_branch1 (in-place)
I0903 17:38:12.890244 20433 net.cpp:150] Setting up bn1_branch1
I0903 17:38:12.890249 20433 net.cpp:157] Top shape: 1 128 128 128 (2097152)
I0903 17:38:12.890251 20433 net.cpp:165] Memory required for data: 44564480
I0903 17:38:12.890259 20433 layer_factory.hpp:77] Creating layer scale1_branch1
I0903 17:38:12.890264 20433 net.cpp:100] Creating Layer scale1_branch1
I0903 17:38:12.890269 20433 net.cpp:434] scale1_branch1 <- res1_branch1
I0903 17:38:12.890272 20433 net.cpp:395] scale1_branch1 -> res1_branch1 (in-place)
I0903 17:38:12.890298 20433 layer_factory.hpp:77] Creating layer scale1_branch1
I0903 17:38:12.890382 20433 net.cpp:150] Setting up scale1_branch1
I0903 17:38:12.890388 20433 net.cpp:157] Top shape: 1 128 128 128 (2097152)
I0903 17:38:12.890389 20433 net.cpp:165] Memory required for data: 52953088
I0903 17:38:12.890403 20433 layer_factory.hpp:77] Creating layer res1_branch2a
I0903 17:38:12.890411 20433 net.cpp:100] Creating Layer res1_branch2a
I0903 17:38:12.890414 20433 net.cpp:434] res1_branch2a <- conv1_conv1_relu_0_split_1
I0903 17:38:12.890419 20433 net.cpp:408] res1_branch2a -> res1_branch2a
I0903 17:38:12.890916 20433 net.cpp:150] Setting up res1_branch2a
I0903 17:38:12.890926 20433 net.cpp:157] Top shape: 1 64 128 128 (1048576)
I0903 17:38:12.890928 20433 net.cpp:165] Memory required for data: 57147392
I0903 17:38:12.890933 20433 layer_factory.hpp:77] Creating layer bn1_branch2a
I0903 17:38:12.890938 20433 net.cpp:100] Creating Layer bn1_branch2a
I0903 17:38:12.890941 20433 net.cpp:434] bn1_branch2a <- res1_branch2a
I0903 17:38:12.890946 20433 net.cpp:395] bn1_branch2a -> res1_branch2a (in-place)
I0903 17:38:12.891077 20433 net.cpp:150] Setting up bn1_branch2a
I0903 17:38:12.891083 20433 net.cpp:157] Top shape: 1 64 128 128 (1048576)
I0903 17:38:12.891085 20433 net.cpp:165] Memory required for data: 61341696
I0903 17:38:12.891091 20433 layer_factory.hpp:77] Creating layer scale1_branch2a
I0903 17:38:12.891098 20433 net.cpp:100] Creating Layer scale1_branch2a
I0903 17:38:12.891103 20433 net.cpp:434] scale1_branch2a <- res1_branch2a
I0903 17:38:12.891106 20433 net.cpp:395] scale1_branch2a -> res1_branch2a (in-place)
I0903 17:38:12.891134 20433 layer_factory.hpp:77] Creating layer scale1_branch2a
I0903 17:38:12.891221 20433 net.cpp:150] Setting up scale1_branch2a
I0903 17:38:12.891227 20433 net.cpp:157] Top shape: 1 64 128 128 (1048576)
I0903 17:38:12.891228 20433 net.cpp:165] Memory required for data: 65536000
I0903 17:38:12.891235 20433 layer_factory.hpp:77] Creating layer res1_branch2a_relu
I0903 17:38:12.891240 20433 net.cpp:100] Creating Layer res1_branch2a_relu
I0903 17:38:12.891242 20433 net.cpp:434] res1_branch2a_relu <- res1_branch2a
I0903 17:38:12.891247 20433 net.cpp:395] res1_branch2a_relu -> res1_branch2a (in-place)
I0903 17:38:12.891250 20433 net.cpp:150] Setting up res1_branch2a_relu
I0903 17:38:12.891253 20433 net.cpp:157] Top shape: 1 64 128 128 (1048576)
I0903 17:38:12.891255 20433 net.cpp:165] Memory required for data: 69730304
I0903 17:38:12.891258 20433 layer_factory.hpp:77] Creating layer res1_branch2b
I0903 17:38:12.891264 20433 net.cpp:100] Creating Layer res1_branch2b
I0903 17:38:12.891268 20433 net.cpp:434] res1_branch2b <- res1_branch2a
I0903 17:38:12.891271 20433 net.cpp:408] res1_branch2b -> res1_branch2b
I0903 17:38:12.891701 20433 net.cpp:150] Setting up res1_branch2b
I0903 17:38:12.891707 20433 net.cpp:157] Top shape: 1 64 128 128 (1048576)
I0903 17:38:12.891710 20433 net.cpp:165] Memory required for data: 73924608
I0903 17:38:12.891712 20433 layer_factory.hpp:77] Creating layer bn1_branch2b
I0903 17:38:12.891717 20433 net.cpp:100] Creating Layer bn1_branch2b
I0903 17:38:12.891721 20433 net.cpp:434] bn1_branch2b <- res1_branch2b
I0903 17:38:12.891728 20433 net.cpp:395] bn1_branch2b -> res1_branch2b (in-place)
I0903 17:38:12.891865 20433 net.cpp:150] Setting up bn1_branch2b
I0903 17:38:12.891870 20433 net.cpp:157] Top shape: 1 64 128 128 (1048576)
I0903 17:38:12.891872 20433 net.cpp:165] Memory required for data: 78118912
I0903 17:38:12.891877 20433 layer_factory.hpp:77] Creating layer scale1_branch2b
I0903 17:38:12.891885 20433 net.cpp:100] Creating Layer scale1_branch2b
I0903 17:38:12.891888 20433 net.cpp:434] scale1_branch2b <- res1_branch2b
I0903 17:38:12.891893 20433 net.cpp:395] scale1_branch2b -> res1_branch2b (in-place)
I0903 17:38:12.891918 20433 layer_factory.hpp:77] Creating layer scale1_branch2b
I0903 17:38:12.892005 20433 net.cpp:150] Setting up scale1_branch2b
I0903 17:38:12.892011 20433 net.cpp:157] Top shape: 1 64 128 128 (1048576)
I0903 17:38:12.892014 20433 net.cpp:165] Memory required for data: 82313216
I0903 17:38:12.892017 20433 layer_factory.hpp:77] Creating layer res1_branch2b_relu
I0903 17:38:12.892024 20433 net.cpp:100] Creating Layer res1_branch2b_relu
I0903 17:38:12.892025 20433 net.cpp:434] res1_branch2b_relu <- res1_branch2b
I0903 17:38:12.892029 20433 net.cpp:395] res1_branch2b_relu -> res1_branch2b (in-place)
I0903 17:38:12.892041 20433 net.cpp:150] Setting up res1_branch2b_relu
I0903 17:38:12.892045 20433 net.cpp:157] Top shape: 1 64 128 128 (1048576)
I0903 17:38:12.892048 20433 net.cpp:165] Memory required for data: 86507520
I0903 17:38:12.892050 20433 layer_factory.hpp:77] Creating layer res1_branch2c
I0903 17:38:12.892056 20433 net.cpp:100] Creating Layer res1_branch2c
I0903 17:38:12.892060 20433 net.cpp:434] res1_branch2c <- res1_branch2b
I0903 17:38:12.892065 20433 net.cpp:408] res1_branch2c -> res1_branch2c
I0903 17:38:12.892251 20433 net.cpp:150] Setting up res1_branch2c
I0903 17:38:12.892257 20433 net.cpp:157] Top shape: 1 128 128 128 (2097152)
I0903 17:38:12.892259 20433 net.cpp:165] Memory required for data: 94896128
I0903 17:38:12.892262 20433 layer_factory.hpp:77] Creating layer bn1_branch2c
I0903 17:38:12.892267 20433 net.cpp:100] Creating Layer bn1_branch2c
I0903 17:38:12.892271 20433 net.cpp:434] bn1_branch2c <- res1_branch2c
I0903 17:38:12.892276 20433 net.cpp:395] bn1_branch2c -> res1_branch2c (in-place)
I0903 17:38:12.892416 20433 net.cpp:150] Setting up bn1_branch2c
I0903 17:38:12.892423 20433 net.cpp:157] Top shape: 1 128 128 128 (2097152)
I0903 17:38:12.892426 20433 net.cpp:165] Memory required for data: 103284736
I0903 17:38:12.892431 20433 layer_factory.hpp:77] Creating layer scale1_branch2c
I0903 17:38:12.892437 20433 net.cpp:100] Creating Layer scale1_branch2c
I0903 17:38:12.892441 20433 net.cpp:434] scale1_branch2c <- res1_branch2c
I0903 17:38:12.892444 20433 net.cpp:395] scale1_branch2c -> res1_branch2c (in-place)
I0903 17:38:12.892470 20433 layer_factory.hpp:77] Creating layer scale1_branch2c
I0903 17:38:12.892904 20433 net.cpp:150] Setting up scale1_branch2c
I0903 17:38:12.892915 20433 net.cpp:157] Top shape: 1 128 128 128 (2097152)
I0903 17:38:12.892916 20433 net.cpp:165] Memory required for data: 111673344
I0903 17:38:12.892921 20433 layer_factory.hpp:77] Creating layer res1
I0903 17:38:12.892927 20433 net.cpp:100] Creating Layer res1
I0903 17:38:12.892930 20433 net.cpp:434] res1 <- res1_branch1
I0903 17:38:12.892933 20433 net.cpp:434] res1 <- res1_branch2c
I0903 17:38:12.892937 20433 net.cpp:408] res1 -> res1
I0903 17:38:12.892959 20433 net.cpp:150] Setting up res1
I0903 17:38:12.892964 20433 net.cpp:157] Top shape: 1 128 128 128 (2097152)
I0903 17:38:12.892966 20433 net.cpp:165] Memory required for data: 120061952
I0903 17:38:12.892968 20433 layer_factory.hpp:77] Creating layer res1_relu
I0903 17:38:12.892972 20433 net.cpp:100] Creating Layer res1_relu
I0903 17:38:12.892976 20433 net.cpp:434] res1_relu <- res1
I0903 17:38:12.892979 20433 net.cpp:395] res1_relu -> res1 (in-place)
I0903 17:38:12.892982 20433 net.cpp:150] Setting up res1_relu
I0903 17:38:12.892987 20433 net.cpp:157] Top shape: 1 128 128 128 (2097152)
I0903 17:38:12.892988 20433 net.cpp:165] Memory required for data: 128450560
I0903 17:38:12.892990 20433 layer_factory.hpp:77] Creating layer pool1
I0903 17:38:12.892995 20433 net.cpp:100] Creating Layer pool1
I0903 17:38:12.892998 20433 net.cpp:434] pool1 <- res1
I0903 17:38:12.893002 20433 net.cpp:408] pool1 -> pool1
I0903 17:38:12.893038 20433 net.cpp:150] Setting up pool1
I0903 17:38:12.893043 20433 net.cpp:157] Top shape: 1 128 64 64 (524288)
I0903 17:38:12.893046 20433 net.cpp:165] Memory required for data: 130547712
I0903 17:38:12.893049 20433 layer_factory.hpp:77] Creating layer pool1_pool1_0_split
I0903 17:38:12.893057 20433 net.cpp:100] Creating Layer pool1_pool1_0_split
I0903 17:38:12.893061 20433 net.cpp:434] pool1_pool1_0_split <- pool1
I0903 17:38:12.893065 20433 net.cpp:408] pool1_pool1_0_split -> pool1_pool1_0_split_0
I0903 17:38:12.893071 20433 net.cpp:408] pool1_pool1_0_split -> pool1_pool1_0_split_1
I0903 17:38:12.893076 20433 net.cpp:408] pool1_pool1_0_split -> pool1_pool1_0_split_2
I0903 17:38:12.893110 20433 net.cpp:150] Setting up pool1_pool1_0_split
I0903 17:38:12.893115 20433 net.cpp:157] Top shape: 1 128 64 64 (524288)
I0903 17:38:12.893117 20433 net.cpp:157] Top shape: 1 128 64 64 (524288)
I0903 17:38:12.893129 20433 net.cpp:157] Top shape: 1 128 64 64 (524288)
I0903 17:38:12.893132 20433 net.cpp:165] Memory required for data: 136839168
I0903 17:38:12.893134 20433 layer_factory.hpp:77] Creating layer res4_branch2a
I0903 17:38:12.893141 20433 net.cpp:100] Creating Layer res4_branch2a
I0903 17:38:12.893146 20433 net.cpp:434] res4_branch2a <- pool1_pool1_0_split_0
I0903 17:38:12.893151 20433 net.cpp:408] res4_branch2a -> res4_branch2a
I0903 17:38:12.893342 20433 net.cpp:150] Setting up res4_branch2a
I0903 17:38:12.893348 20433 net.cpp:157] Top shape: 1 64 64 64 (262144)
I0903 17:38:12.893352 20433 net.cpp:165] Memory required for data: 137887744
I0903 17:38:12.893354 20433 layer_factory.hpp:77] Creating layer bn4_branch2a
I0903 17:38:12.893359 20433 net.cpp:100] Creating Layer bn4_branch2a
I0903 17:38:12.893362 20433 net.cpp:434] bn4_branch2a <- res4_branch2a
I0903 17:38:12.893368 20433 net.cpp:395] bn4_branch2a -> res4_branch2a (in-place)
I0903 17:38:12.893493 20433 net.cpp:150] Setting up bn4_branch2a
I0903 17:38:12.893498 20433 net.cpp:157] Top shape: 1 64 64 64 (262144)
I0903 17:38:12.893501 20433 net.cpp:165] Memory required for data: 138936320
I0903 17:38:12.893509 20433 layer_factory.hpp:77] Creating layer scale4_branch2a
I0903 17:38:12.893515 20433 net.cpp:100] Creating Layer scale4_branch2a
I0903 17:38:12.893519 20433 net.cpp:434] scale4_branch2a <- res4_branch2a
I0903 17:38:12.893523 20433 net.cpp:395] scale4_branch2a -> res4_branch2a (in-place)
I0903 17:38:12.893551 20433 layer_factory.hpp:77] Creating layer scale4_branch2a
I0903 17:38:12.893630 20433 net.cpp:150] Setting up scale4_branch2a
I0903 17:38:12.893636 20433 net.cpp:157] Top shape: 1 64 64 64 (262144)
I0903 17:38:12.893638 20433 net.cpp:165] Memory required for data: 139984896
I0903 17:38:12.893642 20433 layer_factory.hpp:77] Creating layer res4_branch2a_relu
I0903 17:38:12.893648 20433 net.cpp:100] Creating Layer res4_branch2a_relu
I0903 17:38:12.893651 20433 net.cpp:434] res4_branch2a_relu <- res4_branch2a
I0903 17:38:12.893654 20433 net.cpp:395] res4_branch2a_relu -> res4_branch2a (in-place)
I0903 17:38:12.893658 20433 net.cpp:150] Setting up res4_branch2a_relu
I0903 17:38:12.893662 20433 net.cpp:157] Top shape: 1 64 64 64 (262144)
I0903 17:38:12.893664 20433 net.cpp:165] Memory required for data: 141033472
I0903 17:38:12.893666 20433 layer_factory.hpp:77] Creating layer res4_branch2b
I0903 17:38:12.893672 20433 net.cpp:100] Creating Layer res4_branch2b
I0903 17:38:12.893676 20433 net.cpp:434] res4_branch2b <- res4_branch2a
I0903 17:38:12.893679 20433 net.cpp:408] res4_branch2b -> res4_branch2b
I0903 17:38:12.894434 20433 net.cpp:150] Setting up res4_branch2b
I0903 17:38:12.894443 20433 net.cpp:157] Top shape: 1 64 64 64 (262144)
I0903 17:38:12.894446 20433 net.cpp:165] Memory required for data: 142082048
I0903 17:38:12.894450 20433 layer_factory.hpp:77] Creating layer bn4_branch2b
I0903 17:38:12.894455 20433 net.cpp:100] Creating Layer bn4_branch2b
I0903 17:38:12.894459 20433 net.cpp:434] bn4_branch2b <- res4_branch2b
I0903 17:38:12.894464 20433 net.cpp:395] bn4_branch2b -> res4_branch2b (in-place)
I0903 17:38:12.894599 20433 net.cpp:150] Setting up bn4_branch2b
I0903 17:38:12.894605 20433 net.cpp:157] Top shape: 1 64 64 64 (262144)
I0903 17:38:12.894608 20433 net.cpp:165] Memory required for data: 143130624
I0903 17:38:12.894613 20433 layer_factory.hpp:77] Creating layer scale4_branch2b
I0903 17:38:12.894618 20433 net.cpp:100] Creating Layer scale4_branch2b
I0903 17:38:12.894621 20433 net.cpp:434] scale4_branch2b <- res4_branch2b
I0903 17:38:12.894626 20433 net.cpp:395] scale4_branch2b -> res4_branch2b (in-place)
I0903 17:38:12.894654 20433 layer_factory.hpp:77] Creating layer scale4_branch2b
I0903 17:38:12.894731 20433 net.cpp:150] Setting up scale4_branch2b
I0903 17:38:12.894736 20433 net.cpp:157] Top shape: 1 64 64 64 (262144)
I0903 17:38:12.894738 20433 net.cpp:165] Memory required for data: 144179200
I0903 17:38:12.894742 20433 layer_factory.hpp:77] Creating layer res4_branch2b_relu
I0903 17:38:12.894752 20433 net.cpp:100] Creating Layer res4_branch2b_relu
I0903 17:38:12.894762 20433 net.cpp:434] res4_branch2b_relu <- res4_branch2b
I0903 17:38:12.894767 20433 net.cpp:395] res4_branch2b_relu -> res4_branch2b (in-place)
I0903 17:38:12.894770 20433 net.cpp:150] Setting up res4_branch2b_relu
I0903 17:38:12.894774 20433 net.cpp:157] Top shape: 1 64 64 64 (262144)
I0903 17:38:12.894776 20433 net.cpp:165] Memory required for data: 145227776
I0903 17:38:12.894778 20433 layer_factory.hpp:77] Creating layer res4_branch2c
I0903 17:38:12.894784 20433 net.cpp:100] Creating Layer res4_branch2c
I0903 17:38:12.894788 20433 net.cpp:434] res4_branch2c <- res4_branch2b
I0903 17:38:12.894793 20433 net.cpp:408] res4_branch2c -> res4_branch2c
I0903 17:38:12.894986 20433 net.cpp:150] Setting up res4_branch2c
I0903 17:38:12.894992 20433 net.cpp:157] Top shape: 1 128 64 64 (524288)
I0903 17:38:12.894994 20433 net.cpp:165] Memory required for data: 147324928
I0903 17:38:12.894997 20433 layer_factory.hpp:77] Creating layer bn4_branch2c
I0903 17:38:12.895004 20433 net.cpp:100] Creating Layer bn4_branch2c
I0903 17:38:12.895009 20433 net.cpp:434] bn4_branch2c <- res4_branch2c
I0903 17:38:12.895011 20433 net.cpp:395] bn4_branch2c -> res4_branch2c (in-place)
I0903 17:38:12.895130 20433 net.cpp:150] Setting up bn4_branch2c
I0903 17:38:12.895135 20433 net.cpp:157] Top shape: 1 128 64 64 (524288)
I0903 17:38:12.895138 20433 net.cpp:165] Memory required for data: 149422080
I0903 17:38:12.895143 20433 layer_factory.hpp:77] Creating layer scale4_branch2c
I0903 17:38:12.895148 20433 net.cpp:100] Creating Layer scale4_branch2c
I0903 17:38:12.895151 20433 net.cpp:434] scale4_branch2c <- res4_branch2c
I0903 17:38:12.895155 20433 net.cpp:395] scale4_branch2c -> res4_branch2c (in-place)
I0903 17:38:12.895180 20433 layer_factory.hpp:77] Creating layer scale4_branch2c
I0903 17:38:12.895251 20433 net.cpp:150] Setting up scale4_branch2c
I0903 17:38:12.895257 20433 net.cpp:157] Top shape: 1 128 64 64 (524288)
I0903 17:38:12.895259 20433 net.cpp:165] Memory required for data: 151519232
I0903 17:38:12.895263 20433 layer_factory.hpp:77] Creating layer res4
I0903 17:38:12.895268 20433 net.cpp:100] Creating Layer res4
I0903 17:38:12.895272 20433 net.cpp:434] res4 <- pool1_pool1_0_split_1
I0903 17:38:12.895275 20433 net.cpp:434] res4 <- res4_branch2c
I0903 17:38:12.895278 20433 net.cpp:408] res4 -> res4
I0903 17:38:12.895297 20433 net.cpp:150] Setting up res4
I0903 17:38:12.895301 20433 net.cpp:157] Top shape: 1 128 64 64 (524288)
I0903 17:38:12.895303 20433 net.cpp:165] Memory required for data: 153616384
I0903 17:38:12.895305 20433 layer_factory.hpp:77] Creating layer res4_relu
I0903 17:38:12.895309 20433 net.cpp:100] Creating Layer res4_relu
I0903 17:38:12.895313 20433 net.cpp:434] res4_relu <- res4
I0903 17:38:12.895318 20433 net.cpp:395] res4_relu -> res4 (in-place)
I0903 17:38:12.895323 20433 net.cpp:150] Setting up res4_relu
I0903 17:38:12.895325 20433 net.cpp:157] Top shape: 1 128 64 64 (524288)
I0903 17:38:12.895328 20433 net.cpp:165] Memory required for data: 155713536
I0903 17:38:12.895330 20433 layer_factory.hpp:77] Creating layer res4_res4_relu_0_split
I0903 17:38:12.895334 20433 net.cpp:100] Creating Layer res4_res4_relu_0_split
I0903 17:38:12.895337 20433 net.cpp:434] res4_res4_relu_0_split <- res4
I0903 17:38:12.895341 20433 net.cpp:408] res4_res4_relu_0_split -> res4_res4_relu_0_split_0
I0903 17:38:12.895347 20433 net.cpp:408] res4_res4_relu_0_split -> res4_res4_relu_0_split_1
I0903 17:38:12.895370 20433 net.cpp:150] Setting up res4_res4_relu_0_split
I0903 17:38:12.895375 20433 net.cpp:157] Top shape: 1 128 64 64 (524288)
I0903 17:38:12.895378 20433 net.cpp:157] Top shape: 1 128 64 64 (524288)
I0903 17:38:12.895380 20433 net.cpp:165] Memory required for data: 159907840
I0903 17:38:12.895381 20433 layer_factory.hpp:77] Creating layer res5_branch2a
I0903 17:38:12.895388 20433 net.cpp:100] Creating Layer res5_branch2a
I0903 17:38:12.895391 20433 net.cpp:434] res5_branch2a <- res4_res4_relu_0_split_0
I0903 17:38:12.895395 20433 net.cpp:408] res5_branch2a -> res5_branch2a
I0903 17:38:12.895586 20433 net.cpp:150] Setting up res5_branch2a
I0903 17:38:12.895599 20433 net.cpp:157] Top shape: 1 64 64 64 (262144)
I0903 17:38:12.895601 20433 net.cpp:165] Memory required for data: 160956416
I0903 17:38:12.895604 20433 layer_factory.hpp:77] Creating layer bn5_branch2a
I0903 17:38:12.895609 20433 net.cpp:100] Creating Layer bn5_branch2a
I0903 17:38:12.895612 20433 net.cpp:434] bn5_branch2a <- res5_branch2a
I0903 17:38:12.895617 20433 net.cpp:395] bn5_branch2a -> res5_branch2a (in-place)
I0903 17:38:12.895748 20433 net.cpp:150] Setting up bn5_branch2a
I0903 17:38:12.895754 20433 net.cpp:157] Top shape: 1 64 64 64 (262144)
I0903 17:38:12.895756 20433 net.cpp:165] Memory required for data: 162004992
I0903 17:38:12.895761 20433 layer_factory.hpp:77] Creating layer scale5_branch2a
I0903 17:38:12.895766 20433 net.cpp:100] Creating Layer scale5_branch2a
I0903 17:38:12.895769 20433 net.cpp:434] scale5_branch2a <- res5_branch2a
I0903 17:38:12.895774 20433 net.cpp:395] scale5_branch2a -> res5_branch2a (in-place)
I0903 17:38:12.895802 20433 layer_factory.hpp:77] Creating layer scale5_branch2a
I0903 17:38:12.895879 20433 net.cpp:150] Setting up scale5_branch2a
I0903 17:38:12.895884 20433 net.cpp:157] Top shape: 1 64 64 64 (262144)
I0903 17:38:12.895885 20433 net.cpp:165] Memory required for data: 163053568
I0903 17:38:12.895889 20433 layer_factory.hpp:77] Creating layer res5_branch2a_relu
I0903 17:38:12.895895 20433 net.cpp:100] Creating Layer res5_branch2a_relu
I0903 17:38:12.895896 20433 net.cpp:434] res5_branch2a_relu <- res5_branch2a
I0903 17:38:12.895900 20433 net.cpp:395] res5_branch2a_relu -> res5_branch2a (in-place)
I0903 17:38:12.895905 20433 net.cpp:150] Setting up res5_branch2a_relu
I0903 17:38:12.895908 20433 net.cpp:157] Top shape: 1 64 64 64 (262144)
I0903 17:38:12.895910 20433 net.cpp:165] Memory required for data: 164102144
I0903 17:38:12.895912 20433 layer_factory.hpp:77] Creating layer res5_branch2b
I0903 17:38:12.895918 20433 net.cpp:100] Creating Layer res5_branch2b
I0903 17:38:12.895921 20433 net.cpp:434] res5_branch2b <- res5_branch2a
I0903 17:38:12.895925 20433 net.cpp:408] res5_branch2b -> res5_branch2b
I0903 17:38:12.896363 20433 net.cpp:150] Setting up res5_branch2b
I0903 17:38:12.896369 20433 net.cpp:157] Top shape: 1 64 64 64 (262144)
I0903 17:38:12.896371 20433 net.cpp:165] Memory required for data: 165150720
I0903 17:38:12.896375 20433 layer_factory.hpp:77] Creating layer bn5_branch2b
I0903 17:38:12.896381 20433 net.cpp:100] Creating Layer bn5_branch2b
I0903 17:38:12.896384 20433 net.cpp:434] bn5_branch2b <- res5_branch2b
I0903 17:38:12.896389 20433 net.cpp:395] bn5_branch2b -> res5_branch2b (in-place)
I0903 17:38:12.896519 20433 net.cpp:150] Setting up bn5_branch2b
I0903 17:38:12.896525 20433 net.cpp:157] Top shape: 1 64 64 64 (262144)
I0903 17:38:12.896528 20433 net.cpp:165] Memory required for data: 166199296
I0903 17:38:12.896531 20433 layer_factory.hpp:77] Creating layer scale5_branch2b
I0903 17:38:12.896538 20433 net.cpp:100] Creating Layer scale5_branch2b
I0903 17:38:12.896540 20433 net.cpp:434] scale5_branch2b <- res5_branch2b
I0903 17:38:12.896544 20433 net.cpp:395] scale5_branch2b -> res5_branch2b (in-place)
I0903 17:38:12.896571 20433 layer_factory.hpp:77] Creating layer scale5_branch2b
I0903 17:38:12.896646 20433 net.cpp:150] Setting up scale5_branch2b
I0903 17:38:12.896652 20433 net.cpp:157] Top shape: 1 64 64 64 (262144)
I0903 17:38:12.896654 20433 net.cpp:165] Memory required for data: 167247872
I0903 17:38:12.896658 20433 layer_factory.hpp:77] Creating layer res5_branch2b_relu
I0903 17:38:12.896663 20433 net.cpp:100] Creating Layer res5_branch2b_relu
I0903 17:38:12.896666 20433 net.cpp:434] res5_branch2b_relu <- res5_branch2b
I0903 17:38:12.896668 20433 net.cpp:395] res5_branch2b_relu -> res5_branch2b (in-place)
I0903 17:38:12.896672 20433 net.cpp:150] Setting up res5_branch2b_relu
I0903 17:38:12.896677 20433 net.cpp:157] Top shape: 1 64 64 64 (262144)
I0903 17:38:12.896677 20433 net.cpp:165] Memory required for data: 168296448
I0903 17:38:12.896680 20433 layer_factory.hpp:77] Creating layer res5_branch2c
I0903 17:38:12.896694 20433 net.cpp:100] Creating Layer res5_branch2c
I0903 17:38:12.896697 20433 net.cpp:434] res5_branch2c <- res5_branch2b
I0903 17:38:12.896703 20433 net.cpp:408] res5_branch2c -> res5_branch2c
I0903 17:38:12.896913 20433 net.cpp:150] Setting up res5_branch2c
I0903 17:38:12.896919 20433 net.cpp:157] Top shape: 1 128 64 64 (524288)
I0903 17:38:12.896921 20433 net.cpp:165] Memory required for data: 170393600
I0903 17:38:12.896925 20433 layer_factory.hpp:77] Creating layer bn5_branch2c
I0903 17:38:12.896929 20433 net.cpp:100] Creating Layer bn5_branch2c
I0903 17:38:12.896932 20433 net.cpp:434] bn5_branch2c <- res5_branch2c
I0903 17:38:12.896936 20433 net.cpp:395] bn5_branch2c -> res5_branch2c (in-place)
I0903 17:38:12.897063 20433 net.cpp:150] Setting up bn5_branch2c
I0903 17:38:12.897068 20433 net.cpp:157] Top shape: 1 128 64 64 (524288)
I0903 17:38:12.897069 20433 net.cpp:165] Memory required for data: 172490752
I0903 17:38:12.897074 20433 layer_factory.hpp:77] Creating layer scale5_branch2c
I0903 17:38:12.897081 20433 net.cpp:100] Creating Layer scale5_branch2c
I0903 17:38:12.897084 20433 net.cpp:434] scale5_branch2c <- res5_branch2c
I0903 17:38:12.897089 20433 net.cpp:395] scale5_branch2c -> res5_branch2c (in-place)
I0903 17:38:12.897114 20433 layer_factory.hpp:77] Creating layer scale5_branch2c
I0903 17:38:12.897199 20433 net.cpp:150] Setting up scale5_branch2c
I0903 17:38:12.897205 20433 net.cpp:157] Top shape: 1 128 64 64 (524288)
I0903 17:38:12.897207 20433 net.cpp:165] Memory required for data: 174587904
I0903 17:38:12.897222 20433 layer_factory.hpp:77] Creating layer res5
I0903 17:38:12.897228 20433 net.cpp:100] Creating Layer res5
I0903 17:38:12.897229 20433 net.cpp:434] res5 <- res4_res4_relu_0_split_1
I0903 17:38:12.897233 20433 net.cpp:434] res5 <- res5_branch2c
I0903 17:38:12.897238 20433 net.cpp:408] res5 -> res5
I0903 17:38:12.897253 20433 net.cpp:150] Setting up res5
I0903 17:38:12.897258 20433 net.cpp:157] Top shape: 1 128 64 64 (524288)
I0903 17:38:12.897260 20433 net.cpp:165] Memory required for data: 176685056
I0903 17:38:12.897264 20433 layer_factory.hpp:77] Creating layer res5_relu
I0903 17:38:12.897266 20433 net.cpp:100] Creating Layer res5_relu
I0903 17:38:12.897269 20433 net.cpp:434] res5_relu <- res5
I0903 17:38:12.897274 20433 net.cpp:395] res5_relu -> res5 (in-place)
I0903 17:38:12.897279 20433 net.cpp:150] Setting up res5_relu
I0903 17:38:12.897281 20433 net.cpp:157] Top shape: 1 128 64 64 (524288)
I0903 17:38:12.897284 20433 net.cpp:165] Memory required for data: 178782208
I0903 17:38:12.897285 20433 layer_factory.hpp:77] Creating layer res5_res5_relu_0_split
I0903 17:38:12.897289 20433 net.cpp:100] Creating Layer res5_res5_relu_0_split
I0903 17:38:12.897292 20433 net.cpp:434] res5_res5_relu_0_split <- res5
I0903 17:38:12.897296 20433 net.cpp:408] res5_res5_relu_0_split -> res5_res5_relu_0_split_0
I0903 17:38:12.897301 20433 net.cpp:408] res5_res5_relu_0_split -> res5_res5_relu_0_split_1
I0903 17:38:12.897325 20433 net.cpp:150] Setting up res5_res5_relu_0_split
I0903 17:38:12.897330 20433 net.cpp:157] Top shape: 1 128 64 64 (524288)
I0903 17:38:12.897333 20433 net.cpp:157] Top shape: 1 128 64 64 (524288)
I0903 17:38:12.897336 20433 net.cpp:165] Memory required for data: 182976512
I0903 17:38:12.897337 20433 layer_factory.hpp:77] Creating layer res6_branch1
I0903 17:38:12.897344 20433 net.cpp:100] Creating Layer res6_branch1
I0903 17:38:12.897347 20433 net.cpp:434] res6_branch1 <- res5_res5_relu_0_split_0
I0903 17:38:12.897352 20433 net.cpp:408] res6_branch1 -> res6_branch1
I0903 17:38:12.897752 20433 net.cpp:150] Setting up res6_branch1
I0903 17:38:12.897758 20433 net.cpp:157] Top shape: 1 256 64 64 (1048576)
I0903 17:38:12.897759 20433 net.cpp:165] Memory required for data: 187170816
I0903 17:38:12.897763 20433 layer_factory.hpp:77] Creating layer bn6_branch1
I0903 17:38:12.897768 20433 net.cpp:100] Creating Layer bn6_branch1
I0903 17:38:12.897771 20433 net.cpp:434] bn6_branch1 <- res6_branch1
I0903 17:38:12.897775 20433 net.cpp:395] bn6_branch1 -> res6_branch1 (in-place)
I0903 17:38:12.897907 20433 net.cpp:150] Setting up bn6_branch1
I0903 17:38:12.897913 20433 net.cpp:157] Top shape: 1 256 64 64 (1048576)
I0903 17:38:12.897915 20433 net.cpp:165] Memory required for data: 191365120
I0903 17:38:12.897920 20433 layer_factory.hpp:77] Creating layer scale6_branch1
I0903 17:38:12.897928 20433 net.cpp:100] Creating Layer scale6_branch1
I0903 17:38:12.897931 20433 net.cpp:434] scale6_branch1 <- res6_branch1
I0903 17:38:12.897934 20433 net.cpp:395] scale6_branch1 -> res6_branch1 (in-place)
I0903 17:38:12.897960 20433 layer_factory.hpp:77] Creating layer scale6_branch1
I0903 17:38:12.898033 20433 net.cpp:150] Setting up scale6_branch1
I0903 17:38:12.898038 20433 net.cpp:157] Top shape: 1 256 64 64 (1048576)
I0903 17:38:12.898041 20433 net.cpp:165] Memory required for data: 195559424
I0903 17:38:12.898044 20433 layer_factory.hpp:77] Creating layer res6_branch2a
I0903 17:38:12.898052 20433 net.cpp:100] Creating Layer res6_branch2a
I0903 17:38:12.898056 20433 net.cpp:434] res6_branch2a <- res5_res5_relu_0_split_1
I0903 17:38:12.898061 20433 net.cpp:408] res6_branch2a -> res6_branch2a
I0903 17:38:12.898321 20433 net.cpp:150] Setting up res6_branch2a
I0903 17:38:12.898327 20433 net.cpp:157] Top shape: 1 128 64 64 (524288)
I0903 17:38:12.898329 20433 net.cpp:165] Memory required for data: 197656576
I0903 17:38:12.898332 20433 layer_factory.hpp:77] Creating layer bn6_branch2a
I0903 17:38:12.898339 20433 net.cpp:100] Creating Layer bn6_branch2a
I0903 17:38:12.898341 20433 net.cpp:434] bn6_branch2a <- res6_branch2a
I0903 17:38:12.898345 20433 net.cpp:395] bn6_branch2a -> res6_branch2a (in-place)
I0903 17:38:12.898470 20433 net.cpp:150] Setting up bn6_branch2a
I0903 17:38:12.898475 20433 net.cpp:157] Top shape: 1 128 64 64 (524288)
I0903 17:38:12.898478 20433 net.cpp:165] Memory required for data: 199753728
I0903 17:38:12.898483 20433 layer_factory.hpp:77] Creating layer scale6_branch2a
I0903 17:38:12.898488 20433 net.cpp:100] Creating Layer scale6_branch2a
I0903 17:38:12.898491 20433 net.cpp:434] scale6_branch2a <- res6_branch2a
I0903 17:38:12.898495 20433 net.cpp:395] scale6_branch2a -> res6_branch2a (in-place)
I0903 17:38:12.898520 20433 layer_factory.hpp:77] Creating layer scale6_branch2a
I0903 17:38:12.898593 20433 net.cpp:150] Setting up scale6_branch2a
I0903 17:38:12.898598 20433 net.cpp:157] Top shape: 1 128 64 64 (524288)
I0903 17:38:12.898600 20433 net.cpp:165] Memory required for data: 201850880
I0903 17:38:12.898604 20433 layer_factory.hpp:77] Creating layer res6_branch2a_relu
I0903 17:38:12.898613 20433 net.cpp:100] Creating Layer res6_branch2a_relu
I0903 17:38:12.898617 20433 net.cpp:434] res6_branch2a_relu <- res6_branch2a
I0903 17:38:12.898623 20433 net.cpp:395] res6_branch2a_relu -> res6_branch2a (in-place)
I0903 17:38:12.898630 20433 net.cpp:150] Setting up res6_branch2a_relu
I0903 17:38:12.898654 20433 net.cpp:157] Top shape: 1 128 64 64 (524288)
I0903 17:38:12.898664 20433 net.cpp:165] Memory required for data: 203948032
I0903 17:38:12.898669 20433 layer_factory.hpp:77] Creating layer res6_branch2b
I0903 17:38:12.898680 20433 net.cpp:100] Creating Layer res6_branch2b
I0903 17:38:12.898685 20433 net.cpp:434] res6_branch2b <- res6_branch2a
I0903 17:38:12.898694 20433 net.cpp:408] res6_branch2b -> res6_branch2b
I0903 17:38:12.900804 20433 net.cpp:150] Setting up res6_branch2b
I0903 17:38:12.900837 20433 net.cpp:157] Top shape: 1 128 64 64 (524288)
I0903 17:38:12.900841 20433 net.cpp:165] Memory required for data: 206045184
I0903 17:38:12.900853 20433 layer_factory.hpp:77] Creating layer bn6_branch2b
I0903 17:38:12.900871 20433 net.cpp:100] Creating Layer bn6_branch2b
I0903 17:38:12.900877 20433 net.cpp:434] bn6_branch2b <- res6_branch2b
I0903 17:38:12.900887 20433 net.cpp:395] bn6_branch2b -> res6_branch2b (in-place)
I0903 17:38:12.901036 20433 net.cpp:150] Setting up bn6_branch2b
I0903 17:38:12.901043 20433 net.cpp:157] Top shape: 1 128 64 64 (524288)
I0903 17:38:12.901047 20433 net.cpp:165] Memory required for data: 208142336
I0903 17:38:12.901056 20433 layer_factory.hpp:77] Creating layer scale6_branch2b
I0903 17:38:12.901077 20433 net.cpp:100] Creating Layer scale6_branch2b
I0903 17:38:12.901096 20433 net.cpp:434] scale6_branch2b <- res6_branch2b
I0903 17:38:12.901115 20433 net.cpp:395] scale6_branch2b -> res6_branch2b (in-place)
I0903 17:38:12.901156 20433 layer_factory.hpp:77] Creating layer scale6_branch2b
I0903 17:38:12.901242 20433 net.cpp:150] Setting up scale6_branch2b
I0903 17:38:12.901250 20433 net.cpp:157] Top shape: 1 128 64 64 (524288)
I0903 17:38:12.901255 20433 net.cpp:165] Memory required for data: 210239488
I0903 17:38:12.901262 20433 layer_factory.hpp:77] Creating layer res6_branch2b_relu
I0903 17:38:12.901270 20433 net.cpp:100] Creating Layer res6_branch2b_relu
I0903 17:38:12.901274 20433 net.cpp:434] res6_branch2b_relu <- res6_branch2b
I0903 17:38:12.901280 20433 net.cpp:395] res6_branch2b_relu -> res6_branch2b (in-place)
I0903 17:38:12.901288 20433 net.cpp:150] Setting up res6_branch2b_relu
I0903 17:38:12.901293 20433 net.cpp:157] Top shape: 1 128 64 64 (524288)
I0903 17:38:12.901298 20433 net.cpp:165] Memory required for data: 212336640
I0903 17:38:12.901301 20433 layer_factory.hpp:77] Creating layer res6_branch2c
I0903 17:38:12.901324 20433 net.cpp:100] Creating Layer res6_branch2c
I0903 17:38:12.901329 20433 net.cpp:434] res6_branch2c <- res6_branch2b
I0903 17:38:12.901335 20433 net.cpp:408] res6_branch2c -> res6_branch2c
I0903 17:38:12.901757 20433 net.cpp:150] Setting up res6_branch2c
I0903 17:38:12.901765 20433 net.cpp:157] Top shape: 1 256 64 64 (1048576)
I0903 17:38:12.901769 20433 net.cpp:165] Memory required for data: 216530944
I0903 17:38:12.901777 20433 layer_factory.hpp:77] Creating layer bn6_branch2c
I0903 17:38:12.901787 20433 net.cpp:100] Creating Layer bn6_branch2c
I0903 17:38:12.901792 20433 net.cpp:434] bn6_branch2c <- res6_branch2c
I0903 17:38:12.901798 20433 net.cpp:395] bn6_branch2c -> res6_branch2c (in-place)
I0903 17:38:12.901931 20433 net.cpp:150] Setting up bn6_branch2c
I0903 17:38:12.901937 20433 net.cpp:157] Top shape: 1 256 64 64 (1048576)
I0903 17:38:12.901942 20433 net.cpp:165] Memory required for data: 220725248
I0903 17:38:12.901952 20433 layer_factory.hpp:77] Creating layer scale6_branch2c
I0903 17:38:12.901958 20433 net.cpp:100] Creating Layer scale6_branch2c
I0903 17:38:12.901962 20433 net.cpp:434] scale6_branch2c <- res6_branch2c
I0903 17:38:12.901970 20433 net.cpp:395] scale6_branch2c -> res6_branch2c (in-place)
I0903 17:38:12.902019 20433 layer_factory.hpp:77] Creating layer scale6_branch2c
I0903 17:38:12.902107 20433 net.cpp:150] Setting up scale6_branch2c
I0903 17:38:12.902115 20433 net.cpp:157] Top shape: 1 256 64 64 (1048576)
I0903 17:38:12.902120 20433 net.cpp:165] Memory required for data: 224919552
I0903 17:38:12.902127 20433 layer_factory.hpp:77] Creating layer res6
I0903 17:38:12.902134 20433 net.cpp:100] Creating Layer res6
I0903 17:38:12.902139 20433 net.cpp:434] res6 <- res6_branch1
I0903 17:38:12.902145 20433 net.cpp:434] res6 <- res6_branch2c
I0903 17:38:12.902151 20433 net.cpp:408] res6 -> res6
I0903 17:38:12.902179 20433 net.cpp:150] Setting up res6
I0903 17:38:12.902187 20433 net.cpp:157] Top shape: 1 256 64 64 (1048576)
I0903 17:38:12.902192 20433 net.cpp:165] Memory required for data: 229113856
I0903 17:38:12.902196 20433 layer_factory.hpp:77] Creating layer res6_relu
I0903 17:38:12.902204 20433 net.cpp:100] Creating Layer res6_relu
I0903 17:38:12.902207 20433 net.cpp:434] res6_relu <- res6
I0903 17:38:12.902215 20433 net.cpp:395] res6_relu -> res6 (in-place)
I0903 17:38:12.902221 20433 net.cpp:150] Setting up res6_relu
I0903 17:38:12.902228 20433 net.cpp:157] Top shape: 1 256 64 64 (1048576)
I0903 17:38:12.902232 20433 net.cpp:165] Memory required for data: 233308160
I0903 17:38:12.902238 20433 layer_factory.hpp:77] Creating layer res6_res6_relu_0_split
I0903 17:38:12.902245 20433 net.cpp:100] Creating Layer res6_res6_relu_0_split
I0903 17:38:12.902248 20433 net.cpp:434] res6_res6_relu_0_split <- res6
I0903 17:38:12.902254 20433 net.cpp:408] res6_res6_relu_0_split -> res6_res6_relu_0_split_0
I0903 17:38:12.902271 20433 net.cpp:408] res6_res6_relu_0_split -> res6_res6_relu_0_split_1
I0903 17:38:12.902281 20433 net.cpp:408] res6_res6_relu_0_split -> res6_res6_relu_0_split_2
I0903 17:38:12.902320 20433 net.cpp:150] Setting up res6_res6_relu_0_split
I0903 17:38:12.902328 20433 net.cpp:157] Top shape: 1 256 64 64 (1048576)
I0903 17:38:12.902333 20433 net.cpp:157] Top shape: 1 256 64 64 (1048576)
I0903 17:38:12.902339 20433 net.cpp:157] Top shape: 1 256 64 64 (1048576)
I0903 17:38:12.902343 20433 net.cpp:165] Memory required for data: 245891072
I0903 17:38:12.902348 20433 layer_factory.hpp:77] Creating layer reshg1_up1_branch1
I0903 17:38:12.902359 20433 net.cpp:100] Creating Layer reshg1_up1_branch1
I0903 17:38:12.902362 20433 net.cpp:434] reshg1_up1_branch1 <- res6_res6_relu_0_split_0
I0903 17:38:12.902370 20433 net.cpp:408] reshg1_up1_branch1 -> reshg1_up1_branch1
I0903 17:38:12.903066 20433 net.cpp:150] Setting up reshg1_up1_branch1
I0903 17:38:12.903075 20433 net.cpp:157] Top shape: 1 256 64 64 (1048576)
I0903 17:38:12.903079 20433 net.cpp:165] Memory required for data: 250085376
I0903 17:38:12.903097 20433 layer_factory.hpp:77] Creating layer bnhg1_up1_branch1
I0903 17:38:12.903108 20433 net.cpp:100] Creating Layer bnhg1_up1_branch1
I0903 17:38:12.903122 20433 net.cpp:434] bnhg1_up1_branch1 <- reshg1_up1_branch1
I0903 17:38:12.903131 20433 net.cpp:395] bnhg1_up1_branch1 -> reshg1_up1_branch1 (in-place)
I0903 17:38:12.903275 20433 net.cpp:150] Setting up bnhg1_up1_branch1
I0903 17:38:12.903283 20433 net.cpp:157] Top shape: 1 256 64 64 (1048576)
I0903 17:38:12.903285 20433 net.cpp:165] Memory required for data: 254279680
I0903 17:38:12.903295 20433 layer_factory.hpp:77] Creating layer scalehg1_up1_branch1
I0903 17:38:12.903303 20433 net.cpp:100] Creating Layer scalehg1_up1_branch1
I0903 17:38:12.903309 20433 net.cpp:434] scalehg1_up1_branch1 <- reshg1_up1_branch1
I0903 17:38:12.903318 20433 net.cpp:395] scalehg1_up1_branch1 -> reshg1_up1_branch1 (in-place)
I0903 17:38:12.903352 20433 layer_factory.hpp:77] Creating layer scalehg1_up1_branch1
I0903 17:38:12.903431 20433 net.cpp:150] Setting up scalehg1_up1_branch1
I0903 17:38:12.903437 20433 net.cpp:157] Top shape: 1 256 64 64 (1048576)
I0903 17:38:12.903442 20433 net.cpp:165] Memory required for data: 258473984
I0903 17:38:12.903450 20433 layer_factory.hpp:77] Creating layer reshg1_up1_branch2a
I0903 17:38:12.903460 20433 net.cpp:100] Creating Layer reshg1_up1_branch2a
I0903 17:38:12.903466 20433 net.cpp:434] reshg1_up1_branch2a <- res6_res6_relu_0_split_1
I0903 17:38:12.903475 20433 net.cpp:408] reshg1_up1_branch2a -> reshg1_up1_branch2a
I0903 17:38:12.903890 20433 net.cpp:150] Setting up reshg1_up1_branch2a
I0903 17:38:12.903898 20433 net.cpp:157] Top shape: 1 128 64 64 (524288)
I0903 17:38:12.903903 20433 net.cpp:165] Memory required for data: 260571136
I0903 17:38:12.903909 20433 layer_factory.hpp:77] Creating layer bnhg1_up1_branch2a
I0903 17:38:12.903919 20433 net.cpp:100] Creating Layer bnhg1_up1_branch2a
I0903 17:38:12.903925 20433 net.cpp:434] bnhg1_up1_branch2a <- reshg1_up1_branch2a
I0903 17:38:12.903931 20433 net.cpp:395] bnhg1_up1_branch2a -> reshg1_up1_branch2a (in-place)
I0903 17:38:12.904063 20433 net.cpp:150] Setting up bnhg1_up1_branch2a
I0903 17:38:12.904069 20433 net.cpp:157] Top shape: 1 128 64 64 (524288)
I0903 17:38:12.904074 20433 net.cpp:165] Memory required for data: 262668288
I0903 17:38:12.904084 20433 layer_factory.hpp:77] Creating layer scalehg1_up1_branch2a
I0903 17:38:12.904091 20433 net.cpp:100] Creating Layer scalehg1_up1_branch2a
I0903 17:38:12.904096 20433 net.cpp:434] scalehg1_up1_branch2a <- reshg1_up1_branch2a
I0903 17:38:12.904105 20433 net.cpp:395] scalehg1_up1_branch2a -> reshg1_up1_branch2a (in-place)
I0903 17:38:12.904139 20433 layer_factory.hpp:77] Creating layer scalehg1_up1_branch2a
I0903 17:38:12.904217 20433 net.cpp:150] Setting up scalehg1_up1_branch2a
I0903 17:38:12.904223 20433 net.cpp:157] Top shape: 1 128 64 64 (524288)
I0903 17:38:12.904228 20433 net.cpp:165] Memory required for data: 264765440
I0903 17:38:12.904237 20433 layer_factory.hpp:77] Creating layer reshg1_up1_branch2a_relu
I0903 17:38:12.904252 20433 net.cpp:100] Creating Layer reshg1_up1_branch2a_relu
I0903 17:38:12.904258 20433 net.cpp:434] reshg1_up1_branch2a_relu <- reshg1_up1_branch2a
I0903 17:38:12.904264 20433 net.cpp:395] reshg1_up1_branch2a_relu -> reshg1_up1_branch2a (in-place)
I0903 17:38:12.904273 20433 net.cpp:150] Setting up reshg1_up1_branch2a_relu
I0903 17:38:12.904279 20433 net.cpp:157] Top shape: 1 128 64 64 (524288)
I0903 17:38:12.904284 20433 net.cpp:165] Memory required for data: 266862592
I0903 17:38:12.904287 20433 layer_factory.hpp:77] Creating layer reshg1_up1_branch2b
I0903 17:38:12.904299 20433 net.cpp:100] Creating Layer reshg1_up1_branch2b
I0903 17:38:12.904304 20433 net.cpp:434] reshg1_up1_branch2b <- reshg1_up1_branch2a
I0903 17:38:12.904310 20433 net.cpp:408] reshg1_up1_branch2b -> reshg1_up1_branch2b
I0903 17:38:12.906076 20433 net.cpp:150] Setting up reshg1_up1_branch2b
I0903 17:38:12.906090 20433 net.cpp:157] Top shape: 1 128 64 64 (524288)
I0903 17:38:12.906095 20433 net.cpp:165] Memory required for data: 268959744
I0903 17:38:12.906102 20433 layer_factory.hpp:77] Creating layer bnhg1_up1_branch2b
I0903 17:38:12.906114 20433 net.cpp:100] Creating Layer bnhg1_up1_branch2b
I0903 17:38:12.906121 20433 net.cpp:434] bnhg1_up1_branch2b <- reshg1_up1_branch2b
I0903 17:38:12.906128 20433 net.cpp:395] bnhg1_up1_branch2b -> reshg1_up1_branch2b (in-place)
I0903 17:38:12.906272 20433 net.cpp:150] Setting up bnhg1_up1_branch2b
I0903 17:38:12.906280 20433 net.cpp:157] Top shape: 1 128 64 64 (524288)
I0903 17:38:12.906285 20433 net.cpp:165] Memory required for data: 271056896
I0903 17:38:12.906292 20433 layer_factory.hpp:77] Creating layer scalehg1_up1_branch2b
I0903 17:38:12.906303 20433 net.cpp:100] Creating Layer scalehg1_up1_branch2b
I0903 17:38:12.906308 20433 net.cpp:434] scalehg1_up1_branch2b <- reshg1_up1_branch2b
I0903 17:38:12.906318 20433 net.cpp:395] scalehg1_up1_branch2b -> reshg1_up1_branch2b (in-place)
I0903 17:38:12.906383 20433 layer_factory.hpp:77] Creating layer scalehg1_up1_branch2b
I0903 17:38:12.906478 20433 net.cpp:150] Setting up scalehg1_up1_branch2b
I0903 17:38:12.906487 20433 net.cpp:157] Top shape: 1 128 64 64 (524288)
I0903 17:38:12.906492 20433 net.cpp:165] Memory required for data: 273154048
I0903 17:38:12.906499 20433 layer_factory.hpp:77] Creating layer reshg1_up1_branch2b_relu
I0903 17:38:12.906508 20433 net.cpp:100] Creating Layer reshg1_up1_branch2b_relu
I0903 17:38:12.906514 20433 net.cpp:434] reshg1_up1_branch2b_relu <- reshg1_up1_branch2b
I0903 17:38:12.906522 20433 net.cpp:395] reshg1_up1_branch2b_relu -> reshg1_up1_branch2b (in-place)
I0903 17:38:12.906540 20433 net.cpp:150] Setting up reshg1_up1_branch2b_relu
I0903 17:38:12.906556 20433 net.cpp:157] Top shape: 1 128 64 64 (524288)
I0903 17:38:12.906561 20433 net.cpp:165] Memory required for data: 275251200
I0903 17:38:12.906565 20433 layer_factory.hpp:77] Creating layer reshg1_up1_branch2c
I0903 17:38:12.906576 20433 net.cpp:100] Creating Layer reshg1_up1_branch2c
I0903 17:38:12.906581 20433 net.cpp:434] reshg1_up1_branch2c <- reshg1_up1_branch2b
I0903 17:38:12.906589 20433 net.cpp:408] reshg1_up1_branch2c -> reshg1_up1_branch2c
I0903 17:38:12.907340 20433 net.cpp:150] Setting up reshg1_up1_branch2c
I0903 17:38:12.907351 20433 net.cpp:157] Top shape: 1 256 64 64 (1048576)
I0903 17:38:12.907354 20433 net.cpp:165] Memory required for data: 279445504
I0903 17:38:12.907361 20433 layer_factory.hpp:77] Creating layer bnhg1_up1_branch2c
I0903 17:38:12.907371 20433 net.cpp:100] Creating Layer bnhg1_up1_branch2c
I0903 17:38:12.907387 20433 net.cpp:434] bnhg1_up1_branch2c <- reshg1_up1_branch2c
I0903 17:38:12.907397 20433 net.cpp:395] bnhg1_up1_branch2c -> reshg1_up1_branch2c (in-place)
I0903 17:38:12.907541 20433 net.cpp:150] Setting up bnhg1_up1_branch2c
I0903 17:38:12.907548 20433 net.cpp:157] Top shape: 1 256 64 64 (1048576)
I0903 17:38:12.907552 20433 net.cpp:165] Memory required for data: 283639808
I0903 17:38:12.907562 20433 layer_factory.hpp:77] Creating layer scalehg1_up1_branch2c
I0903 17:38:12.907588 20433 net.cpp:100] Creating Layer scalehg1_up1_branch2c
I0903 17:38:12.907594 20433 net.cpp:434] scalehg1_up1_branch2c <- reshg1_up1_branch2c
I0903 17:38:12.907603 20433 net.cpp:395] scalehg1_up1_branch2c -> reshg1_up1_branch2c (in-place)
I0903 17:38:12.907644 20433 layer_factory.hpp:77] Creating layer scalehg1_up1_branch2c
I0903 17:38:12.907724 20433 net.cpp:150] Setting up scalehg1_up1_branch2c
I0903 17:38:12.907733 20433 net.cpp:157] Top shape: 1 256 64 64 (1048576)
I0903 17:38:12.907738 20433 net.cpp:165] Memory required for data: 287834112
I0903 17:38:12.907745 20433 layer_factory.hpp:77] Creating layer reshg1_up1
I0903 17:38:12.907763 20433 net.cpp:100] Creating Layer reshg1_up1
I0903 17:38:12.907768 20433 net.cpp:434] reshg1_up1 <- reshg1_up1_branch1
I0903 17:38:12.907773 20433 net.cpp:434] reshg1_up1 <- reshg1_up1_branch2c
I0903 17:38:12.907788 20433 net.cpp:408] reshg1_up1 -> reshg1_up1
I0903 17:38:12.907814 20433 net.cpp:150] Setting up reshg1_up1
I0903 17:38:12.907821 20433 net.cpp:157] Top shape: 1 256 64 64 (1048576)
I0903 17:38:12.907825 20433 net.cpp:165] Memory required for data: 292028416
I0903 17:38:12.907840 20433 layer_factory.hpp:77] Creating layer reshg1_up1_relu
I0903 17:38:12.907847 20433 net.cpp:100] Creating Layer reshg1_up1_relu
I0903 17:38:12.907853 20433 net.cpp:434] reshg1_up1_relu <- reshg1_up1
I0903 17:38:12.907861 20433 net.cpp:395] reshg1_up1_relu -> reshg1_up1 (in-place)
I0903 17:38:12.907877 20433 net.cpp:150] Setting up reshg1_up1_relu
I0903 17:38:12.907882 20433 net.cpp:157] Top shape: 1 256 64 64 (1048576)
I0903 17:38:12.907886 20433 net.cpp:165] Memory required for data: 296222720
I0903 17:38:12.907891 20433 layer_factory.hpp:77] Creating layer reshg1_up1_reshg1_up1_relu_0_split
I0903 17:38:12.907896 20433 net.cpp:100] Creating Layer reshg1_up1_reshg1_up1_relu_0_split
I0903 17:38:12.907899 20433 net.cpp:434] reshg1_up1_reshg1_up1_relu_0_split <- reshg1_up1
I0903 17:38:12.907908 20433 net.cpp:408] reshg1_up1_reshg1_up1_relu_0_split -> reshg1_up1_reshg1_up1_relu_0_split_0
I0903 17:38:12.907919 20433 net.cpp:408] reshg1_up1_reshg1_up1_relu_0_split -> reshg1_up1_reshg1_up1_relu_0_split_1
I0903 17:38:12.907959 20433 net.cpp:150] Setting up reshg1_up1_reshg1_up1_relu_0_split
I0903 17:38:12.907966 20433 net.cpp:157] Top shape: 1 256 64 64 (1048576)
I0903 17:38:12.907973 20433 net.cpp:157] Top shape: 1 256 64 64 (1048576)
I0903 17:38:12.907985 20433 net.cpp:165] Memory required for data: 304611328
I0903 17:38:12.907991 20433 layer_factory.hpp:77] Creating layer reshg1_up2_branch2a
I0903 17:38:12.908001 20433 net.cpp:100] Creating Layer reshg1_up2_branch2a
I0903 17:38:12.908006 20433 net.cpp:434] reshg1_up2_branch2a <- reshg1_up1_reshg1_up1_relu_0_split_0
I0903 17:38:12.908015 20433 net.cpp:408] reshg1_up2_branch2a -> reshg1_up2_branch2a
I0903 17:38:12.908445 20433 net.cpp:150] Setting up reshg1_up2_branch2a
I0903 17:38:12.908454 20433 net.cpp:157] Top shape: 1 128 64 64 (524288)
I0903 17:38:12.908458 20433 net.cpp:165] Memory required for data: 306708480
I0903 17:38:12.908465 20433 layer_factory.hpp:77] Creating layer bnhg1_up2_branch2a
I0903 17:38:12.908485 20433 net.cpp:100] Creating Layer bnhg1_up2_branch2a
I0903 17:38:12.908490 20433 net.cpp:434] bnhg1_up2_branch2a <- reshg1_up2_branch2a
I0903 17:38:12.908496 20433 net.cpp:395] bnhg1_up2_branch2a -> reshg1_up2_branch2a (in-place)
I0903 17:38:12.908715 20433 net.cpp:150] Setting up bnhg1_up2_branch2a
I0903 17:38:12.908728 20433 net.cpp:157] Top shape: 1 128 64 64 (524288)
I0903 17:38:12.908733 20433 net.cpp:165] Memory required for data: 308805632
I0903 17:38:12.908743 20433 layer_factory.hpp:77] Creating layer scalehg1_up2_branch2a
I0903 17:38:12.908754 20433 net.cpp:100] Creating Layer scalehg1_up2_branch2a
I0903 17:38:12.908761 20433 net.cpp:434] scalehg1_up2_branch2a <- reshg1_up2_branch2a
I0903 17:38:12.908771 20433 net.cpp:395] scalehg1_up2_branch2a -> reshg1_up2_branch2a (in-place)
I0903 17:38:12.908812 20433 layer_factory.hpp:77] Creating layer scalehg1_up2_branch2a
I0903 17:38:12.909011 20433 net.cpp:150] Setting up scalehg1_up2_branch2a
I0903 17:38:12.909027 20433 net.cpp:157] Top shape: 1 128 64 64 (524288)
I0903 17:38:12.909031 20433 net.cpp:165] Memory required for data: 310902784
I0903 17:38:12.909039 20433 layer_factory.hpp:77] Creating layer reshg1_up2_branch2a_relu
I0903 17:38:12.909046 20433 net.cpp:100] Creating Layer reshg1_up2_branch2a_relu
I0903 17:38:12.909054 20433 net.cpp:434] reshg1_up2_branch2a_relu <- reshg1_up2_branch2a
I0903 17:38:12.909061 20433 net.cpp:395] reshg1_up2_branch2a_relu -> reshg1_up2_branch2a (in-place)
I0903 17:38:12.909070 20433 net.cpp:150] Setting up reshg1_up2_branch2a_relu
I0903 17:38:12.909075 20433 net.cpp:157] Top shape: 1 128 64 64 (524288)
I0903 17:38:12.909076 20433 net.cpp:165] Memory required for data: 312999936
I0903 17:38:12.909081 20433 layer_factory.hpp:77] Creating layer reshg1_up2_branch2b
I0903 17:38:12.909104 20433 net.cpp:100] Creating Layer reshg1_up2_branch2b
I0903 17:38:12.909109 20433 net.cpp:434] reshg1_up2_branch2b <- reshg1_up2_branch2a
I0903 17:38:12.909121 20433 net.cpp:408] reshg1_up2_branch2b -> reshg1_up2_branch2b
I0903 17:38:12.910851 20433 net.cpp:150] Setting up reshg1_up2_branch2b
I0903 17:38:12.910864 20433 net.cpp:157] Top shape: 1 128 64 64 (524288)
I0903 17:38:12.910868 20433 net.cpp:165] Memory required for data: 315097088
I0903 17:38:12.910874 20433 layer_factory.hpp:77] Creating layer bnhg1_up2_branch2b
I0903 17:38:12.910887 20433 net.cpp:100] Creating Layer bnhg1_up2_branch2b
I0903 17:38:12.910903 20433 net.cpp:434] bnhg1_up2_branch2b <- reshg1_up2_branch2b
I0903 17:38:12.910913 20433 net.cpp:395] bnhg1_up2_branch2b -> reshg1_up2_branch2b (in-place)
I0903 17:38:12.911056 20433 net.cpp:150] Setting up bnhg1_up2_branch2b
I0903 17:38:12.911064 20433 net.cpp:157] Top shape: 1 128 64 64 (524288)
I0903 17:38:12.911068 20433 net.cpp:165] Memory required for data: 317194240
I0903 17:38:12.911078 20433 layer_factory.hpp:77] Creating layer scalehg1_up2_branch2b
I0903 17:38:12.911098 20433 net.cpp:100] Creating Layer scalehg1_up2_branch2b
I0903 17:38:12.911103 20433 net.cpp:434] scalehg1_up2_branch2b <- reshg1_up2_branch2b
I0903 17:38:12.911111 20433 net.cpp:395] scalehg1_up2_branch2b -> reshg1_up2_branch2b (in-place)
I0903 17:38:12.911151 20433 layer_factory.hpp:77] Creating layer scalehg1_up2_branch2b
I0903 17:38:12.911232 20433 net.cpp:150] Setting up scalehg1_up2_branch2b
I0903 17:38:12.911240 20433 net.cpp:157] Top shape: 1 128 64 64 (524288)
I0903 17:38:12.911244 20433 net.cpp:165] Memory required for data: 319291392
I0903 17:38:12.911262 20433 layer_factory.hpp:77] Creating layer reshg1_up2_branch2b_relu
I0903 17:38:12.911270 20433 net.cpp:100] Creating Layer reshg1_up2_branch2b_relu
I0903 17:38:12.911286 20433 net.cpp:434] reshg1_up2_branch2b_relu <- reshg1_up2_branch2b
I0903 17:38:12.911303 20433 net.cpp:395] reshg1_up2_branch2b_relu -> reshg1_up2_branch2b (in-place)
I0903 17:38:12.911321 20433 net.cpp:150] Setting up reshg1_up2_branch2b_relu
I0903 17:38:12.911337 20433 net.cpp:157] Top shape: 1 128 64 64 (524288)
I0903 17:38:12.911350 20433 net.cpp:165] Memory required for data: 321388544
I0903 17:38:12.911363 20433 layer_factory.hpp:77] Creating layer reshg1_up2_branch2c
I0903 17:38:12.911386 20433 net.cpp:100] Creating Layer reshg1_up2_branch2c
I0903 17:38:12.911401 20433 net.cpp:434] reshg1_up2_branch2c <- reshg1_up2_branch2b
I0903 17:38:12.911420 20433 net.cpp:408] reshg1_up2_branch2c -> reshg1_up2_branch2c
I0903 17:38:12.911916 20433 net.cpp:150] Setting up reshg1_up2_branch2c
I0903 17:38:12.911926 20433 net.cpp:157] Top shape: 1 256 64 64 (1048576)
I0903 17:38:12.911929 20433 net.cpp:165] Memory required for data: 325582848
I0903 17:38:12.911937 20433 layer_factory.hpp:77] Creating layer bnhg1_up2_branch2c
I0903 17:38:12.911945 20433 net.cpp:100] Creating Layer bnhg1_up2_branch2c
I0903 17:38:12.911952 20433 net.cpp:434] bnhg1_up2_branch2c <- reshg1_up2_branch2c
I0903 17:38:12.911958 20433 net.cpp:395] bnhg1_up2_branch2c -> reshg1_up2_branch2c (in-place)
I0903 17:38:12.912145 20433 net.cpp:150] Setting up bnhg1_up2_branch2c
I0903 17:38:12.912164 20433 net.cpp:157] Top shape: 1 256 64 64 (1048576)
I0903 17:38:12.912169 20433 net.cpp:165] Memory required for data: 329777152
I0903 17:38:12.912194 20433 layer_factory.hpp:77] Creating layer scalehg1_up2_branch2c
I0903 17:38:12.912205 20433 net.cpp:100] Creating Layer scalehg1_up2_branch2c
I0903 17:38:12.912211 20433 net.cpp:434] scalehg1_up2_branch2c <- reshg1_up2_branch2c
I0903 17:38:12.912219 20433 net.cpp:395] scalehg1_up2_branch2c -> reshg1_up2_branch2c (in-place)
I0903 17:38:12.912262 20433 layer_factory.hpp:77] Creating layer scalehg1_up2_branch2c
I0903 17:38:12.912389 20433 net.cpp:150] Setting up scalehg1_up2_branch2c
I0903 17:38:12.912398 20433 net.cpp:157] Top shape: 1 256 64 64 (1048576)
I0903 17:38:12.912403 20433 net.cpp:165] Memory required for data: 333971456
I0903 17:38:12.912412 20433 layer_factory.hpp:77] Creating layer reshg1_up2
I0903 17:38:12.912421 20433 net.cpp:100] Creating Layer reshg1_up2
I0903 17:38:12.912427 20433 net.cpp:434] reshg1_up2 <- reshg1_up1_reshg1_up1_relu_0_split_1
I0903 17:38:12.912433 20433 net.cpp:434] reshg1_up2 <- reshg1_up2_branch2c
I0903 17:38:12.912441 20433 net.cpp:408] reshg1_up2 -> reshg1_up2
I0903 17:38:12.912467 20433 net.cpp:150] Setting up reshg1_up2
I0903 17:38:12.912475 20433 net.cpp:157] Top shape: 1 256 64 64 (1048576)
I0903 17:38:12.912480 20433 net.cpp:165] Memory required for data: 338165760
I0903 17:38:12.912484 20433 layer_factory.hpp:77] Creating layer reshg1_up2_relu
I0903 17:38:12.912492 20433 net.cpp:100] Creating Layer reshg1_up2_relu
I0903 17:38:12.912497 20433 net.cpp:434] reshg1_up2_relu <- reshg1_up2
I0903 17:38:12.912503 20433 net.cpp:395] reshg1_up2_relu -> reshg1_up2 (in-place)
I0903 17:38:12.912511 20433 net.cpp:150] Setting up reshg1_up2_relu
I0903 17:38:12.912518 20433 net.cpp:157] Top shape: 1 256 64 64 (1048576)
I0903 17:38:12.912523 20433 net.cpp:165] Memory required for data: 342360064
I0903 17:38:12.912525 20433 layer_factory.hpp:77] Creating layer reshg1_up2_reshg1_up2_relu_0_split
I0903 17:38:12.912533 20433 net.cpp:100] Creating Layer reshg1_up2_reshg1_up2_relu_0_split
I0903 17:38:12.912538 20433 net.cpp:434] reshg1_up2_reshg1_up2_relu_0_split <- reshg1_up2
I0903 17:38:12.912544 20433 net.cpp:408] reshg1_up2_reshg1_up2_relu_0_split -> reshg1_up2_reshg1_up2_relu_0_split_0
I0903 17:38:12.912554 20433 net.cpp:408] reshg1_up2_reshg1_up2_relu_0_split -> reshg1_up2_reshg1_up2_relu_0_split_1
I0903 17:38:12.912588 20433 net.cpp:150] Setting up reshg1_up2_reshg1_up2_relu_0_split
I0903 17:38:12.912596 20433 net.cpp:157] Top shape: 1 256 64 64 (1048576)
I0903 17:38:12.912602 20433 net.cpp:157] Top shape: 1 256 64 64 (1048576)
I0903 17:38:12.912606 20433 net.cpp:165] Memory required for data: 350748672
I0903 17:38:12.912611 20433 layer_factory.hpp:77] Creating layer reshg1_up4_branch1
I0903 17:38:12.912621 20433 net.cpp:100] Creating Layer reshg1_up4_branch1
I0903 17:38:12.912626 20433 net.cpp:434] reshg1_up4_branch1 <- reshg1_up2_reshg1_up2_relu_0_split_0
I0903 17:38:12.912634 20433 net.cpp:408] reshg1_up4_branch1 -> reshg1_up4_branch1
I0903 17:38:12.915139 20433 net.cpp:150] Setting up reshg1_up4_branch1
I0903 17:38:12.915158 20433 net.cpp:157] Top shape: 1 512 64 64 (2097152)
I0903 17:38:12.915176 20433 net.cpp:165] Memory required for data: 359137280
I0903 17:38:12.915194 20433 layer_factory.hpp:77] Creating layer bnhg1_up4_branch1
I0903 17:38:12.915207 20433 net.cpp:100] Creating Layer bnhg1_up4_branch1
I0903 17:38:12.915215 20433 net.cpp:434] bnhg1_up4_branch1 <- reshg1_up4_branch1
I0903 17:38:12.915221 20433 net.cpp:395] bnhg1_up4_branch1 -> reshg1_up4_branch1 (in-place)
I0903 17:38:12.916193 20433 net.cpp:150] Setting up bnhg1_up4_branch1
I0903 17:38:12.916218 20433 net.cpp:157] Top shape: 1 512 64 64 (2097152)
I0903 17:38:12.916221 20433 net.cpp:165] Memory required for data: 367525888
I0903 17:38:12.916234 20433 layer_factory.hpp:77] Creating layer scalehg1_up4_branch1
I0903 17:38:12.916263 20433 net.cpp:100] Creating Layer scalehg1_up4_branch1
I0903 17:38:12.916272 20433 net.cpp:434] scalehg1_up4_branch1 <- reshg1_up4_branch1
I0903 17:38:12.916296 20433 net.cpp:395] scalehg1_up4_branch1 -> reshg1_up4_branch1 (in-place)
I0903 17:38:12.916374 20433 layer_factory.hpp:77] Creating layer scalehg1_up4_branch1
I0903 17:38:12.916529 20433 net.cpp:150] Setting up scalehg1_up4_branch1
I0903 17:38:12.916563 20433 net.cpp:157] Top shape: 1 512 64 64 (2097152)
I0903 17:38:12.916581 20433 net.cpp:165] Memory required for data: 375914496
I0903 17:38:12.916604 20433 layer_factory.hpp:77] Creating layer reshg1_up4_branch2a
I0903 17:38:12.916636 20433 net.cpp:100] Creating Layer reshg1_up4_branch2a
I0903 17:38:12.916656 20433 net.cpp:434] reshg1_up4_branch2a <- reshg1_up2_reshg1_up2_relu_0_split_1
I0903 17:38:12.916681 20433 net.cpp:408] reshg1_up4_branch2a -> reshg1_up4_branch2a
I0903 17:38:12.917472 20433 net.cpp:150] Setting up reshg1_up4_branch2a
I0903 17:38:12.917489 20433 net.cpp:157] Top shape: 1 256 64 64 (1048576)
I0903 17:38:12.917492 20433 net.cpp:165] Memory required for data: 380108800
I0903 17:38:12.917497 20433 layer_factory.hpp:77] Creating layer bnhg1_up4_branch2a
I0903 17:38:12.917523 20433 net.cpp:100] Creating Layer bnhg1_up4_branch2a
I0903 17:38:12.917532 20433 net.cpp:434] bnhg1_up4_branch2a <- reshg1_up4_branch2a
I0903 17:38:12.917544 20433 net.cpp:395] bnhg1_up4_branch2a -> reshg1_up4_branch2a (in-place)
I0903 17:38:12.917695 20433 net.cpp:150] Setting up bnhg1_up4_branch2a
I0903 17:38:12.917703 20433 net.cpp:157] Top shape: 1 256 64 64 (1048576)
I0903 17:38:12.917706 20433 net.cpp:165] Memory required for data: 384303104
I0903 17:38:12.917714 20433 layer_factory.hpp:77] Creating layer scalehg1_up4_branch2a
I0903 17:38:12.917726 20433 net.cpp:100] Creating Layer scalehg1_up4_branch2a
I0903 17:38:12.917732 20433 net.cpp:434] scalehg1_up4_branch2a <- reshg1_up4_branch2a
I0903 17:38:12.917742 20433 net.cpp:395] scalehg1_up4_branch2a -> reshg1_up4_branch2a (in-place)
I0903 17:38:12.917780 20433 layer_factory.hpp:77] Creating layer scalehg1_up4_branch2a
I0903 17:38:12.917870 20433 net.cpp:150] Setting up scalehg1_up4_branch2a
I0903 17:38:12.917876 20433 net.cpp:157] Top shape: 1 256 64 64 (1048576)
I0903 17:38:12.917878 20433 net.cpp:165] Memory required for data: 388497408
I0903 17:38:12.917883 20433 layer_factory.hpp:77] Creating layer reshg1_up4_branch2a_relu
I0903 17:38:12.917893 20433 net.cpp:100] Creating Layer reshg1_up4_branch2a_relu
I0903 17:38:12.917898 20433 net.cpp:434] reshg1_up4_branch2a_relu <- reshg1_up4_branch2a
I0903 17:38:12.917906 20433 net.cpp:395] reshg1_up4_branch2a_relu -> reshg1_up4_branch2a (in-place)
I0903 17:38:12.917933 20433 net.cpp:150] Setting up reshg1_up4_branch2a_relu
I0903 17:38:12.917940 20433 net.cpp:157] Top shape: 1 256 64 64 (1048576)
I0903 17:38:12.917943 20433 net.cpp:165] Memory required for data: 392691712
I0903 17:38:12.917946 20433 layer_factory.hpp:77] Creating layer reshg1_up4_branch2b
I0903 17:38:12.917963 20433 net.cpp:100] Creating Layer reshg1_up4_branch2b
I0903 17:38:12.917968 20433 net.cpp:434] reshg1_up4_branch2b <- reshg1_up4_branch2a
I0903 17:38:12.917978 20433 net.cpp:408] reshg1_up4_branch2b -> reshg1_up4_branch2b
I0903 17:38:12.923940 20433 net.cpp:150] Setting up reshg1_up4_branch2b
I0903 17:38:12.923969 20433 net.cpp:157] Top shape: 1 256 64 64 (1048576)
I0903 17:38:12.923972 20433 net.cpp:165] Memory required for data: 396886016
I0903 17:38:12.923990 20433 layer_factory.hpp:77] Creating layer bnhg1_up4_branch2b
I0903 17:38:12.924033 20433 net.cpp:100] Creating Layer bnhg1_up4_branch2b
I0903 17:38:12.924041 20433 net.cpp:434] bnhg1_up4_branch2b <- reshg1_up4_branch2b
I0903 17:38:12.924053 20433 net.cpp:395] bnhg1_up4_branch2b -> reshg1_up4_branch2b (in-place)
I0903 17:38:12.924223 20433 net.cpp:150] Setting up bnhg1_up4_branch2b
I0903 17:38:12.924232 20433 net.cpp:157] Top shape: 1 256 64 64 (1048576)
I0903 17:38:12.924234 20433 net.cpp:165] Memory required for data: 401080320
I0903 17:38:12.924244 20433 layer_factory.hpp:77] Creating layer scalehg1_up4_branch2b
I0903 17:38:12.924257 20433 net.cpp:100] Creating Layer scalehg1_up4_branch2b
I0903 17:38:12.924263 20433 net.cpp:434] scalehg1_up4_branch2b <- reshg1_up4_branch2b
I0903 17:38:12.924286 20433 net.cpp:395] scalehg1_up4_branch2b -> reshg1_up4_branch2b (in-place)
I0903 17:38:12.924332 20433 layer_factory.hpp:77] Creating layer scalehg1_up4_branch2b
I0903 17:38:12.924422 20433 net.cpp:150] Setting up scalehg1_up4_branch2b
I0903 17:38:12.924428 20433 net.cpp:157] Top shape: 1 256 64 64 (1048576)
I0903 17:38:12.924432 20433 net.cpp:165] Memory required for data: 405274624
I0903 17:38:12.924441 20433 layer_factory.hpp:77] Creating layer reshg1_up4_branch2b_relu
I0903 17:38:12.924449 20433 net.cpp:100] Creating Layer reshg1_up4_branch2b_relu
I0903 17:38:12.924455 20433 net.cpp:434] reshg1_up4_branch2b_relu <- reshg1_up4_branch2b
I0903 17:38:12.924463 20433 net.cpp:395] reshg1_up4_branch2b_relu -> reshg1_up4_branch2b (in-place)
I0903 17:38:12.924473 20433 net.cpp:150] Setting up reshg1_up4_branch2b_relu
I0903 17:38:12.924479 20433 net.cpp:157] Top shape: 1 256 64 64 (1048576)
I0903 17:38:12.924484 20433 net.cpp:165] Memory required for data: 409468928
I0903 17:38:12.924489 20433 layer_factory.hpp:77] Creating layer reshg1_up4_branch2c
I0903 17:38:12.924502 20433 net.cpp:100] Creating Layer reshg1_up4_branch2c
I0903 17:38:12.924518 20433 net.cpp:434] reshg1_up4_branch2c <- reshg1_up4_branch2b
I0903 17:38:12.924530 20433 net.cpp:408] reshg1_up4_branch2c -> reshg1_up4_branch2c
I0903 17:38:12.925776 20433 net.cpp:150] Setting up reshg1_up4_branch2c
I0903 17:38:12.925784 20433 net.cpp:157] Top shape: 1 512 64 64 (2097152)
I0903 17:38:12.925788 20433 net.cpp:165] Memory required for data: 417857536
I0903 17:38:12.925794 20433 layer_factory.hpp:77] Creating layer bnhg1_up4_branch2c
I0903 17:38:12.925804 20433 net.cpp:100] Creating Layer bnhg1_up4_branch2c
I0903 17:38:12.925809 20433 net.cpp:434] bnhg1_up4_branch2c <- reshg1_up4_branch2c
I0903 17:38:12.925817 20433 net.cpp:395] bnhg1_up4_branch2c -> reshg1_up4_branch2c (in-place)
I0903 17:38:12.925956 20433 net.cpp:150] Setting up bnhg1_up4_branch2c
I0903 17:38:12.925962 20433 net.cpp:157] Top shape: 1 512 64 64 (2097152)
I0903 17:38:12.925966 20433 net.cpp:165] Memory required for data: 426246144
I0903 17:38:12.925974 20433 layer_factory.hpp:77] Creating layer scalehg1_up4_branch2c
I0903 17:38:12.925982 20433 net.cpp:100] Creating Layer scalehg1_up4_branch2c
I0903 17:38:12.925987 20433 net.cpp:434] scalehg1_up4_branch2c <- reshg1_up4_branch2c
I0903 17:38:12.925995 20433 net.cpp:395] scalehg1_up4_branch2c -> reshg1_up4_branch2c (in-place)
I0903 17:38:12.926028 20433 layer_factory.hpp:77] Creating layer scalehg1_up4_branch2c
I0903 17:38:12.926111 20433 net.cpp:150] Setting up scalehg1_up4_branch2c
I0903 17:38:12.926120 20433 net.cpp:157] Top shape: 1 512 64 64 (2097152)
I0903 17:38:12.926123 20433 net.cpp:165] Memory required for data: 434634752
I0903 17:38:12.926131 20433 layer_factory.hpp:77] Creating layer reshg1_up4
I0903 17:38:12.926141 20433 net.cpp:100] Creating Layer reshg1_up4
I0903 17:38:12.926144 20433 net.cpp:434] reshg1_up4 <- reshg1_up4_branch1
I0903 17:38:12.926151 20433 net.cpp:434] reshg1_up4 <- reshg1_up4_branch2c
I0903 17:38:12.926157 20433 net.cpp:408] reshg1_up4 -> reshg1_up4
I0903 17:38:12.926179 20433 net.cpp:150] Setting up reshg1_up4
I0903 17:38:12.926187 20433 net.cpp:157] Top shape: 1 512 64 64 (2097152)
I0903 17:38:12.926190 20433 net.cpp:165] Memory required for data: 443023360
I0903 17:38:12.926197 20433 layer_factory.hpp:77] Creating layer reshg1_up4_relu
I0903 17:38:12.926203 20433 net.cpp:100] Creating Layer reshg1_up4_relu
I0903 17:38:12.926206 20433 net.cpp:434] reshg1_up4_relu <- reshg1_up4
I0903 17:38:12.926214 20433 net.cpp:395] reshg1_up4_relu -> reshg1_up4 (in-place)
I0903 17:38:12.926223 20433 net.cpp:150] Setting up reshg1_up4_relu
I0903 17:38:12.926228 20433 net.cpp:157] Top shape: 1 512 64 64 (2097152)
I0903 17:38:12.926230 20433 net.cpp:165] Memory required for data: 451411968
I0903 17:38:12.926232 20433 layer_factory.hpp:77] Creating layer hg1_pool1
I0903 17:38:12.926239 20433 net.cpp:100] Creating Layer hg1_pool1
I0903 17:38:12.926259 20433 net.cpp:434] hg1_pool1 <- res6_res6_relu_0_split_2
I0903 17:38:12.926275 20433 net.cpp:408] hg1_pool1 -> hg1_pool1
I0903 17:38:12.926316 20433 net.cpp:150] Setting up hg1_pool1
I0903 17:38:12.926323 20433 net.cpp:157] Top shape: 1 256 32 32 (262144)
I0903 17:38:12.926327 20433 net.cpp:165] Memory required for data: 452460544
I0903 17:38:12.926332 20433 layer_factory.hpp:77] Creating layer hg1_pool1_hg1_pool1_0_split
I0903 17:38:12.926344 20433 net.cpp:100] Creating Layer hg1_pool1_hg1_pool1_0_split
I0903 17:38:12.926348 20433 net.cpp:434] hg1_pool1_hg1_pool1_0_split <- hg1_pool1
I0903 17:38:12.926357 20433 net.cpp:408] hg1_pool1_hg1_pool1_0_split -> hg1_pool1_hg1_pool1_0_split_0
I0903 17:38:12.926365 20433 net.cpp:408] hg1_pool1_hg1_pool1_0_split -> hg1_pool1_hg1_pool1_0_split_1
I0903 17:38:12.926394 20433 net.cpp:150] Setting up hg1_pool1_hg1_pool1_0_split
I0903 17:38:12.926401 20433 net.cpp:157] Top shape: 1 256 32 32 (262144)
I0903 17:38:12.926406 20433 net.cpp:157] Top shape: 1 256 32 32 (262144)
I0903 17:38:12.926410 20433 net.cpp:165] Memory required for data: 454557696
I0903 17:38:12.926414 20433 layer_factory.hpp:77] Creating layer reshg1_low1_branch1
I0903 17:38:12.926424 20433 net.cpp:100] Creating Layer reshg1_low1_branch1
I0903 17:38:12.926429 20433 net.cpp:434] reshg1_low1_branch1 <- hg1_pool1_hg1_pool1_0_split_0
I0903 17:38:12.926439 20433 net.cpp:408] reshg1_low1_branch1 -> reshg1_low1_branch1
I0903 17:38:12.927125 20433 net.cpp:150] Setting up reshg1_low1_branch1
I0903 17:38:12.927134 20433 net.cpp:157] Top shape: 1 256 32 32 (262144)
I0903 17:38:12.927136 20433 net.cpp:165] Memory required for data: 455606272
I0903 17:38:12.927145 20433 layer_factory.hpp:77] Creating layer bnhg1_low1_branch1
I0903 17:38:12.927155 20433 net.cpp:100] Creating Layer bnhg1_low1_branch1
I0903 17:38:12.927158 20433 net.cpp:434] bnhg1_low1_branch1 <- reshg1_low1_branch1
I0903 17:38:12.927166 20433 net.cpp:395] bnhg1_low1_branch1 -> reshg1_low1_branch1 (in-place)
I0903 17:38:12.927296 20433 net.cpp:150] Setting up bnhg1_low1_branch1
I0903 17:38:12.927304 20433 net.cpp:157] Top shape: 1 256 32 32 (262144)
I0903 17:38:12.927309 20433 net.cpp:165] Memory required for data: 456654848
I0903 17:38:12.927317 20433 layer_factory.hpp:77] Creating layer scalehg1_low1_branch1
I0903 17:38:12.927326 20433 net.cpp:100] Creating Layer scalehg1_low1_branch1
I0903 17:38:12.927331 20433 net.cpp:434] scalehg1_low1_branch1 <- reshg1_low1_branch1
I0903 17:38:12.927338 20433 net.cpp:395] scalehg1_low1_branch1 -> reshg1_low1_branch1 (in-place)
I0903 17:38:12.927371 20433 layer_factory.hpp:77] Creating layer scalehg1_low1_branch1
I0903 17:38:12.927448 20433 net.cpp:150] Setting up scalehg1_low1_branch1
I0903 17:38:12.927456 20433 net.cpp:157] Top shape: 1 256 32 32 (262144)
I0903 17:38:12.927459 20433 net.cpp:165] Memory required for data: 457703424
I0903 17:38:12.927467 20433 layer_factory.hpp:77] Creating layer reshg1_low1_branch2a
I0903 17:38:12.927479 20433 net.cpp:100] Creating Layer reshg1_low1_branch2a
I0903 17:38:12.927482 20433 net.cpp:434] reshg1_low1_branch2a <- hg1_pool1_hg1_pool1_0_split_1
I0903 17:38:12.927491 20433 net.cpp:408] reshg1_low1_branch2a -> reshg1_low1_branch2a
I0903 17:38:12.927896 20433 net.cpp:150] Setting up reshg1_low1_branch2a
I0903 17:38:12.927902 20433 net.cpp:157] Top shape: 1 128 32 32 (131072)
I0903 17:38:12.927906 20433 net.cpp:165] Memory required for data: 458227712
I0903 17:38:12.927913 20433 layer_factory.hpp:77] Creating layer bnhg1_low1_branch2a
I0903 17:38:12.927922 20433 net.cpp:100] Creating Layer bnhg1_low1_branch2a
I0903 17:38:12.927927 20433 net.cpp:434] bnhg1_low1_branch2a <- reshg1_low1_branch2a
I0903 17:38:12.927934 20433 net.cpp:395] bnhg1_low1_branch2a -> reshg1_low1_branch2a (in-place)
I0903 17:38:12.928067 20433 net.cpp:150] Setting up bnhg1_low1_branch2a
I0903 17:38:12.928074 20433 net.cpp:157] Top shape: 1 128 32 32 (131072)
I0903 17:38:12.928077 20433 net.cpp:165] Memory required for data: 458752000
I0903 17:38:12.928087 20433 layer_factory.hpp:77] Creating layer scalehg1_low1_branch2a
I0903 17:38:12.928102 20433 net.cpp:100] Creating Layer scalehg1_low1_branch2a
I0903 17:38:12.928107 20433 net.cpp:434] scalehg1_low1_branch2a <- reshg1_low1_branch2a
I0903 17:38:12.928118 20433 net.cpp:395] scalehg1_low1_branch2a -> reshg1_low1_branch2a (in-place)
I0903 17:38:12.928151 20433 layer_factory.hpp:77] Creating layer scalehg1_low1_branch2a
I0903 17:38:12.928227 20433 net.cpp:150] Setting up scalehg1_low1_branch2a
I0903 17:38:12.928234 20433 net.cpp:157] Top shape: 1 128 32 32 (131072)
I0903 17:38:12.928238 20433 net.cpp:165] Memory required for data: 459276288
I0903 17:38:12.928246 20433 layer_factory.hpp:77] Creating layer reshg1_low1_branch2a_relu
I0903 17:38:12.928253 20433 net.cpp:100] Creating Layer reshg1_low1_branch2a_relu
I0903 17:38:12.928257 20433 net.cpp:434] reshg1_low1_branch2a_relu <- reshg1_low1_branch2a
I0903 17:38:12.928264 20433 net.cpp:395] reshg1_low1_branch2a_relu -> reshg1_low1_branch2a (in-place)
I0903 17:38:12.928272 20433 net.cpp:150] Setting up reshg1_low1_branch2a_relu
I0903 17:38:12.928278 20433 net.cpp:157] Top shape: 1 128 32 32 (131072)
I0903 17:38:12.928282 20433 net.cpp:165] Memory required for data: 459800576
I0903 17:38:12.928287 20433 layer_factory.hpp:77] Creating layer reshg1_low1_branch2b
I0903 17:38:12.928297 20433 net.cpp:100] Creating Layer reshg1_low1_branch2b
I0903 17:38:12.928302 20433 net.cpp:434] reshg1_low1_branch2b <- reshg1_low1_branch2a
I0903 17:38:12.928309 20433 net.cpp:408] reshg1_low1_branch2b -> reshg1_low1_branch2b
I0903 17:38:12.930073 20433 net.cpp:150] Setting up reshg1_low1_branch2b
I0903 17:38:12.930086 20433 net.cpp:157] Top shape: 1 128 32 32 (131072)
I0903 17:38:12.930090 20433 net.cpp:165] Memory required for data: 460324864
I0903 17:38:12.930097 20433 layer_factory.hpp:77] Creating layer bnhg1_low1_branch2b
I0903 17:38:12.930107 20433 net.cpp:100] Creating Layer bnhg1_low1_branch2b
I0903 17:38:12.930112 20433 net.cpp:434] bnhg1_low1_branch2b <- reshg1_low1_branch2b
I0903 17:38:12.930120 20433 net.cpp:395] bnhg1_low1_branch2b -> reshg1_low1_branch2b (in-place)
I0903 17:38:12.930254 20433 net.cpp:150] Setting up bnhg1_low1_branch2b
I0903 17:38:12.930263 20433 net.cpp:157] Top shape: 1 128 32 32 (131072)
I0903 17:38:12.930265 20433 net.cpp:165] Memory required for data: 460849152
I0903 17:38:12.930275 20433 layer_factory.hpp:77] Creating layer scalehg1_low1_branch2b
I0903 17:38:12.930308 20433 net.cpp:100] Creating Layer scalehg1_low1_branch2b
I0903 17:38:12.930312 20433 net.cpp:434] scalehg1_low1_branch2b <- reshg1_low1_branch2b
I0903 17:38:12.930320 20433 net.cpp:395] scalehg1_low1_branch2b -> reshg1_low1_branch2b (in-place)
I0903 17:38:12.930353 20433 layer_factory.hpp:77] Creating layer scalehg1_low1_branch2b
I0903 17:38:12.930433 20433 net.cpp:150] Setting up scalehg1_low1_branch2b
I0903 17:38:12.930439 20433 net.cpp:157] Top shape: 1 128 32 32 (131072)
I0903 17:38:12.930444 20433 net.cpp:165] Memory required for data: 461373440
I0903 17:38:12.930451 20433 layer_factory.hpp:77] Creating layer reshg1_low1_branch2b_relu
I0903 17:38:12.930460 20433 net.cpp:100] Creating Layer reshg1_low1_branch2b_relu
I0903 17:38:12.930464 20433 net.cpp:434] reshg1_low1_branch2b_relu <- reshg1_low1_branch2b
I0903 17:38:12.930471 20433 net.cpp:395] reshg1_low1_branch2b_relu -> reshg1_low1_branch2b (in-place)
I0903 17:38:12.930480 20433 net.cpp:150] Setting up reshg1_low1_branch2b_relu
I0903 17:38:12.930485 20433 net.cpp:157] Top shape: 1 128 32 32 (131072)
I0903 17:38:12.930490 20433 net.cpp:165] Memory required for data: 461897728
I0903 17:38:12.930495 20433 layer_factory.hpp:77] Creating layer reshg1_low1_branch2c
I0903 17:38:12.930503 20433 net.cpp:100] Creating Layer reshg1_low1_branch2c
I0903 17:38:12.930507 20433 net.cpp:434] reshg1_low1_branch2c <- reshg1_low1_branch2b
I0903 17:38:12.930517 20433 net.cpp:408] reshg1_low1_branch2c -> reshg1_low1_branch2c
I0903 17:38:12.931274 20433 net.cpp:150] Setting up reshg1_low1_branch2c
I0903 17:38:12.931284 20433 net.cpp:157] Top shape: 1 256 32 32 (262144)
I0903 17:38:12.931288 20433 net.cpp:165] Memory required for data: 462946304
I0903 17:38:12.931304 20433 layer_factory.hpp:77] Creating layer bnhg1_low1_branch2c
I0903 17:38:12.931314 20433 net.cpp:100] Creating Layer bnhg1_low1_branch2c
I0903 17:38:12.931319 20433 net.cpp:434] bnhg1_low1_branch2c <- reshg1_low1_branch2c
I0903 17:38:12.931330 20433 net.cpp:395] bnhg1_low1_branch2c -> reshg1_low1_branch2c (in-place)
I0903 17:38:12.931468 20433 net.cpp:150] Setting up bnhg1_low1_branch2c
I0903 17:38:12.931475 20433 net.cpp:157] Top shape: 1 256 32 32 (262144)
I0903 17:38:12.931479 20433 net.cpp:165] Memory required for data: 463994880
I0903 17:38:12.931488 20433 layer_factory.hpp:77] Creating layer scalehg1_low1_branch2c
I0903 17:38:12.931499 20433 net.cpp:100] Creating Layer scalehg1_low1_branch2c
I0903 17:38:12.931504 20433 net.cpp:434] scalehg1_low1_branch2c <- reshg1_low1_branch2c
I0903 17:38:12.931511 20433 net.cpp:395] scalehg1_low1_branch2c -> reshg1_low1_branch2c (in-place)
I0903 17:38:12.931547 20433 layer_factory.hpp:77] Creating layer scalehg1_low1_branch2c
I0903 17:38:12.931627 20433 net.cpp:150] Setting up scalehg1_low1_branch2c
I0903 17:38:12.931634 20433 net.cpp:157] Top shape: 1 256 32 32 (262144)
I0903 17:38:12.931638 20433 net.cpp:165] Memory required for data: 465043456
I0903 17:38:12.931646 20433 layer_factory.hpp:77] Creating layer reshg1_low1
I0903 17:38:12.931655 20433 net.cpp:100] Creating Layer reshg1_low1
I0903 17:38:12.931659 20433 net.cpp:434] reshg1_low1 <- reshg1_low1_branch1
I0903 17:38:12.931665 20433 net.cpp:434] reshg1_low1 <- reshg1_low1_branch2c
I0903 17:38:12.931674 20433 net.cpp:408] reshg1_low1 -> reshg1_low1
I0903 17:38:12.931696 20433 net.cpp:150] Setting up reshg1_low1
I0903 17:38:12.931702 20433 net.cpp:157] Top shape: 1 256 32 32 (262144)
I0903 17:38:12.931706 20433 net.cpp:165] Memory required for data: 466092032
I0903 17:38:12.931711 20433 layer_factory.hpp:77] Creating layer reshg1_low1_relu
I0903 17:38:12.931718 20433 net.cpp:100] Creating Layer reshg1_low1_relu
I0903 17:38:12.931722 20433 net.cpp:434] reshg1_low1_relu <- reshg1_low1
I0903 17:38:12.931730 20433 net.cpp:395] reshg1_low1_relu -> reshg1_low1 (in-place)
I0903 17:38:12.931737 20433 net.cpp:150] Setting up reshg1_low1_relu
I0903 17:38:12.931743 20433 net.cpp:157] Top shape: 1 256 32 32 (262144)
I0903 17:38:12.931747 20433 net.cpp:165] Memory required for data: 467140608
I0903 17:38:12.931751 20433 layer_factory.hpp:77] Creating layer reshg1_low1_reshg1_low1_relu_0_split
I0903 17:38:12.931759 20433 net.cpp:100] Creating Layer reshg1_low1_reshg1_low1_relu_0_split
I0903 17:38:12.931763 20433 net.cpp:434] reshg1_low1_reshg1_low1_relu_0_split <- reshg1_low1
I0903 17:38:12.931771 20433 net.cpp:408] reshg1_low1_reshg1_low1_relu_0_split -> reshg1_low1_reshg1_low1_relu_0_split_0
I0903 17:38:12.931779 20433 net.cpp:408] reshg1_low1_reshg1_low1_relu_0_split -> reshg1_low1_reshg1_low1_relu_0_split_1
I0903 17:38:12.931809 20433 net.cpp:150] Setting up reshg1_low1_reshg1_low1_relu_0_split
I0903 17:38:12.931816 20433 net.cpp:157] Top shape: 1 256 32 32 (262144)
I0903 17:38:12.931821 20433 net.cpp:157] Top shape: 1 256 32 32 (262144)
I0903 17:38:12.931825 20433 net.cpp:165] Memory required for data: 469237760
I0903 17:38:12.931829 20433 layer_factory.hpp:77] Creating layer reshg1_low2_branch2a
I0903 17:38:12.931841 20433 net.cpp:100] Creating Layer reshg1_low2_branch2a
I0903 17:38:12.931845 20433 net.cpp:434] reshg1_low2_branch2a <- reshg1_low1_reshg1_low1_relu_0_split_0
I0903 17:38:12.931854 20433 net.cpp:408] reshg1_low2_branch2a -> reshg1_low2_branch2a
I0903 17:38:12.932274 20433 net.cpp:150] Setting up reshg1_low2_branch2a
I0903 17:38:12.932283 20433 net.cpp:157] Top shape: 1 128 32 32 (131072)
I0903 17:38:12.932287 20433 net.cpp:165] Memory required for data: 469762048
I0903 17:38:12.932294 20433 layer_factory.hpp:77] Creating layer bnhg1_low2_branch2a
I0903 17:38:12.932304 20433 net.cpp:100] Creating Layer bnhg1_low2_branch2a
I0903 17:38:12.932309 20433 net.cpp:434] bnhg1_low2_branch2a <- reshg1_low2_branch2a
I0903 17:38:12.932317 20433 net.cpp:395] bnhg1_low2_branch2a -> reshg1_low2_branch2a (in-place)
I0903 17:38:12.932477 20433 net.cpp:150] Setting up bnhg1_low2_branch2a
I0903 17:38:12.932487 20433 net.cpp:157] Top shape: 1 128 32 32 (131072)
I0903 17:38:12.932490 20433 net.cpp:165] Memory required for data: 470286336
I0903 17:38:12.932499 20433 layer_factory.hpp:77] Creating layer scalehg1_low2_branch2a
I0903 17:38:12.932509 20433 net.cpp:100] Creating Layer scalehg1_low2_branch2a
I0903 17:38:12.932513 20433 net.cpp:434] scalehg1_low2_branch2a <- reshg1_low2_branch2a
I0903 17:38:12.932520 20433 net.cpp:395] scalehg1_low2_branch2a -> reshg1_low2_branch2a (in-place)
I0903 17:38:12.932554 20433 layer_factory.hpp:77] Creating layer scalehg1_low2_branch2a
I0903 17:38:12.932637 20433 net.cpp:150] Setting up scalehg1_low2_branch2a
I0903 17:38:12.932644 20433 net.cpp:157] Top shape: 1 128 32 32 (131072)
I0903 17:38:12.932648 20433 net.cpp:165] Memory required for data: 470810624
I0903 17:38:12.932657 20433 layer_factory.hpp:77] Creating layer reshg1_low2_branch2a_relu
I0903 17:38:12.932662 20433 net.cpp:100] Creating Layer reshg1_low2_branch2a_relu
I0903 17:38:12.932667 20433 net.cpp:434] reshg1_low2_branch2a_relu <- reshg1_low2_branch2a
I0903 17:38:12.932677 20433 net.cpp:395] reshg1_low2_branch2a_relu -> reshg1_low2_branch2a (in-place)
I0903 17:38:12.932685 20433 net.cpp:150] Setting up reshg1_low2_branch2a_relu
I0903 17:38:12.932692 20433 net.cpp:157] Top shape: 1 128 32 32 (131072)
I0903 17:38:12.932695 20433 net.cpp:165] Memory required for data: 471334912
I0903 17:38:12.932700 20433 layer_factory.hpp:77] Creating layer reshg1_low2_branch2b
I0903 17:38:12.932710 20433 net.cpp:100] Creating Layer reshg1_low2_branch2b
I0903 17:38:12.932714 20433 net.cpp:434] reshg1_low2_branch2b <- reshg1_low2_branch2a
I0903 17:38:12.932723 20433 net.cpp:408] reshg1_low2_branch2b -> reshg1_low2_branch2b
I0903 17:38:12.934473 20433 net.cpp:150] Setting up reshg1_low2_branch2b
I0903 17:38:12.934504 20433 net.cpp:157] Top shape: 1 128 32 32 (131072)
I0903 17:38:12.934506 20433 net.cpp:165] Memory required for data: 471859200
I0903 17:38:12.934516 20433 layer_factory.hpp:77] Creating layer bnhg1_low2_branch2b
I0903 17:38:12.934532 20433 net.cpp:100] Creating Layer bnhg1_low2_branch2b
I0903 17:38:12.934540 20433 net.cpp:434] bnhg1_low2_branch2b <- reshg1_low2_branch2b
I0903 17:38:12.934551 20433 net.cpp:395] bnhg1_low2_branch2b -> reshg1_low2_branch2b (in-place)
I0903 17:38:12.934705 20433 net.cpp:150] Setting up bnhg1_low2_branch2b
I0903 17:38:12.934711 20433 net.cpp:157] Top shape: 1 128 32 32 (131072)
I0903 17:38:12.934715 20433 net.cpp:165] Memory required for data: 472383488
I0903 17:38:12.934725 20433 layer_factory.hpp:77] Creating layer scalehg1_low2_branch2b
I0903 17:38:12.934738 20433 net.cpp:100] Creating Layer scalehg1_low2_branch2b
I0903 17:38:12.934742 20433 net.cpp:434] scalehg1_low2_branch2b <- reshg1_low2_branch2b
I0903 17:38:12.934751 20433 net.cpp:395] scalehg1_low2_branch2b -> reshg1_low2_branch2b (in-place)
I0903 17:38:12.934788 20433 layer_factory.hpp:77] Creating layer scalehg1_low2_branch2b
I0903 17:38:12.934873 20433 net.cpp:150] Setting up scalehg1_low2_branch2b
I0903 17:38:12.934881 20433 net.cpp:157] Top shape: 1 128 32 32 (131072)
I0903 17:38:12.934885 20433 net.cpp:165] Memory required for data: 472907776
I0903 17:38:12.934892 20433 layer_factory.hpp:77] Creating layer reshg1_low2_branch2b_relu
I0903 17:38:12.934900 20433 net.cpp:100] Creating Layer reshg1_low2_branch2b_relu
I0903 17:38:12.934906 20433 net.cpp:434] reshg1_low2_branch2b_relu <- reshg1_low2_branch2b
I0903 17:38:12.934913 20433 net.cpp:395] reshg1_low2_branch2b_relu -> reshg1_low2_branch2b (in-place)
I0903 17:38:12.934921 20433 net.cpp:150] Setting up reshg1_low2_branch2b_relu
I0903 17:38:12.934927 20433 net.cpp:157] Top shape: 1 128 32 32 (131072)
I0903 17:38:12.934931 20433 net.cpp:165] Memory required for data: 473432064
I0903 17:38:12.934937 20433 layer_factory.hpp:77] Creating layer reshg1_low2_branch2c
I0903 17:38:12.934948 20433 net.cpp:100] Creating Layer reshg1_low2_branch2c
I0903 17:38:12.934952 20433 net.cpp:434] reshg1_low2_branch2c <- reshg1_low2_branch2b
I0903 17:38:12.934975 20433 net.cpp:408] reshg1_low2_branch2c -> reshg1_low2_branch2c
I0903 17:38:12.935411 20433 net.cpp:150] Setting up reshg1_low2_branch2c
I0903 17:38:12.935420 20433 net.cpp:157] Top shape: 1 256 32 32 (262144)
I0903 17:38:12.935425 20433 net.cpp:165] Memory required for data: 474480640
I0903 17:38:12.935431 20433 layer_factory.hpp:77] Creating layer bnhg1_low2_branch2c
I0903 17:38:12.935441 20433 net.cpp:100] Creating Layer bnhg1_low2_branch2c
I0903 17:38:12.935444 20433 net.cpp:434] bnhg1_low2_branch2c <- reshg1_low2_branch2c
I0903 17:38:12.935454 20433 net.cpp:395] bnhg1_low2_branch2c -> reshg1_low2_branch2c (in-place)
I0903 17:38:12.935596 20433 net.cpp:150] Setting up bnhg1_low2_branch2c
I0903 17:38:12.935605 20433 net.cpp:157] Top shape: 1 256 32 32 (262144)
I0903 17:38:12.935608 20433 net.cpp:165] Memory required for data: 475529216
I0903 17:38:12.935616 20433 layer_factory.hpp:77] Creating layer scalehg1_low2_branch2c
I0903 17:38:12.935626 20433 net.cpp:100] Creating Layer scalehg1_low2_branch2c
I0903 17:38:12.935631 20433 net.cpp:434] scalehg1_low2_branch2c <- reshg1_low2_branch2c
I0903 17:38:12.935637 20433 net.cpp:395] scalehg1_low2_branch2c -> reshg1_low2_branch2c (in-place)
I0903 17:38:12.935678 20433 layer_factory.hpp:77] Creating layer scalehg1_low2_branch2c
I0903 17:38:12.935761 20433 net.cpp:150] Setting up scalehg1_low2_branch2c
I0903 17:38:12.935768 20433 net.cpp:157] Top shape: 1 256 32 32 (262144)
I0903 17:38:12.935772 20433 net.cpp:165] Memory required for data: 476577792
I0903 17:38:12.935781 20433 layer_factory.hpp:77] Creating layer reshg1_low2
I0903 17:38:12.935788 20433 net.cpp:100] Creating Layer reshg1_low2
I0903 17:38:12.935792 20433 net.cpp:434] reshg1_low2 <- reshg1_low1_reshg1_low1_relu_0_split_1
I0903 17:38:12.935799 20433 net.cpp:434] reshg1_low2 <- reshg1_low2_branch2c
I0903 17:38:12.935807 20433 net.cpp:408] reshg1_low2 -> reshg1_low2
I0903 17:38:12.935829 20433 net.cpp:150] Setting up reshg1_low2
I0903 17:38:12.935837 20433 net.cpp:157] Top shape: 1 256 32 32 (262144)
I0903 17:38:12.935839 20433 net.cpp:165] Memory required for data: 477626368
I0903 17:38:12.935844 20433 layer_factory.hpp:77] Creating layer reshg1_low2_relu
I0903 17:38:12.935853 20433 net.cpp:100] Creating Layer reshg1_low2_relu
I0903 17:38:12.935858 20433 net.cpp:434] reshg1_low2_relu <- reshg1_low2
I0903 17:38:12.935864 20433 net.cpp:395] reshg1_low2_relu -> reshg1_low2 (in-place)
I0903 17:38:12.935871 20433 net.cpp:150] Setting up reshg1_low2_relu
I0903 17:38:12.935878 20433 net.cpp:157] Top shape: 1 256 32 32 (262144)
I0903 17:38:12.935883 20433 net.cpp:165] Memory required for data: 478674944
I0903 17:38:12.935886 20433 layer_factory.hpp:77] Creating layer reshg1_low2_reshg1_low2_relu_0_split
I0903 17:38:12.935894 20433 net.cpp:100] Creating Layer reshg1_low2_reshg1_low2_relu_0_split
I0903 17:38:12.935899 20433 net.cpp:434] reshg1_low2_reshg1_low2_relu_0_split <- reshg1_low2
I0903 17:38:12.935905 20433 net.cpp:408] reshg1_low2_reshg1_low2_relu_0_split -> reshg1_low2_reshg1_low2_relu_0_split_0
I0903 17:38:12.935914 20433 net.cpp:408] reshg1_low2_reshg1_low2_relu_0_split -> reshg1_low2_reshg1_low2_relu_0_split_1
I0903 17:38:12.935945 20433 net.cpp:150] Setting up reshg1_low2_reshg1_low2_relu_0_split
I0903 17:38:12.935952 20433 net.cpp:157] Top shape: 1 256 32 32 (262144)
I0903 17:38:12.935957 20433 net.cpp:157] Top shape: 1 256 32 32 (262144)
I0903 17:38:12.935961 20433 net.cpp:165] Memory required for data: 480772096
I0903 17:38:12.935966 20433 layer_factory.hpp:77] Creating layer reshg1_low5_branch2a
I0903 17:38:12.935978 20433 net.cpp:100] Creating Layer reshg1_low5_branch2a
I0903 17:38:12.935982 20433 net.cpp:434] reshg1_low5_branch2a <- reshg1_low2_reshg1_low2_relu_0_split_0
I0903 17:38:12.935989 20433 net.cpp:408] reshg1_low5_branch2a -> reshg1_low5_branch2a
I0903 17:38:12.936416 20433 net.cpp:150] Setting up reshg1_low5_branch2a
I0903 17:38:12.936425 20433 net.cpp:157] Top shape: 1 128 32 32 (131072)
I0903 17:38:12.936429 20433 net.cpp:165] Memory required for data: 481296384
I0903 17:38:12.936449 20433 layer_factory.hpp:77] Creating layer bnhg1_low5_branch2a
I0903 17:38:12.936471 20433 net.cpp:100] Creating Layer bnhg1_low5_branch2a
I0903 17:38:12.936478 20433 net.cpp:434] bnhg1_low5_branch2a <- reshg1_low5_branch2a
I0903 17:38:12.936488 20433 net.cpp:395] bnhg1_low5_branch2a -> reshg1_low5_branch2a (in-place)
I0903 17:38:12.936651 20433 net.cpp:150] Setting up bnhg1_low5_branch2a
I0903 17:38:12.936662 20433 net.cpp:157] Top shape: 1 128 32 32 (131072)
I0903 17:38:12.936666 20433 net.cpp:165] Memory required for data: 481820672
I0903 17:38:12.936676 20433 layer_factory.hpp:77] Creating layer scalehg1_low5_branch2a
I0903 17:38:12.936699 20433 net.cpp:100] Creating Layer scalehg1_low5_branch2a
I0903 17:38:12.936707 20433 net.cpp:434] scalehg1_low5_branch2a <- reshg1_low5_branch2a
I0903 17:38:12.936714 20433 net.cpp:395] scalehg1_low5_branch2a -> reshg1_low5_branch2a (in-place)
I0903 17:38:12.936764 20433 layer_factory.hpp:77] Creating layer scalehg1_low5_branch2a
I0903 17:38:12.936851 20433 net.cpp:150] Setting up scalehg1_low5_branch2a
I0903 17:38:12.936858 20433 net.cpp:157] Top shape: 1 128 32 32 (131072)
I0903 17:38:12.936862 20433 net.cpp:165] Memory required for data: 482344960
I0903 17:38:12.936878 20433 layer_factory.hpp:77] Creating layer reshg1_low5_branch2a_relu
I0903 17:38:12.936889 20433 net.cpp:100] Creating Layer reshg1_low5_branch2a_relu
I0903 17:38:12.936902 20433 net.cpp:434] reshg1_low5_branch2a_relu <- reshg1_low5_branch2a
I0903 17:38:12.936910 20433 net.cpp:395] reshg1_low5_branch2a_relu -> reshg1_low5_branch2a (in-place)
I0903 17:38:12.936925 20433 net.cpp:150] Setting up reshg1_low5_branch2a_relu
I0903 17:38:12.936933 20433 net.cpp:157] Top shape: 1 128 32 32 (131072)
I0903 17:38:12.936935 20433 net.cpp:165] Memory required for data: 482869248
I0903 17:38:12.936947 20433 layer_factory.hpp:77] Creating layer reshg1_low5_branch2b
I0903 17:38:12.936960 20433 net.cpp:100] Creating Layer reshg1_low5_branch2b
I0903 17:38:12.936967 20433 net.cpp:434] reshg1_low5_branch2b <- reshg1_low5_branch2a
I0903 17:38:12.936976 20433 net.cpp:408] reshg1_low5_branch2b -> reshg1_low5_branch2b
I0903 17:38:12.938810 20433 net.cpp:150] Setting up reshg1_low5_branch2b
I0903 17:38:12.938832 20433 net.cpp:157] Top shape: 1 128 32 32 (131072)
I0903 17:38:12.938835 20433 net.cpp:165] Memory required for data: 483393536
I0903 17:38:12.938843 20433 layer_factory.hpp:77] Creating layer bnhg1_low5_branch2b
I0903 17:38:12.938853 20433 net.cpp:100] Creating Layer bnhg1_low5_branch2b
I0903 17:38:12.938859 20433 net.cpp:434] bnhg1_low5_branch2b <- reshg1_low5_branch2b
I0903 17:38:12.938874 20433 net.cpp:395] bnhg1_low5_branch2b -> reshg1_low5_branch2b (in-place)
I0903 17:38:12.939020 20433 net.cpp:150] Setting up bnhg1_low5_branch2b
I0903 17:38:12.939028 20433 net.cpp:157] Top shape: 1 128 32 32 (131072)
I0903 17:38:12.939033 20433 net.cpp:165] Memory required for data: 483917824
I0903 17:38:12.939043 20433 layer_factory.hpp:77] Creating layer scalehg1_low5_branch2b
I0903 17:38:12.939052 20433 net.cpp:100] Creating Layer scalehg1_low5_branch2b
I0903 17:38:12.939056 20433 net.cpp:434] scalehg1_low5_branch2b <- reshg1_low5_branch2b
I0903 17:38:12.939065 20433 net.cpp:395] scalehg1_low5_branch2b -> reshg1_low5_branch2b (in-place)
I0903 17:38:12.939100 20433 layer_factory.hpp:77] Creating layer scalehg1_low5_branch2b
I0903 17:38:12.939185 20433 net.cpp:150] Setting up scalehg1_low5_branch2b
I0903 17:38:12.939193 20433 net.cpp:157] Top shape: 1 128 32 32 (131072)
I0903 17:38:12.939198 20433 net.cpp:165] Memory required for data: 484442112
I0903 17:38:12.939205 20433 layer_factory.hpp:77] Creating layer reshg1_low5_branch2b_relu
I0903 17:38:12.939214 20433 net.cpp:100] Creating Layer reshg1_low5_branch2b_relu
I0903 17:38:12.939218 20433 net.cpp:434] reshg1_low5_branch2b_relu <- reshg1_low5_branch2b
I0903 17:38:12.939225 20433 net.cpp:395] reshg1_low5_branch2b_relu -> reshg1_low5_branch2b (in-place)
I0903 17:38:12.939232 20433 net.cpp:150] Setting up reshg1_low5_branch2b_relu
I0903 17:38:12.939247 20433 net.cpp:157] Top shape: 1 128 32 32 (131072)
I0903 17:38:12.939251 20433 net.cpp:165] Memory required for data: 484966400
I0903 17:38:12.939255 20433 layer_factory.hpp:77] Creating layer reshg1_low5_branch2c
I0903 17:38:12.939267 20433 net.cpp:100] Creating Layer reshg1_low5_branch2c
I0903 17:38:12.939271 20433 net.cpp:434] reshg1_low5_branch2c <- reshg1_low5_branch2b
I0903 17:38:12.939280 20433 net.cpp:408] reshg1_low5_branch2c -> reshg1_low5_branch2c
I0903 17:38:12.939704 20433 net.cpp:150] Setting up reshg1_low5_branch2c
I0903 17:38:12.939713 20433 net.cpp:157] Top shape: 1 256 32 32 (262144)
I0903 17:38:12.939715 20433 net.cpp:165] Memory required for data: 486014976
I0903 17:38:12.939723 20433 layer_factory.hpp:77] Creating layer bnhg1_low5_branch2c
I0903 17:38:12.939733 20433 net.cpp:100] Creating Layer bnhg1_low5_branch2c
I0903 17:38:12.939738 20433 net.cpp:434] bnhg1_low5_branch2c <- reshg1_low5_branch2c
I0903 17:38:12.939743 20433 net.cpp:395] bnhg1_low5_branch2c -> reshg1_low5_branch2c (in-place)
I0903 17:38:12.939880 20433 net.cpp:150] Setting up bnhg1_low5_branch2c
I0903 17:38:12.939888 20433 net.cpp:157] Top shape: 1 256 32 32 (262144)
I0903 17:38:12.939891 20433 net.cpp:165] Memory required for data: 487063552
I0903 17:38:12.939901 20433 layer_factory.hpp:77] Creating layer scalehg1_low5_branch2c
I0903 17:38:12.939909 20433 net.cpp:100] Creating Layer scalehg1_low5_branch2c
I0903 17:38:12.939914 20433 net.cpp:434] scalehg1_low5_branch2c <- reshg1_low5_branch2c
I0903 17:38:12.939923 20433 net.cpp:395] scalehg1_low5_branch2c -> reshg1_low5_branch2c (in-place)
I0903 17:38:12.939955 20433 layer_factory.hpp:77] Creating layer scalehg1_low5_branch2c
I0903 17:38:12.940035 20433 net.cpp:150] Setting up scalehg1_low5_branch2c
I0903 17:38:12.940043 20433 net.cpp:157] Top shape: 1 256 32 32 (262144)
I0903 17:38:12.940047 20433 net.cpp:165] Memory required for data: 488112128
I0903 17:38:12.940054 20433 layer_factory.hpp:77] Creating layer reshg1_low5
I0903 17:38:12.940062 20433 net.cpp:100] Creating Layer reshg1_low5
I0903 17:38:12.940068 20433 net.cpp:434] reshg1_low5 <- reshg1_low2_reshg1_low2_relu_0_split_1
I0903 17:38:12.940073 20433 net.cpp:434] reshg1_low5 <- reshg1_low5_branch2c
I0903 17:38:12.940080 20433 net.cpp:408] reshg1_low5 -> reshg1_low5
I0903 17:38:12.940104 20433 net.cpp:150] Setting up reshg1_low5
I0903 17:38:12.940111 20433 net.cpp:157] Top shape: 1 256 32 32 (262144)
I0903 17:38:12.940116 20433 net.cpp:165] Memory required for data: 489160704
I0903 17:38:12.940120 20433 layer_factory.hpp:77] Creating layer reshg1_low5_relu
I0903 17:38:12.940129 20433 net.cpp:100] Creating Layer reshg1_low5_relu
I0903 17:38:12.940132 20433 net.cpp:434] reshg1_low5_relu <- reshg1_low5
I0903 17:38:12.940138 20433 net.cpp:395] reshg1_low5_relu -> reshg1_low5 (in-place)
I0903 17:38:12.940145 20433 net.cpp:150] Setting up reshg1_low5_relu
I0903 17:38:12.940152 20433 net.cpp:157] Top shape: 1 256 32 32 (262144)
I0903 17:38:12.940156 20433 net.cpp:165] Memory required for data: 490209280
I0903 17:38:12.940160 20433 layer_factory.hpp:77] Creating layer reshg1_low5_reshg1_low5_relu_0_split
I0903 17:38:12.940168 20433 net.cpp:100] Creating Layer reshg1_low5_reshg1_low5_relu_0_split
I0903 17:38:12.940172 20433 net.cpp:434] reshg1_low5_reshg1_low5_relu_0_split <- reshg1_low5
I0903 17:38:12.940181 20433 net.cpp:408] reshg1_low5_reshg1_low5_relu_0_split -> reshg1_low5_reshg1_low5_relu_0_split_0
I0903 17:38:12.940188 20433 net.cpp:408] reshg1_low5_reshg1_low5_relu_0_split -> reshg1_low5_reshg1_low5_relu_0_split_1
I0903 17:38:12.940197 20433 net.cpp:408] reshg1_low5_reshg1_low5_relu_0_split -> reshg1_low5_reshg1_low5_relu_0_split_2
I0903 17:38:12.940237 20433 net.cpp:150] Setting up reshg1_low5_reshg1_low5_relu_0_split
I0903 17:38:12.940244 20433 net.cpp:157] Top shape: 1 256 32 32 (262144)
I0903 17:38:12.940250 20433 net.cpp:157] Top shape: 1 256 32 32 (262144)
I0903 17:38:12.940255 20433 net.cpp:157] Top shape: 1 256 32 32 (262144)
I0903 17:38:12.940259 20433 net.cpp:165] Memory required for data: 493355008
I0903 17:38:12.940270 20433 layer_factory.hpp:77] Creating layer reshg1_low6_up1_branch1
I0903 17:38:12.940285 20433 net.cpp:100] Creating Layer reshg1_low6_up1_branch1
I0903 17:38:12.940290 20433 net.cpp:434] reshg1_low6_up1_branch1 <- reshg1_low5_reshg1_low5_relu_0_split_0
I0903 17:38:12.940299 20433 net.cpp:408] reshg1_low6_up1_branch1 -> reshg1_low6_up1_branch1
I0903 17:38:12.941006 20433 net.cpp:150] Setting up reshg1_low6_up1_branch1
I0903 17:38:12.941016 20433 net.cpp:157] Top shape: 1 256 32 32 (262144)
I0903 17:38:12.941020 20433 net.cpp:165] Memory required for data: 494403584
I0903 17:38:12.941026 20433 layer_factory.hpp:77] Creating layer bnhg1_low6_up1_branch1
I0903 17:38:12.941035 20433 net.cpp:100] Creating Layer bnhg1_low6_up1_branch1
I0903 17:38:12.941040 20433 net.cpp:434] bnhg1_low6_up1_branch1 <- reshg1_low6_up1_branch1
I0903 17:38:12.941051 20433 net.cpp:395] bnhg1_low6_up1_branch1 -> reshg1_low6_up1_branch1 (in-place)
I0903 17:38:12.941186 20433 net.cpp:150] Setting up bnhg1_low6_up1_branch1
I0903 17:38:12.941195 20433 net.cpp:157] Top shape: 1 256 32 32 (262144)
I0903 17:38:12.941197 20433 net.cpp:165] Memory required for data: 495452160
I0903 17:38:12.941207 20433 layer_factory.hpp:77] Creating layer scalehg1_low6_up1_branch1
I0903 17:38:12.941217 20433 net.cpp:100] Creating Layer scalehg1_low6_up1_branch1
I0903 17:38:12.941221 20433 net.cpp:434] scalehg1_low6_up1_branch1 <- reshg1_low6_up1_branch1
I0903 17:38:12.941228 20433 net.cpp:395] scalehg1_low6_up1_branch1 -> reshg1_low6_up1_branch1 (in-place)
I0903 17:38:12.941262 20433 layer_factory.hpp:77] Creating layer scalehg1_low6_up1_branch1
I0903 17:38:12.941341 20433 net.cpp:150] Setting up scalehg1_low6_up1_branch1
I0903 17:38:12.941349 20433 net.cpp:157] Top shape: 1 256 32 32 (262144)
I0903 17:38:12.941352 20433 net.cpp:165] Memory required for data: 496500736
I0903 17:38:12.941360 20433 layer_factory.hpp:77] Creating layer reshg1_low6_up1_branch2a
I0903 17:38:12.941371 20433 net.cpp:100] Creating Layer reshg1_low6_up1_branch2a
I0903 17:38:12.941376 20433 net.cpp:434] reshg1_low6_up1_branch2a <- reshg1_low5_reshg1_low5_relu_0_split_1
I0903 17:38:12.941385 20433 net.cpp:408] reshg1_low6_up1_branch2a -> reshg1_low6_up1_branch2a
I0903 17:38:12.941818 20433 net.cpp:150] Setting up reshg1_low6_up1_branch2a
I0903 17:38:12.941828 20433 net.cpp:157] Top shape: 1 128 32 32 (131072)
I0903 17:38:12.941833 20433 net.cpp:165] Memory required for data: 497025024
I0903 17:38:12.941838 20433 layer_factory.hpp:77] Creating layer bnhg1_low6_up1_branch2a
I0903 17:38:12.941848 20433 net.cpp:100] Creating Layer bnhg1_low6_up1_branch2a
I0903 17:38:12.941853 20433 net.cpp:434] bnhg1_low6_up1_branch2a <- reshg1_low6_up1_branch2a
I0903 17:38:12.941861 20433 net.cpp:395] bnhg1_low6_up1_branch2a -> reshg1_low6_up1_branch2a (in-place)
I0903 17:38:12.941999 20433 net.cpp:150] Setting up bnhg1_low6_up1_branch2a
I0903 17:38:12.942008 20433 net.cpp:157] Top shape: 1 128 32 32 (131072)
I0903 17:38:12.942010 20433 net.cpp:165] Memory required for data: 497549312
I0903 17:38:12.942020 20433 layer_factory.hpp:77] Creating layer scalehg1_low6_up1_branch2a
I0903 17:38:12.942030 20433 net.cpp:100] Creating Layer scalehg1_low6_up1_branch2a
I0903 17:38:12.942034 20433 net.cpp:434] scalehg1_low6_up1_branch2a <- reshg1_low6_up1_branch2a
I0903 17:38:12.942041 20433 net.cpp:395] scalehg1_low6_up1_branch2a -> reshg1_low6_up1_branch2a (in-place)
I0903 17:38:12.942075 20433 layer_factory.hpp:77] Creating layer scalehg1_low6_up1_branch2a
I0903 17:38:12.942157 20433 net.cpp:150] Setting up scalehg1_low6_up1_branch2a
I0903 17:38:12.942164 20433 net.cpp:157] Top shape: 1 128 32 32 (131072)
I0903 17:38:12.942168 20433 net.cpp:165] Memory required for data: 498073600
I0903 17:38:12.942176 20433 layer_factory.hpp:77] Creating layer reshg1_low6_up1_branch2a_relu
I0903 17:38:12.942188 20433 net.cpp:100] Creating Layer reshg1_low6_up1_branch2a_relu
I0903 17:38:12.942193 20433 net.cpp:434] reshg1_low6_up1_branch2a_relu <- reshg1_low6_up1_branch2a
I0903 17:38:12.942198 20433 net.cpp:395] reshg1_low6_up1_branch2a_relu -> reshg1_low6_up1_branch2a (in-place)
I0903 17:38:12.942214 20433 net.cpp:150] Setting up reshg1_low6_up1_branch2a_relu
I0903 17:38:12.942221 20433 net.cpp:157] Top shape: 1 128 32 32 (131072)
I0903 17:38:12.942226 20433 net.cpp:165] Memory required for data: 498597888
I0903 17:38:12.942230 20433 layer_factory.hpp:77] Creating layer reshg1_low6_up1_branch2b
I0903 17:38:12.942241 20433 net.cpp:100] Creating Layer reshg1_low6_up1_branch2b
I0903 17:38:12.942245 20433 net.cpp:434] reshg1_low6_up1_branch2b <- reshg1_low6_up1_branch2a
I0903 17:38:12.942255 20433 net.cpp:408] reshg1_low6_up1_branch2b -> reshg1_low6_up1_branch2b
I0903 17:38:12.944005 20433 net.cpp:150] Setting up reshg1_low6_up1_branch2b
I0903 17:38:12.944016 20433 net.cpp:157] Top shape: 1 128 32 32 (131072)
I0903 17:38:12.944020 20433 net.cpp:165] Memory required for data: 499122176
I0903 17:38:12.944026 20433 layer_factory.hpp:77] Creating layer bnhg1_low6_up1_branch2b
I0903 17:38:12.944036 20433 net.cpp:100] Creating Layer bnhg1_low6_up1_branch2b
I0903 17:38:12.944041 20433 net.cpp:434] bnhg1_low6_up1_branch2b <- reshg1_low6_up1_branch2b
I0903 17:38:12.944049 20433 net.cpp:395] bnhg1_low6_up1_branch2b -> reshg1_low6_up1_branch2b (in-place)
I0903 17:38:12.944190 20433 net.cpp:150] Setting up bnhg1_low6_up1_branch2b
I0903 17:38:12.944197 20433 net.cpp:157] Top shape: 1 128 32 32 (131072)
I0903 17:38:12.944201 20433 net.cpp:165] Memory required for data: 499646464
I0903 17:38:12.944211 20433 layer_factory.hpp:77] Creating layer scalehg1_low6_up1_branch2b
I0903 17:38:12.944221 20433 net.cpp:100] Creating Layer scalehg1_low6_up1_branch2b
I0903 17:38:12.944226 20433 net.cpp:434] scalehg1_low6_up1_branch2b <- reshg1_low6_up1_branch2b
I0903 17:38:12.944232 20433 net.cpp:395] scalehg1_low6_up1_branch2b -> reshg1_low6_up1_branch2b (in-place)
I0903 17:38:12.944267 20433 layer_factory.hpp:77] Creating layer scalehg1_low6_up1_branch2b
I0903 17:38:12.944351 20433 net.cpp:150] Setting up scalehg1_low6_up1_branch2b
I0903 17:38:12.944360 20433 net.cpp:157] Top shape: 1 128 32 32 (131072)
I0903 17:38:12.944363 20433 net.cpp:165] Memory required for data: 500170752
I0903 17:38:12.944370 20433 layer_factory.hpp:77] Creating layer reshg1_low6_up1_branch2b_relu
I0903 17:38:12.944378 20433 net.cpp:100] Creating Layer reshg1_low6_up1_branch2b_relu
I0903 17:38:12.944383 20433 net.cpp:434] reshg1_low6_up1_branch2b_relu <- reshg1_low6_up1_branch2b
I0903 17:38:12.944389 20433 net.cpp:395] reshg1_low6_up1_branch2b_relu -> reshg1_low6_up1_branch2b (in-place)
I0903 17:38:12.944397 20433 net.cpp:150] Setting up reshg1_low6_up1_branch2b_relu
I0903 17:38:12.944403 20433 net.cpp:157] Top shape: 1 128 32 32 (131072)
I0903 17:38:12.944408 20433 net.cpp:165] Memory required for data: 500695040
I0903 17:38:12.944412 20433 layer_factory.hpp:77] Creating layer reshg1_low6_up1_branch2c
I0903 17:38:12.944423 20433 net.cpp:100] Creating Layer reshg1_low6_up1_branch2c
I0903 17:38:12.944427 20433 net.cpp:434] reshg1_low6_up1_branch2c <- reshg1_low6_up1_branch2b
I0903 17:38:12.944435 20433 net.cpp:408] reshg1_low6_up1_branch2c -> reshg1_low6_up1_branch2c
I0903 17:38:12.945181 20433 net.cpp:150] Setting up reshg1_low6_up1_branch2c
I0903 17:38:12.945193 20433 net.cpp:157] Top shape: 1 256 32 32 (262144)
I0903 17:38:12.945196 20433 net.cpp:165] Memory required for data: 501743616
I0903 17:38:12.945202 20433 layer_factory.hpp:77] Creating layer bnhg1_low6_up1_branch2c
I0903 17:38:12.945211 20433 net.cpp:100] Creating Layer bnhg1_low6_up1_branch2c
I0903 17:38:12.945217 20433 net.cpp:434] bnhg1_low6_up1_branch2c <- reshg1_low6_up1_branch2c
I0903 17:38:12.945225 20433 net.cpp:395] bnhg1_low6_up1_branch2c -> reshg1_low6_up1_branch2c (in-place)
I0903 17:38:12.945369 20433 net.cpp:150] Setting up bnhg1_low6_up1_branch2c
I0903 17:38:12.945376 20433 net.cpp:157] Top shape: 1 256 32 32 (262144)
I0903 17:38:12.945380 20433 net.cpp:165] Memory required for data: 502792192
I0903 17:38:12.945390 20433 layer_factory.hpp:77] Creating layer scalehg1_low6_up1_branch2c
I0903 17:38:12.945400 20433 net.cpp:100] Creating Layer scalehg1_low6_up1_branch2c
I0903 17:38:12.945415 20433 net.cpp:434] scalehg1_low6_up1_branch2c <- reshg1_low6_up1_branch2c
I0903 17:38:12.945423 20433 net.cpp:395] scalehg1_low6_up1_branch2c -> reshg1_low6_up1_branch2c (in-place)
I0903 17:38:12.945461 20433 layer_factory.hpp:77] Creating layer scalehg1_low6_up1_branch2c
I0903 17:38:12.945541 20433 net.cpp:150] Setting up scalehg1_low6_up1_branch2c
I0903 17:38:12.945549 20433 net.cpp:157] Top shape: 1 256 32 32 (262144)
I0903 17:38:12.945552 20433 net.cpp:165] Memory required for data: 503840768
I0903 17:38:12.945560 20433 layer_factory.hpp:77] Creating layer reshg1_low6_up1
I0903 17:38:12.945569 20433 net.cpp:100] Creating Layer reshg1_low6_up1
I0903 17:38:12.945574 20433 net.cpp:434] reshg1_low6_up1 <- reshg1_low6_up1_branch1
I0903 17:38:12.945580 20433 net.cpp:434] reshg1_low6_up1 <- reshg1_low6_up1_branch2c
I0903 17:38:12.945586 20433 net.cpp:408] reshg1_low6_up1 -> reshg1_low6_up1
I0903 17:38:12.945611 20433 net.cpp:150] Setting up reshg1_low6_up1
I0903 17:38:12.945618 20433 net.cpp:157] Top shape: 1 256 32 32 (262144)
I0903 17:38:12.945621 20433 net.cpp:165] Memory required for data: 504889344
I0903 17:38:12.945626 20433 layer_factory.hpp:77] Creating layer reshg1_low6_up1_relu
I0903 17:38:12.945633 20433 net.cpp:100] Creating Layer reshg1_low6_up1_relu
I0903 17:38:12.945637 20433 net.cpp:434] reshg1_low6_up1_relu <- reshg1_low6_up1
I0903 17:38:12.945644 20433 net.cpp:395] reshg1_low6_up1_relu -> reshg1_low6_up1 (in-place)
I0903 17:38:12.945652 20433 net.cpp:150] Setting up reshg1_low6_up1_relu
I0903 17:38:12.945658 20433 net.cpp:157] Top shape: 1 256 32 32 (262144)
I0903 17:38:12.945662 20433 net.cpp:165] Memory required for data: 505937920
I0903 17:38:12.945667 20433 layer_factory.hpp:77] Creating layer reshg1_low6_up1_reshg1_low6_up1_relu_0_split
I0903 17:38:12.945673 20433 net.cpp:100] Creating Layer reshg1_low6_up1_reshg1_low6_up1_relu_0_split
I0903 17:38:12.945678 20433 net.cpp:434] reshg1_low6_up1_reshg1_low6_up1_relu_0_split <- reshg1_low6_up1
I0903 17:38:12.945684 20433 net.cpp:408] reshg1_low6_up1_reshg1_low6_up1_relu_0_split -> reshg1_low6_up1_reshg1_low6_up1_relu_0_split_0
I0903 17:38:12.945693 20433 net.cpp:408] reshg1_low6_up1_reshg1_low6_up1_relu_0_split -> reshg1_low6_up1_reshg1_low6_up1_relu_0_split_1
I0903 17:38:12.945725 20433 net.cpp:150] Setting up reshg1_low6_up1_reshg1_low6_up1_relu_0_split
I0903 17:38:12.945732 20433 net.cpp:157] Top shape: 1 256 32 32 (262144)
I0903 17:38:12.945739 20433 net.cpp:157] Top shape: 1 256 32 32 (262144)
I0903 17:38:12.945744 20433 net.cpp:165] Memory required for data: 508035072
I0903 17:38:12.945747 20433 layer_factory.hpp:77] Creating layer reshg1_low6_up2_branch2a
I0903 17:38:12.945758 20433 net.cpp:100] Creating Layer reshg1_low6_up2_branch2a
I0903 17:38:12.945763 20433 net.cpp:434] reshg1_low6_up2_branch2a <- reshg1_low6_up1_reshg1_low6_up1_relu_0_split_0
I0903 17:38:12.945770 20433 net.cpp:408] reshg1_low6_up2_branch2a -> reshg1_low6_up2_branch2a
I0903 17:38:12.946187 20433 net.cpp:150] Setting up reshg1_low6_up2_branch2a
I0903 17:38:12.946195 20433 net.cpp:157] Top shape: 1 128 32 32 (131072)
I0903 17:38:12.946198 20433 net.cpp:165] Memory required for data: 508559360
I0903 17:38:12.946205 20433 layer_factory.hpp:77] Creating layer bnhg1_low6_up2_branch2a
I0903 17:38:12.946213 20433 net.cpp:100] Creating Layer bnhg1_low6_up2_branch2a
I0903 17:38:12.946219 20433 net.cpp:434] bnhg1_low6_up2_branch2a <- reshg1_low6_up2_branch2a
I0903 17:38:12.946225 20433 net.cpp:395] bnhg1_low6_up2_branch2a -> reshg1_low6_up2_branch2a (in-place)
I0903 17:38:12.946363 20433 net.cpp:150] Setting up bnhg1_low6_up2_branch2a
I0903 17:38:12.946370 20433 net.cpp:157] Top shape: 1 128 32 32 (131072)
I0903 17:38:12.946374 20433 net.cpp:165] Memory required for data: 509083648
I0903 17:38:12.946384 20433 layer_factory.hpp:77] Creating layer scalehg1_low6_up2_branch2a
I0903 17:38:12.946394 20433 net.cpp:100] Creating Layer scalehg1_low6_up2_branch2a
I0903 17:38:12.946398 20433 net.cpp:434] scalehg1_low6_up2_branch2a <- reshg1_low6_up2_branch2a
I0903 17:38:12.946413 20433 net.cpp:395] scalehg1_low6_up2_branch2a -> reshg1_low6_up2_branch2a (in-place)
I0903 17:38:12.946449 20433 layer_factory.hpp:77] Creating layer scalehg1_low6_up2_branch2a
I0903 17:38:12.946529 20433 net.cpp:150] Setting up scalehg1_low6_up2_branch2a
I0903 17:38:12.946537 20433 net.cpp:157] Top shape: 1 128 32 32 (131072)
I0903 17:38:12.946540 20433 net.cpp:165] Memory required for data: 509607936
I0903 17:38:12.946548 20433 layer_factory.hpp:77] Creating layer reshg1_low6_up2_branch2a_relu
I0903 17:38:12.946558 20433 net.cpp:100] Creating Layer reshg1_low6_up2_branch2a_relu
I0903 17:38:12.946563 20433 net.cpp:434] reshg1_low6_up2_branch2a_relu <- reshg1_low6_up2_branch2a
I0903 17:38:12.946569 20433 net.cpp:395] reshg1_low6_up2_branch2a_relu -> reshg1_low6_up2_branch2a (in-place)
I0903 17:38:12.946576 20433 net.cpp:150] Setting up reshg1_low6_up2_branch2a_relu
I0903 17:38:12.946583 20433 net.cpp:157] Top shape: 1 128 32 32 (131072)
I0903 17:38:12.946588 20433 net.cpp:165] Memory required for data: 510132224
I0903 17:38:12.946591 20433 layer_factory.hpp:77] Creating layer reshg1_low6_up2_branch2b
I0903 17:38:12.946602 20433 net.cpp:100] Creating Layer reshg1_low6_up2_branch2b
I0903 17:38:12.946606 20433 net.cpp:434] reshg1_low6_up2_branch2b <- reshg1_low6_up2_branch2a
I0903 17:38:12.946615 20433 net.cpp:408] reshg1_low6_up2_branch2b -> reshg1_low6_up2_branch2b
I0903 17:38:12.948328 20433 net.cpp:150] Setting up reshg1_low6_up2_branch2b
I0903 17:38:12.948341 20433 net.cpp:157] Top shape: 1 128 32 32 (131072)
I0903 17:38:12.948345 20433 net.cpp:165] Memory required for data: 510656512
I0903 17:38:12.948351 20433 layer_factory.hpp:77] Creating layer bnhg1_low6_up2_branch2b
I0903 17:38:12.948360 20433 net.cpp:100] Creating Layer bnhg1_low6_up2_branch2b
I0903 17:38:12.948366 20433 net.cpp:434] bnhg1_low6_up2_branch2b <- reshg1_low6_up2_branch2b
I0903 17:38:12.948374 20433 net.cpp:395] bnhg1_low6_up2_branch2b -> reshg1_low6_up2_branch2b (in-place)
I0903 17:38:12.948520 20433 net.cpp:150] Setting up bnhg1_low6_up2_branch2b
I0903 17:38:12.948529 20433 net.cpp:157] Top shape: 1 128 32 32 (131072)
I0903 17:38:12.948532 20433 net.cpp:165] Memory required for data: 511180800
I0903 17:38:12.948542 20433 layer_factory.hpp:77] Creating layer scalehg1_low6_up2_branch2b
I0903 17:38:12.948552 20433 net.cpp:100] Creating Layer scalehg1_low6_up2_branch2b
I0903 17:38:12.948556 20433 net.cpp:434] scalehg1_low6_up2_branch2b <- reshg1_low6_up2_branch2b
I0903 17:38:12.948563 20433 net.cpp:395] scalehg1_low6_up2_branch2b -> reshg1_low6_up2_branch2b (in-place)
I0903 17:38:12.948601 20433 layer_factory.hpp:77] Creating layer scalehg1_low6_up2_branch2b
I0903 17:38:12.948683 20433 net.cpp:150] Setting up scalehg1_low6_up2_branch2b
I0903 17:38:12.948689 20433 net.cpp:157] Top shape: 1 128 32 32 (131072)
I0903 17:38:12.948693 20433 net.cpp:165] Memory required for data: 511705088
I0903 17:38:12.948701 20433 layer_factory.hpp:77] Creating layer reshg1_low6_up2_branch2b_relu
I0903 17:38:12.948710 20433 net.cpp:100] Creating Layer reshg1_low6_up2_branch2b_relu
I0903 17:38:12.948714 20433 net.cpp:434] reshg1_low6_up2_branch2b_relu <- reshg1_low6_up2_branch2b
I0903 17:38:12.948721 20433 net.cpp:395] reshg1_low6_up2_branch2b_relu -> reshg1_low6_up2_branch2b (in-place)
I0903 17:38:12.948729 20433 net.cpp:150] Setting up reshg1_low6_up2_branch2b_relu
I0903 17:38:12.948734 20433 net.cpp:157] Top shape: 1 128 32 32 (131072)
I0903 17:38:12.948740 20433 net.cpp:165] Memory required for data: 512229376
I0903 17:38:12.948743 20433 layer_factory.hpp:77] Creating layer reshg1_low6_up2_branch2c
I0903 17:38:12.948755 20433 net.cpp:100] Creating Layer reshg1_low6_up2_branch2c
I0903 17:38:12.948758 20433 net.cpp:434] reshg1_low6_up2_branch2c <- reshg1_low6_up2_branch2b
I0903 17:38:12.948766 20433 net.cpp:408] reshg1_low6_up2_branch2c -> reshg1_low6_up2_branch2c
I0903 17:38:12.949183 20433 net.cpp:150] Setting up reshg1_low6_up2_branch2c
I0903 17:38:12.949192 20433 net.cpp:157] Top shape: 1 256 32 32 (262144)
I0903 17:38:12.949195 20433 net.cpp:165] Memory required for data: 513277952
I0903 17:38:12.949210 20433 layer_factory.hpp:77] Creating layer bnhg1_low6_up2_branch2c
I0903 17:38:12.949221 20433 net.cpp:100] Creating Layer bnhg1_low6_up2_branch2c
I0903 17:38:12.949226 20433 net.cpp:434] bnhg1_low6_up2_branch2c <- reshg1_low6_up2_branch2c
I0903 17:38:12.949234 20433 net.cpp:395] bnhg1_low6_up2_branch2c -> reshg1_low6_up2_branch2c (in-place)
I0903 17:38:12.949374 20433 net.cpp:150] Setting up bnhg1_low6_up2_branch2c
I0903 17:38:12.949381 20433 net.cpp:157] Top shape: 1 256 32 32 (262144)
I0903 17:38:12.949385 20433 net.cpp:165] Memory required for data: 514326528
I0903 17:38:12.949394 20433 layer_factory.hpp:77] Creating layer scalehg1_low6_up2_branch2c
I0903 17:38:12.949404 20433 net.cpp:100] Creating Layer scalehg1_low6_up2_branch2c
I0903 17:38:12.949407 20433 net.cpp:434] scalehg1_low6_up2_branch2c <- reshg1_low6_up2_branch2c
I0903 17:38:12.949415 20433 net.cpp:395] scalehg1_low6_up2_branch2c -> reshg1_low6_up2_branch2c (in-place)
I0903 17:38:12.949450 20433 layer_factory.hpp:77] Creating layer scalehg1_low6_up2_branch2c
I0903 17:38:12.949530 20433 net.cpp:150] Setting up scalehg1_low6_up2_branch2c
I0903 17:38:12.949542 20433 net.cpp:157] Top shape: 1 256 32 32 (262144)
I0903 17:38:12.949545 20433 net.cpp:165] Memory required for data: 515375104
I0903 17:38:12.949579 20433 layer_factory.hpp:77] Creating layer reshg1_low6_up2
I0903 17:38:12.949586 20433 net.cpp:100] Creating Layer reshg1_low6_up2
I0903 17:38:12.949592 20433 net.cpp:434] reshg1_low6_up2 <- reshg1_low6_up1_reshg1_low6_up1_relu_0_split_1
I0903 17:38:12.949599 20433 net.cpp:434] reshg1_low6_up2 <- reshg1_low6_up2_branch2c
I0903 17:38:12.949606 20433 net.cpp:408] reshg1_low6_up2 -> reshg1_low6_up2
I0903 17:38:12.949630 20433 net.cpp:150] Setting up reshg1_low6_up2
I0903 17:38:12.949637 20433 net.cpp:157] Top shape: 1 256 32 32 (262144)
I0903 17:38:12.949642 20433 net.cpp:165] Memory required for data: 516423680
I0903 17:38:12.949646 20433 layer_factory.hpp:77] Creating layer reshg1_low6_up2_relu
I0903 17:38:12.949653 20433 net.cpp:100] Creating Layer reshg1_low6_up2_relu
I0903 17:38:12.949658 20433 net.cpp:434] reshg1_low6_up2_relu <- reshg1_low6_up2
I0903 17:38:12.949664 20433 net.cpp:395] reshg1_low6_up2_relu -> reshg1_low6_up2 (in-place)
I0903 17:38:12.949671 20433 net.cpp:150] Setting up reshg1_low6_up2_relu
I0903 17:38:12.949677 20433 net.cpp:157] Top shape: 1 256 32 32 (262144)
I0903 17:38:12.949682 20433 net.cpp:165] Memory required for data: 517472256
I0903 17:38:12.949687 20433 layer_factory.hpp:77] Creating layer reshg1_low6_up2_reshg1_low6_up2_relu_0_split
I0903 17:38:12.949693 20433 net.cpp:100] Creating Layer reshg1_low6_up2_reshg1_low6_up2_relu_0_split
I0903 17:38:12.949698 20433 net.cpp:434] reshg1_low6_up2_reshg1_low6_up2_relu_0_split <- reshg1_low6_up2
I0903 17:38:12.949707 20433 net.cpp:408] reshg1_low6_up2_reshg1_low6_up2_relu_0_split -> reshg1_low6_up2_reshg1_low6_up2_relu_0_split_0
I0903 17:38:12.949714 20433 net.cpp:408] reshg1_low6_up2_reshg1_low6_up2_relu_0_split -> reshg1_low6_up2_reshg1_low6_up2_relu_0_split_1
I0903 17:38:12.949748 20433 net.cpp:150] Setting up reshg1_low6_up2_reshg1_low6_up2_relu_0_split
I0903 17:38:12.949754 20433 net.cpp:157] Top shape: 1 256 32 32 (262144)
I0903 17:38:12.949759 20433 net.cpp:157] Top shape: 1 256 32 32 (262144)
I0903 17:38:12.949764 20433 net.cpp:165] Memory required for data: 519569408
I0903 17:38:12.949767 20433 layer_factory.hpp:77] Creating layer reshg1_low6_up4_branch1
I0903 17:38:12.949779 20433 net.cpp:100] Creating Layer reshg1_low6_up4_branch1
I0903 17:38:12.949784 20433 net.cpp:434] reshg1_low6_up4_branch1 <- reshg1_low6_up2_reshg1_low6_up2_relu_0_split_0
I0903 17:38:12.949792 20433 net.cpp:408] reshg1_low6_up4_branch1 -> reshg1_low6_up4_branch1
I0903 17:38:12.951370 20433 net.cpp:150] Setting up reshg1_low6_up4_branch1
I0903 17:38:12.951382 20433 net.cpp:157] Top shape: 1 512 32 32 (524288)
I0903 17:38:12.951386 20433 net.cpp:165] Memory required for data: 521666560
I0903 17:38:12.951392 20433 layer_factory.hpp:77] Creating layer bnhg1_low6_up4_branch1
I0903 17:38:12.951409 20433 net.cpp:100] Creating Layer bnhg1_low6_up4_branch1
I0903 17:38:12.951416 20433 net.cpp:434] bnhg1_low6_up4_branch1 <- reshg1_low6_up4_branch1
I0903 17:38:12.951423 20433 net.cpp:395] bnhg1_low6_up4_branch1 -> reshg1_low6_up4_branch1 (in-place)
I0903 17:38:12.951566 20433 net.cpp:150] Setting up bnhg1_low6_up4_branch1
I0903 17:38:12.951575 20433 net.cpp:157] Top shape: 1 512 32 32 (524288)
I0903 17:38:12.951578 20433 net.cpp:165] Memory required for data: 523763712
I0903 17:38:12.951587 20433 layer_factory.hpp:77] Creating layer scalehg1_low6_up4_branch1
I0903 17:38:12.951597 20433 net.cpp:100] Creating Layer scalehg1_low6_up4_branch1
I0903 17:38:12.951601 20433 net.cpp:434] scalehg1_low6_up4_branch1 <- reshg1_low6_up4_branch1
I0903 17:38:12.951608 20433 net.cpp:395] scalehg1_low6_up4_branch1 -> reshg1_low6_up4_branch1 (in-place)
I0903 17:38:12.951642 20433 layer_factory.hpp:77] Creating layer scalehg1_low6_up4_branch1
I0903 17:38:12.951727 20433 net.cpp:150] Setting up scalehg1_low6_up4_branch1
I0903 17:38:12.951735 20433 net.cpp:157] Top shape: 1 512 32 32 (524288)
I0903 17:38:12.951738 20433 net.cpp:165] Memory required for data: 525860864
I0903 17:38:12.951746 20433 layer_factory.hpp:77] Creating layer reshg1_low6_up4_branch2a
I0903 17:38:12.951758 20433 net.cpp:100] Creating Layer reshg1_low6_up4_branch2a
I0903 17:38:12.951763 20433 net.cpp:434] reshg1_low6_up4_branch2a <- reshg1_low6_up2_reshg1_low6_up2_relu_0_split_1
I0903 17:38:12.951772 20433 net.cpp:408] reshg1_low6_up4_branch2a -> reshg1_low6_up4_branch2a
I0903 17:38:12.952474 20433 net.cpp:150] Setting up reshg1_low6_up4_branch2a
I0903 17:38:12.952483 20433 net.cpp:157] Top shape: 1 256 32 32 (262144)
I0903 17:38:12.952487 20433 net.cpp:165] Memory required for data: 526909440
I0903 17:38:12.952493 20433 layer_factory.hpp:77] Creating layer bnhg1_low6_up4_branch2a
I0903 17:38:12.952502 20433 net.cpp:100] Creating Layer bnhg1_low6_up4_branch2a
I0903 17:38:12.952507 20433 net.cpp:434] bnhg1_low6_up4_branch2a <- reshg1_low6_up4_branch2a
I0903 17:38:12.952515 20433 net.cpp:395] bnhg1_low6_up4_branch2a -> reshg1_low6_up4_branch2a (in-place)
I0903 17:38:12.952661 20433 net.cpp:150] Setting up bnhg1_low6_up4_branch2a
I0903 17:38:12.952669 20433 net.cpp:157] Top shape: 1 256 32 32 (262144)
I0903 17:38:12.952673 20433 net.cpp:165] Memory required for data: 527958016
I0903 17:38:12.952682 20433 layer_factory.hpp:77] Creating layer scalehg1_low6_up4_branch2a
I0903 17:38:12.952692 20433 net.cpp:100] Creating Layer scalehg1_low6_up4_branch2a
I0903 17:38:12.952697 20433 net.cpp:434] scalehg1_low6_up4_branch2a <- reshg1_low6_up4_branch2a
I0903 17:38:12.952703 20433 net.cpp:395] scalehg1_low6_up4_branch2a -> reshg1_low6_up4_branch2a (in-place)
I0903 17:38:12.952739 20433 layer_factory.hpp:77] Creating layer scalehg1_low6_up4_branch2a
I0903 17:38:12.952821 20433 net.cpp:150] Setting up scalehg1_low6_up4_branch2a
I0903 17:38:12.952828 20433 net.cpp:157] Top shape: 1 256 32 32 (262144)
I0903 17:38:12.952832 20433 net.cpp:165] Memory required for data: 529006592
I0903 17:38:12.952841 20433 layer_factory.hpp:77] Creating layer reshg1_low6_up4_branch2a_relu
I0903 17:38:12.952849 20433 net.cpp:100] Creating Layer reshg1_low6_up4_branch2a_relu
…
I0903 17:38:13.850033 20433 net.cpp:150] Setting up reshg2_low6_low6_low6_low6_branch2c
I0903 17:38:13.850044 20433 net.cpp:157] Top shape: 1 512 4 4 (8192)
I0903 17:38:13.850047 20433 net.cpp:165] Memory required for data: 1073676288
I0903 17:38:13.850054 20433 layer_factory.hpp:77] Creating layer bnhg2_low6_low6_low6_low6_branch2c
I0903 17:38:13.850075 20433 net.cpp:100] Creating Layer bnhg2_low6_low6_low6_low6_branch2c
I0903 17:38:13.850083 20433 net.cpp:434] bnhg2_low6_low6_low6_low6_branch2c <- reshg2_low6_low6_low6_low6_branch2c
I0903 17:38:13.850091 20433 net.cpp:395] bnhg2_low6_low6_low6_low6_branch2c -> reshg2_low6_low6_low6_low6_branch2c (in-place)
I0903 17:38:13.850265 20433 net.cpp:150] Setting up bnhg2_low6_low6_low6_low6_branch2c
I0903 17:38:13.850273 20433 net.cpp:157] Top shape: 1 512 4 4 (8192)
I0903 17:38:13.850277 20433 net.cpp:165] Memory required for data: 1073709056
I0903 17:38:13.850286 20433 layer_factory.hpp:77] Creating layer scalehg2_low6_low6_low6_low6_branch2c
I0903 17:38:13.850297 20433 net.cpp:100] Creating Layer scalehg2_low6_low6_low6_low6_branch2c
I0903 17:38:13.850302 20433 net.cpp:434] scalehg2_low6_low6_low6_low6_branch2c <- reshg2_low6_low6_low6_low6_branch2c
I0903 17:38:13.850309 20433 net.cpp:395] scalehg2_low6_low6_low6_low6_branch2c -> reshg2_low6_low6_low6_low6_branch2c (in-place)
I0903 17:38:13.850349 20433 layer_factory.hpp:77] Creating layer scalehg2_low6_low6_low6_low6_branch2c
I0903 17:38:13.850450 20433 net.cpp:150] Setting up scalehg2_low6_low6_low6_low6_branch2c
I0903 17:38:13.850457 20433 net.cpp:157] Top shape: 1 512 4 4 (8192)
I0903 17:38:13.850461 20433 net.cpp:165] Memory required for data: 1073741824
I0903 17:38:13.850468 20433 layer_factory.hpp:77] Creating layer reshg2_low6_low6_low6_low6
I0903 17:38:13.850478 20433 net.cpp:100] Creating Layer reshg2_low6_low6_low6_low6
I0903 17:38:13.850483 20433 net.cpp:434] reshg2_low6_low6_low6_low6 <- reshg2_low6_low6_low6_low6_branch1
I0903 17:38:13.850489 20433 net.cpp:434] reshg2_low6_low6_low6_low6 <- reshg2_low6_low6_low6_low6_branch2c
I0903 17:38:13.850497 20433 net.cpp:408] reshg2_low6_low6_low6_low6 -> reshg2_low6_low6_low6_low6
I0903 17:38:13.850522 20433 net.cpp:150] Setting up reshg2_low6_low6_low6_low6
I0903 17:38:13.850528 20433 net.cpp:157] Top shape: 1 512 4 4 (8192)
I0903 17:38:13.850533 20433 net.cpp:165] Memory required for data: 1073774592
I0903 17:38:13.850536 20433 layer_factory.hpp:77] Creating layer reshg2_low6_low6_low6_low6_relu
I0903 17:38:13.850543 20433 net.cpp:100] Creating Layer reshg2_low6_low6_low6_low6_relu
I0903 17:38:13.850548 20433 net.cpp:434] reshg2_low6_low6_low6_low6_relu <- reshg2_low6_low6_low6_low6
I0903 17:38:13.850554 20433 net.cpp:395] reshg2_low6_low6_low6_low6_relu -> reshg2_low6_low6_low6_low6 (in-place)
I0903 17:38:13.850563 20433 net.cpp:150] Setting up reshg2_low6_low6_low6_low6_relu
I0903 17:38:13.850569 20433 net.cpp:157] Top shape: 1 512 4 4 (8192)
I0903 17:38:13.850574 20433 net.cpp:165] Memory required for data: 1073807360
I0903 17:38:13.850577 20433 layer_factory.hpp:77] Creating layer reshg2_low6_low6_low6_low6_reshg2_low6_low6_low6_low6_relu_0_split
I0903 17:38:13.850584 20433 net.cpp:100] Creating Layer reshg2_low6_low6_low6_low6_reshg2_low6_low6_low6_low6_relu_0_split
I0903 17:38:13.850589 20433 net.cpp:434] reshg2_low6_low6_low6_low6_reshg2_low6_low6_low6_low6_relu_0_split <- reshg2_low6_low6_low6_low6
I0903 17:38:13.850596 20433 net.cpp:408] reshg2_low6_low6_low6_low6_reshg2_low6_low6_low6_low6_relu_0_split -> reshg2_low6_low6_low6_low6_reshg2_low6_low6_low6_low6_relu_0_split_0
I0903 17:38:13.850605 20433 net.cpp:408] reshg2_low6_low6_low6_low6_reshg2_low6_low6_low6_low6_relu_0_split -> reshg2_low6_low6_low6_low6_reshg2_low6_low6_low6_low6_relu_0_split_1
I0903 17:38:13.850638 20433 net.cpp:150] Setting up reshg2_low6_low6_low6_low6_reshg2_low6_low6_low6_low6_relu_0_split
I0903 17:38:13.850644 20433 net.cpp:157] Top shape: 1 512 4 4 (8192)
I0903 17:38:13.850651 20433 net.cpp:157] Top shape: 1 512 4 4 (8192)
I0903 17:38:13.850654 20433 net.cpp:165] Memory required for data: 1073872896
I0903 17:38:13.850657 20433 layer_factory.hpp:77] Creating layer reshg2_low6_low6_low6_low7_branch2a
I0903 17:38:13.850669 20433 net.cpp:100] Creating Layer reshg2_low6_low6_low6_low7_branch2a
I0903 17:38:13.850674 20433 net.cpp:434] reshg2_low6_low6_low6_low7_branch2a <- reshg2_low6_low6_low6_low6_reshg2_low6_low6_low6_low6_relu_0_split_0
I0903 17:38:13.850689 20433 net.cpp:408] reshg2_low6_low6_low6_low7_branch2a -> reshg2_low6_low6_low6_low7_branch2a
I0903 17:38:13.852253 20433 net.cpp:150] Setting up reshg2_low6_low6_low6_low7_branch2a
I0903 17:38:13.852265 20433 net.cpp:157] Top shape: 1 256 4 4 (4096)
I0903 17:38:13.852269 20433 net.cpp:165] Memory required for data: 1073889280
I0903 17:38:13.852275 20433 layer_factory.hpp:77] Creating layer bnhg2_low6_low6_low6_low7_branch2a
I0903 17:38:13.852285 20433 net.cpp:100] Creating Layer bnhg2_low6_low6_low6_low7_branch2a
I0903 17:38:13.852290 20433 net.cpp:434] bnhg2_low6_low6_low6_low7_branch2a <- reshg2_low6_low6_low6_low7_branch2a
I0903 17:38:13.852298 20433 net.cpp:395] bnhg2_low6_low6_low6_low7_branch2a -> reshg2_low6_low6_low6_low7_branch2a (in-place)
I0903 17:38:13.852453 20433 net.cpp:150] Setting up bnhg2_low6_low6_low6_low7_branch2a
I0903 17:38:13.852463 20433 net.cpp:157] Top shape: 1 256 4 4 (4096)
I0903 17:38:13.852465 20433 net.cpp:165] Memory required for data: 1073905664
I0903 17:38:13.852476 20433 layer_factory.hpp:77] Creating layer scalehg2_low6_low6_low6_low7_branch2a
I0903 17:38:13.852485 20433 net.cpp:100] Creating Layer scalehg2_low6_low6_low6_low7_branch2a
I0903 17:38:13.852490 20433 net.cpp:434] scalehg2_low6_low6_low6_low7_branch2a <- reshg2_low6_low6_low6_low7_branch2a
I0903 17:38:13.852499 20433 net.cpp:395] scalehg2_low6_low6_low6_low7_branch2a -> reshg2_low6_low6_low6_low7_branch2a (in-place)
I0903 17:38:13.852533 20433 layer_factory.hpp:77] Creating layer scalehg2_low6_low6_low6_low7_branch2a
I0903 17:38:13.852623 20433 net.cpp:150] Setting up scalehg2_low6_low6_low6_low7_branch2a
I0903 17:38:13.852630 20433 net.cpp:157] Top shape: 1 256 4 4 (4096)
I0903 17:38:13.852634 20433 net.cpp:165] Memory required for data: 1073922048
I0903 17:38:13.852643 20433 layer_factory.hpp:77] Creating layer reshg2_low6_low6_low6_low7_branch2a_relu
I0903 17:38:13.852650 20433 net.cpp:100] Creating Layer reshg2_low6_low6_low6_low7_branch2a_relu
I0903 17:38:13.852655 20433 net.cpp:434] reshg2_low6_low6_low6_low7_branch2a_relu <- reshg2_low6_low6_low6_low7_branch2a
I0903 17:38:13.852663 20433 net.cpp:395] reshg2_low6_low6_low6_low7_branch2a_relu -> reshg2_low6_low6_low6_low7_branch2a (in-place)
I0903 17:38:13.852670 20433 net.cpp:150] Setting up reshg2_low6_low6_low6_low7_branch2a_relu
I0903 17:38:13.852676 20433 net.cpp:157] Top shape: 1 256 4 4 (4096)
I0903 17:38:13.852680 20433 net.cpp:165] Memory required for data: 1073938432
I0903 17:38:13.852685 20433 layer_factory.hpp:77] Creating layer reshg2_low6_low6_low6_low7_branch2b
I0903 17:38:13.852695 20433 net.cpp:100] Creating Layer reshg2_low6_low6_low6_low7_branch2b
I0903 17:38:13.852699 20433 net.cpp:434] reshg2_low6_low6_low6_low7_branch2b <- reshg2_low6_low6_low6_low7_branch2a
I0903 17:38:13.852708 20433 net.cpp:408] reshg2_low6_low6_low6_low7_branch2b -> reshg2_low6_low6_low6_low7_branch2b
I0903 17:38:13.858460 20433 net.cpp:150] Setting up reshg2_low6_low6_low6_low7_branch2b
I0903 17:38:13.858476 20433 net.cpp:157] Top shape: 1 256 4 4 (4096)
I0903 17:38:13.858480 20433 net.cpp:165] Memory required for data: 1073954816
I0903 17:38:13.858486 20433 layer_factory.hpp:77] Creating layer bnhg2_low6_low6_low6_low7_branch2b
I0903 17:38:13.858496 20433 net.cpp:100] Creating Layer bnhg2_low6_low6_low6_low7_branch2b
I0903 17:38:13.858501 20433 net.cpp:434] bnhg2_low6_low6_low6_low7_branch2b <- reshg2_low6_low6_low6_low7_branch2b
I0903 17:38:13.858508 20433 net.cpp:395] bnhg2_low6_low6_low6_low7_branch2b -> reshg2_low6_low6_low6_low7_branch2b (in-place)
I0903 17:38:13.858666 20433 net.cpp:150] Setting up bnhg2_low6_low6_low6_low7_branch2b
I0903 17:38:13.858675 20433 net.cpp:157] Top shape: 1 256 4 4 (4096)
I0903 17:38:13.858677 20433 net.cpp:165] Memory required for data: 1073971200
I0903 17:38:13.858688 20433 layer_factory.hpp:77] Creating layer scalehg2_low6_low6_low6_low7_branch2b
I0903 17:38:13.858698 20433 net.cpp:100] Creating Layer scalehg2_low6_low6_low6_low7_branch2b
I0903 17:38:13.858703 20433 net.cpp:434] scalehg2_low6_low6_low6_low7_branch2b <- reshg2_low6_low6_low6_low7_branch2b
I0903 17:38:13.858721 20433 net.cpp:395] scalehg2_low6_low6_low6_low7_branch2b -> reshg2_low6_low6_low6_low7_branch2b (in-place)
I0903 17:38:13.858762 20433 layer_factory.hpp:77] Creating layer scalehg2_low6_low6_low6_low7_branch2b
I0903 17:38:13.858871 20433 net.cpp:150] Setting up scalehg2_low6_low6_low6_low7_branch2b
I0903 17:38:13.858880 20433 net.cpp:157] Top shape: 1 256 4 4 (4096)
I0903 17:38:13.858882 20433 net.cpp:165] Memory required for data: 1073987584
I0903 17:38:13.858891 20433 layer_factory.hpp:77] Creating layer reshg2_low6_low6_low6_low7_branch2b_relu
I0903 17:38:13.858898 20433 net.cpp:100] Creating Layer reshg2_low6_low6_low6_low7_branch2b_relu
I0903 17:38:13.858904 20433 net.cpp:434] reshg2_low6_low6_low6_low7_branch2b_relu <- reshg2_low6_low6_low6_low7_branch2b
I0903 17:38:13.858911 20433 net.cpp:395] reshg2_low6_low6_low6_low7_branch2b_relu -> reshg2_low6_low6_low6_low7_branch2b (in-place)
I0903 17:38:13.858918 20433 net.cpp:150] Setting up reshg2_low6_low6_low6_low7_branch2b_relu
I0903 17:38:13.858925 20433 net.cpp:157] Top shape: 1 256 4 4 (4096)
I0903 17:38:13.858929 20433 net.cpp:165] Memory required for data: 1074003968
I0903 17:38:13.858933 20433 layer_factory.hpp:77] Creating layer reshg2_low6_low6_low6_low7_branch2c
I0903 17:38:13.858947 20433 net.cpp:100] Creating Layer reshg2_low6_low6_low6_low7_branch2c
I0903 17:38:13.858952 20433 net.cpp:434] reshg2_low6_low6_low6_low7_branch2c <- reshg2_low6_low6_low6_low7_branch2b
I0903 17:38:13.858959 20433 net.cpp:408] reshg2_low6_low6_low6_low7_branch2c -> reshg2_low6_low6_low6_low7_branch2c
I0903 17:38:13.860198 20433 net.cpp:150] Setting up reshg2_low6_low6_low6_low7_branch2c
I0903 17:38:13.860208 20433 net.cpp:157] Top shape: 1 512 4 4 (8192)
I0903 17:38:13.860210 20433 net.cpp:165] Memory required for data: 1074036736
I0903 17:38:13.860218 20433 layer_factory.hpp:77] Creating layer bnhg2_low6_low6_low6_low7_branch2c
I0903 17:38:13.860229 20433 net.cpp:100] Creating Layer bnhg2_low6_low6_low6_low7_branch2c
I0903 17:38:13.860234 20433 net.cpp:434] bnhg2_low6_low6_low6_low7_branch2c <- reshg2_low6_low6_low6_low7_branch2c
I0903 17:38:13.860239 20433 net.cpp:395] bnhg2_low6_low6_low6_low7_branch2c -> reshg2_low6_low6_low6_low7_branch2c (in-place)
I0903 17:38:13.860421 20433 net.cpp:150] Setting up bnhg2_low6_low6_low6_low7_branch2c
I0903 17:38:13.860430 20433 net.cpp:157] Top shape: 1 512 4 4 (8192)
I0903 17:38:13.860433 20433 net.cpp:165] Memory required for data: 1074069504
I0903 17:38:13.860442 20433 layer_factory.hpp:77] Creating layer scalehg2_low6_low6_low6_low7_branch2c
I0903 17:38:13.860451 20433 net.cpp:100] Creating Layer scalehg2_low6_low6_low6_low7_branch2c
I0903 17:38:13.860456 20433 net.cpp:434] scalehg2_low6_low6_low6_low7_branch2c <- reshg2_low6_low6_low6_low7_branch2c
I0903 17:38:13.860463 20433 net.cpp:395] scalehg2_low6_low6_low6_low7_branch2c -> reshg2_low6_low6_low6_low7_branch2c (in-place)
I0903 17:38:13.860503 20433 layer_factory.hpp:77] Creating layer scalehg2_low6_low6_low6_low7_branch2c
I0903 17:38:13.860604 20433 net.cpp:150] Setting up scalehg2_low6_low6_low6_low7_branch2c
I0903 17:38:13.860610 20433 net.cpp:157] Top shape: 1 512 4 4 (8192)
I0903 17:38:13.860615 20433 net.cpp:165] Memory required for data: 1074102272
I0903 17:38:13.860622 20433 layer_factory.hpp:77] Creating layer reshg2_low6_low6_low6_low7
I0903 17:38:13.860630 20433 net.cpp:100] Creating Layer reshg2_low6_low6_low6_low7
I0903 17:38:13.860635 20433 net.cpp:434] reshg2_low6_low6_low6_low7 <- reshg2_low6_low6_low6_low6_reshg2_low6_low6_low6_low6_relu_0_split_1
I0903 17:38:13.860641 20433 net.cpp:434] reshg2_low6_low6_low6_low7 <- reshg2_low6_low6_low6_low7_branch2c
I0903 17:38:13.860651 20433 net.cpp:408] reshg2_low6_low6_low6_low7 -> reshg2_low6_low6_low6_low7
I0903 17:38:13.860673 20433 net.cpp:150] Setting up reshg2_low6_low6_low6_low7
I0903 17:38:13.860680 20433 net.cpp:157] Top shape: 1 512 4 4 (8192)
I0903 17:38:13.860683 20433 net.cpp:165] Memory required for data: 1074135040
I0903 17:38:13.860697 20433 layer_factory.hpp:77] Creating layer reshg2_low6_low6_low6_low7_relu
I0903 17:38:13.860707 20433 net.cpp:100] Creating Layer reshg2_low6_low6_low6_low7_relu
I0903 17:38:13.860713 20433 net.cpp:434] reshg2_low6_low6_low6_low7_relu <- reshg2_low6_low6_low6_low7
I0903 17:38:13.860718 20433 net.cpp:395] reshg2_low6_low6_low6_low7_relu -> reshg2_low6_low6_low6_low7 (in-place)
I0903 17:38:13.860726 20433 net.cpp:150] Setting up reshg2_low6_low6_low6_low7_relu
I0903 17:38:13.860733 20433 net.cpp:157] Top shape: 1 512 4 4 (8192)
I0903 17:38:13.860738 20433 net.cpp:165] Memory required for data: 1074167808
I0903 17:38:13.860741 20433 layer_factory.hpp:77] Creating layer hg2_low6_low6_low6_up5
I0903 17:38:13.860749 20433 net.cpp:100] Creating Layer hg2_low6_low6_low6_up5
I0903 17:38:13.860754 20433 net.cpp:434] hg2_low6_low6_low6_up5 <- reshg2_low6_low6_low6_low7
I0903 17:38:13.860764 20433 net.cpp:408] hg2_low6_low6_low6_up5 -> hg2_low6_low6_low6_up5
I0903 17:38:14.008049 20433 net.cpp:150] Setting up hg2_low6_low6_low6_up5
I0903 17:38:14.008074 20433 net.cpp:157] Top shape: 1 512 8 8 (32768)
I0903 17:38:14.008080 20433 net.cpp:165] Memory required for data: 1074298880
I0903 17:38:14.008100 20433 layer_factory.hpp:77] Creating layer hg2_low6_low6_low6
I0903 17:38:14.008114 20433 net.cpp:100] Creating Layer hg2_low6_low6_low6
I0903 17:38:14.008121 20433 net.cpp:434] hg2_low6_low6_low6 <- reshg2_low6_low6_low6_up4
I0903 17:38:14.008132 20433 net.cpp:434] hg2_low6_low6_low6 <- hg2_low6_low6_low6_up5
I0903 17:38:14.008141 20433 net.cpp:408] hg2_low6_low6_low6 -> hg2_low6_low6_low6
I0903 17:38:14.008183 20433 net.cpp:150] Setting up hg2_low6_low6_low6
I0903 17:38:14.008199 20433 net.cpp:157] Top shape: 1 512 8 8 (32768)
I0903 17:38:14.008215 20433 net.cpp:165] Memory required for data: 1074429952
I0903 17:38:14.008220 20433 layer_factory.hpp:77] Creating layer hg2_low6_low6_low6_hg2_low6_low6_low6_0_split
I0903 17:38:14.008229 20433 net.cpp:100] Creating Layer hg2_low6_low6_low6_hg2_low6_low6_low6_0_split
I0903 17:38:14.008234 20433 net.cpp:434] hg2_low6_low6_low6_hg2_low6_low6_low6_0_split <- hg2_low6_low6_low6
I0903 17:38:14.008240 20433 net.cpp:408] hg2_low6_low6_low6_hg2_low6_low6_low6_0_split -> hg2_low6_low6_low6_hg2_low6_low6_low6_0_split_0
I0903 17:38:14.008250 20433 net.cpp:408] hg2_low6_low6_low6_hg2_low6_low6_low6_0_split -> hg2_low6_low6_low6_hg2_low6_low6_low6_0_split_1
I0903 17:38:14.008293 20433 net.cpp:150] Setting up hg2_low6_low6_low6_hg2_low6_low6_low6_0_split
I0903 17:38:14.008309 20433 net.cpp:157] Top shape: 1 512 8 8 (32768)
I0903 17:38:14.008329 20433 net.cpp:157] Top shape: 1 512 8 8 (32768)
I0903 17:38:14.008333 20433 net.cpp:165] Memory required for data: 1074692096
I0903 17:38:14.008337 20433 layer_factory.hpp:77] Creating layer reshg2_low6_low6_low7_branch2a
I0903 17:38:14.008368 20433 net.cpp:100] Creating Layer reshg2_low6_low6_low7_branch2a
I0903 17:38:14.008376 20433 net.cpp:434] reshg2_low6_low6_low7_branch2a <- hg2_low6_low6_low6_hg2_low6_low6_low6_0_split_0
I0903 17:38:14.008388 20433 net.cpp:408] reshg2_low6_low6_low7_branch2a -> reshg2_low6_low6_low7_branch2a
I0903 17:38:14.011248 20433 net.cpp:150] Setting up reshg2_low6_low6_low7_branch2a
I0903 17:38:14.011260 20433 net.cpp:157] Top shape: 1 256 8 8 (16384)
I0903 17:38:14.011265 20433 net.cpp:165] Memory required for data: 1074757632
I0903 17:38:14.011271 20433 layer_factory.hpp:77] Creating layer bnhg2_low6_low6_low7_branch2a
I0903 17:38:14.011282 20433 net.cpp:100] Creating Layer bnhg2_low6_low6_low7_branch2a
I0903 17:38:14.011287 20433 net.cpp:434] bnhg2_low6_low6_low7_branch2a <- reshg2_low6_low6_low7_branch2a
I0903 17:38:14.011297 20433 net.cpp:395] bnhg2_low6_low6_low7_branch2a -> reshg2_low6_low6_low7_branch2a (in-place)
I0903 17:38:14.011459 20433 net.cpp:150] Setting up bnhg2_low6_low6_low7_branch2a
I0903 17:38:14.011467 20433 net.cpp:157] Top shape: 1 256 8 8 (16384)
I0903 17:38:14.011471 20433 net.cpp:165] Memory required for data: 1074823168
I0903 17:38:14.011482 20433 layer_factory.hpp:77] Creating layer scalehg2_low6_low6_low7_branch2a
I0903 17:38:14.011503 20433 net.cpp:100] Creating Layer scalehg2_low6_low6_low7_branch2a
I0903 17:38:14.011508 20433 net.cpp:434] scalehg2_low6_low6_low7_branch2a <- reshg2_low6_low6_low7_branch2a
I0903 17:38:14.011518 20433 net.cpp:395] scalehg2_low6_low6_low7_branch2a -> reshg2_low6_low6_low7_branch2a (in-place)
I0903 17:38:14.011555 20433 layer_factory.hpp:77] Creating layer scalehg2_low6_low6_low7_branch2a
I0903 17:38:14.011651 20433 net.cpp:150] Setting up scalehg2_low6_low6_low7_branch2a
I0903 17:38:14.011658 20433 net.cpp:157] Top shape: 1 256 8 8 (16384)
I0903 17:38:14.011662 20433 net.cpp:165] Memory required for data: 1074888704
I0903 17:38:14.011669 20433 layer_factory.hpp:77] Creating layer reshg2_low6_low6_low7_branch2a_relu
I0903 17:38:14.011677 20433 net.cpp:100] Creating Layer reshg2_low6_low6_low7_branch2a_relu
I0903 17:38:14.011683 20433 net.cpp:434] reshg2_low6_low6_low7_branch2a_relu <- reshg2_low6_low6_low7_branch2a
I0903 17:38:14.011690 20433 net.cpp:395] reshg2_low6_low6_low7_branch2a_relu -> reshg2_low6_low6_low7_branch2a (in-place)
I0903 17:38:14.011698 20433 net.cpp:150] Setting up reshg2_low6_low6_low7_branch2a_relu
I0903 17:38:14.011704 20433 net.cpp:157] Top shape: 1 256 8 8 (16384)
I0903 17:38:14.011708 20433 net.cpp:165] Memory required for data: 1074954240
I0903 17:38:14.011713 20433 layer_factory.hpp:77] Creating layer reshg2_low6_low6_low7_branch2b
I0903 17:38:14.011723 20433 net.cpp:100] Creating Layer reshg2_low6_low6_low7_branch2b
I0903 17:38:14.011730 20433 net.cpp:434] reshg2_low6_low6_low7_branch2b <- reshg2_low6_low6_low7_branch2a
I0903 17:38:14.011739 20433 net.cpp:408] reshg2_low6_low6_low7_branch2b -> reshg2_low6_low6_low7_branch2b
I0903 17:38:14.017482 20433 net.cpp:150] Setting up reshg2_low6_low6_low7_branch2b
I0903 17:38:14.017495 20433 net.cpp:157] Top shape: 1 256 8 8 (16384)
I0903 17:38:14.017499 20433 net.cpp:165] Memory required for data: 1075019776
I0903 17:38:14.017505 20433 layer_factory.hpp:77] Creating layer bnhg2_low6_low6_low7_branch2b
I0903 17:38:14.017518 20433 net.cpp:100] Creating Layer bnhg2_low6_low6_low7_branch2b
I0903 17:38:14.017523 20433 net.cpp:434] bnhg2_low6_low6_low7_branch2b <- reshg2_low6_low6_low7_branch2b
I0903 17:38:14.017531 20433 net.cpp:395] bnhg2_low6_low6_low7_branch2b -> reshg2_low6_low6_low7_branch2b (in-place)
I0903 17:38:14.017686 20433 net.cpp:150] Setting up bnhg2_low6_low6_low7_branch2b
I0903 17:38:14.017694 20433 net.cpp:157] Top shape: 1 256 8 8 (16384)
I0903 17:38:14.017699 20433 net.cpp:165] Memory required for data: 1075085312
I0903 17:38:14.017709 20433 layer_factory.hpp:77] Creating layer scalehg2_low6_low6_low7_branch2b
I0903 17:38:14.017717 20433 net.cpp:100] Creating Layer scalehg2_low6_low6_low7_branch2b
I0903 17:38:14.017722 20433 net.cpp:434] scalehg2_low6_low6_low7_branch2b <- reshg2_low6_low6_low7_branch2b
I0903 17:38:14.017729 20433 net.cpp:395] scalehg2_low6_low6_low7_branch2b -> reshg2_low6_low6_low7_branch2b (in-place)
I0903 17:38:14.017765 20433 layer_factory.hpp:77] Creating layer scalehg2_low6_low6_low7_branch2b
I0903 17:38:14.017859 20433 net.cpp:150] Setting up scalehg2_low6_low6_low7_branch2b
I0903 17:38:14.017866 20433 net.cpp:157] Top shape: 1 256 8 8 (16384)
I0903 17:38:14.017870 20433 net.cpp:165] Memory required for data: 1075150848
I0903 17:38:14.017879 20433 layer_factory.hpp:77] Creating layer reshg2_low6_low6_low7_branch2b_relu
I0903 17:38:14.017887 20433 net.cpp:100] Creating Layer reshg2_low6_low6_low7_branch2b_relu
I0903 17:38:14.017892 20433 net.cpp:434] reshg2_low6_low6_low7_branch2b_relu <- reshg2_low6_low6_low7_branch2b
I0903 17:38:14.017899 20433 net.cpp:395] reshg2_low6_low6_low7_branch2b_relu -> reshg2_low6_low6_low7_branch2b (in-place)
I0903 17:38:14.017907 20433 net.cpp:150] Setting up reshg2_low6_low6_low7_branch2b_relu
I0903 17:38:14.017913 20433 net.cpp:157] Top shape: 1 256 8 8 (16384)
I0903 17:38:14.017918 20433 net.cpp:165] Memory required for data: 1075216384
I0903 17:38:14.017922 20433 layer_factory.hpp:77] Creating layer reshg2_low6_low6_low7_branch2c
I0903 17:38:14.017941 20433 net.cpp:100] Creating Layer reshg2_low6_low6_low7_branch2c
I0903 17:38:14.017948 20433 net.cpp:434] reshg2_low6_low6_low7_branch2c <- reshg2_low6_low6_low7_branch2b
I0903 17:38:14.017961 20433 net.cpp:408] reshg2_low6_low6_low7_branch2c -> reshg2_low6_low6_low7_branch2c
I0903 17:38:14.019213 20433 net.cpp:150] Setting up reshg2_low6_low6_low7_branch2c
I0903 17:38:14.019222 20433 net.cpp:157] Top shape: 1 512 8 8 (32768)
I0903 17:38:14.019227 20433 net.cpp:165] Memory required for data: 1075347456
I0903 17:38:14.019233 20433 layer_factory.hpp:77] Creating layer bnhg2_low6_low6_low7_branch2c
I0903 17:38:14.019243 20433 net.cpp:100] Creating Layer bnhg2_low6_low6_low7_branch2c
I0903 17:38:14.019248 20433 net.cpp:434] bnhg2_low6_low6_low7_branch2c <- reshg2_low6_low6_low7_branch2c
I0903 17:38:14.019255 20433 net.cpp:395] bnhg2_low6_low6_low7_branch2c -> reshg2_low6_low6_low7_branch2c (in-place)
I0903 17:38:14.019450 20433 net.cpp:150] Setting up bnhg2_low6_low6_low7_branch2c
I0903 17:38:14.019459 20433 net.cpp:157] Top shape: 1 512 8 8 (32768)
I0903 17:38:14.019462 20433 net.cpp:165] Memory required for data: 1075478528
I0903 17:38:14.019472 20433 layer_factory.hpp:77] Creating layer scalehg2_low6_low6_low7_branch2c
I0903 17:38:14.019480 20433 net.cpp:100] Creating Layer scalehg2_low6_low6_low7_branch2c
I0903 17:38:14.019485 20433 net.cpp:434] scalehg2_low6_low6_low7_branch2c <- reshg2_low6_low6_low7_branch2c
I0903 17:38:14.019493 20433 net.cpp:395] scalehg2_low6_low6_low7_branch2c -> reshg2_low6_low6_low7_branch2c (in-place)
I0903 17:38:14.019541 20433 layer_factory.hpp:77] Creating layer scalehg2_low6_low6_low7_branch2c
I0903 17:38:14.019646 20433 net.cpp:150] Setting up scalehg2_low6_low6_low7_branch2c
I0903 17:38:14.019654 20433 net.cpp:157] Top shape: 1 512 8 8 (32768)
I0903 17:38:14.019659 20433 net.cpp:165] Memory required for data: 1075609600
I0903 17:38:14.019666 20433 layer_factory.hpp:77] Creating layer reshg2_low6_low6_low7
I0903 17:38:14.019675 20433 net.cpp:100] Creating Layer reshg2_low6_low6_low7
I0903 17:38:14.019680 20433 net.cpp:434] reshg2_low6_low6_low7 <- hg2_low6_low6_low6_hg2_low6_low6_low6_0_split_1
I0903 17:38:14.019686 20433 net.cpp:434] reshg2_low6_low6_low7 <- reshg2_low6_low6_low7_branch2c
I0903 17:38:14.019695 20433 net.cpp:408] reshg2_low6_low6_low7 -> reshg2_low6_low6_low7
I0903 17:38:14.019721 20433 net.cpp:150] Setting up reshg2_low6_low6_low7
I0903 17:38:14.019727 20433 net.cpp:157] Top shape: 1 512 8 8 (32768)
I0903 17:38:14.019731 20433 net.cpp:165] Memory required for data: 1075740672
I0903 17:38:14.019736 20433 layer_factory.hpp:77] Creating layer reshg2_low6_low6_low7_relu
I0903 17:38:14.019742 20433 net.cpp:100] Creating Layer reshg2_low6_low6_low7_relu
I0903 17:38:14.019747 20433 net.cpp:434] reshg2_low6_low6_low7_relu <- reshg2_low6_low6_low7
I0903 17:38:14.019754 20433 net.cpp:395] reshg2_low6_low6_low7_relu -> reshg2_low6_low6_low7 (in-place)
I0903 17:38:14.019762 20433 net.cpp:150] Setting up reshg2_low6_low6_low7_relu
I0903 17:38:14.019767 20433 net.cpp:157] Top shape: 1 512 8 8 (32768)
I0903 17:38:14.019773 20433 net.cpp:165] Memory required for data: 1075871744
I0903 17:38:14.019776 20433 layer_factory.hpp:77] Creating layer hg2_low6_low6_up5
I0903 17:38:14.019785 20433 net.cpp:100] Creating Layer hg2_low6_low6_up5
I0903 17:38:14.019789 20433 net.cpp:434] hg2_low6_low6_up5 <- reshg2_low6_low6_low7
I0903 17:38:14.019796 20433 net.cpp:408] hg2_low6_low6_up5 -> hg2_low6_low6_up5
I0903 17:38:14.166476 20433 net.cpp:150] Setting up hg2_low6_low6_up5
I0903 17:38:14.166501 20433 net.cpp:157] Top shape: 1 512 16 16 (131072)
I0903 17:38:14.166506 20433 net.cpp:165] Memory required for data: 1076396032
I0903 17:38:14.166524 20433 layer_factory.hpp:77] Creating layer hg2_low6_low6
I0903 17:38:14.166537 20433 net.cpp:100] Creating Layer hg2_low6_low6
I0903 17:38:14.166543 20433 net.cpp:434] hg2_low6_low6 <- reshg2_low6_low6_up4
I0903 17:38:14.166563 20433 net.cpp:434] hg2_low6_low6 <- hg2_low6_low6_up5
I0903 17:38:14.166569 20433 net.cpp:408] hg2_low6_low6 -> hg2_low6_low6
I0903 17:38:14.166610 20433 net.cpp:150] Setting up hg2_low6_low6
I0903 17:38:14.166633 20433 net.cpp:157] Top shape: 1 512 16 16 (131072)
I0903 17:38:14.166638 20433 net.cpp:165] Memory required for data: 1076920320
I0903 17:38:14.166642 20433 layer_factory.hpp:77] Creating layer hg2_low6_low6_hg2_low6_low6_0_split
I0903 17:38:14.166651 20433 net.cpp:100] Creating Layer hg2_low6_low6_hg2_low6_low6_0_split
I0903 17:38:14.166656 20433 net.cpp:434] hg2_low6_low6_hg2_low6_low6_0_split <- hg2_low6_low6
I0903 17:38:14.166674 20433 net.cpp:408] hg2_low6_low6_hg2_low6_low6_0_split -> hg2_low6_low6_hg2_low6_low6_0_split_0
I0903 17:38:14.166683 20433 net.cpp:408] hg2_low6_low6_hg2_low6_low6_0_split -> hg2_low6_low6_hg2_low6_low6_0_split_1
I0903 17:38:14.166726 20433 net.cpp:150] Setting up hg2_low6_low6_hg2_low6_low6_0_split
I0903 17:38:14.166733 20433 net.cpp:157] Top shape: 1 512 16 16 (131072)
I0903 17:38:14.166738 20433 net.cpp:157] Top shape: 1 512 16 16 (131072)
I0903 17:38:14.166752 20433 net.cpp:165] Memory required for data: 1077968896
I0903 17:38:14.166756 20433 layer_factory.hpp:77] Creating layer reshg2_low6_low7_branch2a
I0903 17:38:14.166770 20433 net.cpp:100] Creating Layer reshg2_low6_low7_branch2a
I0903 17:38:14.166775 20433 net.cpp:434] reshg2_low6_low7_branch2a <- hg2_low6_low6_hg2_low6_low6_0_split_0
I0903 17:38:14.166785 20433 net.cpp:408] reshg2_low6_low7_branch2a -> reshg2_low6_low7_branch2a
I0903 17:38:14.168445 20433 net.cpp:150] Setting up reshg2_low6_low7_branch2a
I0903 17:38:14.168457 20433 net.cpp:157] Top shape: 1 256 16 16 (65536)
I0903 17:38:14.168462 20433 net.cpp:165] Memory required for data: 1078231040
I0903 17:38:14.168467 20433 layer_factory.hpp:77] Creating layer bnhg2_low6_low7_branch2a
I0903 17:38:14.168478 20433 net.cpp:100] Creating Layer bnhg2_low6_low7_branch2a
I0903 17:38:14.168483 20433 net.cpp:434] bnhg2_low6_low7_branch2a <- reshg2_low6_low7_branch2a
I0903 17:38:14.168489 20433 net.cpp:395] bnhg2_low6_low7_branch2a -> reshg2_low6_low7_branch2a (in-place)
I0903 17:38:14.168637 20433 net.cpp:150] Setting up bnhg2_low6_low7_branch2a
I0903 17:38:14.168644 20433 net.cpp:157] Top shape: 1 256 16 16 (65536)
I0903 17:38:14.168648 20433 net.cpp:165] Memory required for data: 1078493184
I0903 17:38:14.168658 20433 layer_factory.hpp:77] Creating layer scalehg2_low6_low7_branch2a
I0903 17:38:14.168668 20433 net.cpp:100] Creating Layer scalehg2_low6_low7_branch2a
I0903 17:38:14.168673 20433 net.cpp:434] scalehg2_low6_low7_branch2a <- reshg2_low6_low7_branch2a
I0903 17:38:14.168680 20433 net.cpp:395] scalehg2_low6_low7_branch2a -> reshg2_low6_low7_branch2a (in-place)
I0903 17:38:14.168717 20433 layer_factory.hpp:77] Creating layer scalehg2_low6_low7_branch2a
I0903 17:38:14.168803 20433 net.cpp:150] Setting up scalehg2_low6_low7_branch2a
I0903 17:38:14.168812 20433 net.cpp:157] Top shape: 1 256 16 16 (65536)
I0903 17:38:14.168814 20433 net.cpp:165] Memory required for data: 1078755328
I0903 17:38:14.168823 20433 layer_factory.hpp:77] Creating layer reshg2_low6_low7_branch2a_relu
I0903 17:38:14.168833 20433 net.cpp:100] Creating Layer reshg2_low6_low7_branch2a_relu
I0903 17:38:14.168838 20433 net.cpp:434] reshg2_low6_low7_branch2a_relu <- reshg2_low6_low7_branch2a
I0903 17:38:14.168844 20433 net.cpp:395] reshg2_low6_low7_branch2a_relu -> reshg2_low6_low7_branch2a (in-place)
I0903 17:38:14.168853 20433 net.cpp:150] Setting up reshg2_low6_low7_branch2a_relu
I0903 17:38:14.168859 20433 net.cpp:157] Top shape: 1 256 16 16 (65536)
I0903 17:38:14.168864 20433 net.cpp:165] Memory required for data: 1079017472
I0903 17:38:14.168866 20433 layer_factory.hpp:77] Creating layer reshg2_low6_low7_branch2b
I0903 17:38:14.168877 20433 net.cpp:100] Creating Layer reshg2_low6_low7_branch2b
I0903 17:38:14.168881 20433 net.cpp:434] reshg2_low6_low7_branch2b <- reshg2_low6_low7_branch2a
I0903 17:38:14.168890 20433 net.cpp:408] reshg2_low6_low7_branch2b -> reshg2_low6_low7_branch2b
I0903 17:38:14.174551 20433 net.cpp:150] Setting up reshg2_low6_low7_branch2b
I0903 17:38:14.174566 20433 net.cpp:157] Top shape: 1 256 16 16 (65536)
I0903 17:38:14.174584 20433 net.cpp:165] Memory required for data: 1079279616
I0903 17:38:14.174594 20433 layer_factory.hpp:77] Creating layer bnhg2_low6_low7_branch2b
I0903 17:38:14.174604 20433 net.cpp:100] Creating Layer bnhg2_low6_low7_branch2b
I0903 17:38:14.174610 20433 net.cpp:434] bnhg2_low6_low7_branch2b <- reshg2_low6_low7_branch2b
I0903 17:38:14.174618 20433 net.cpp:395] bnhg2_low6_low7_branch2b -> reshg2_low6_low7_branch2b (in-place)
I0903 17:38:14.174768 20433 net.cpp:150] Setting up bnhg2_low6_low7_branch2b
I0903 17:38:14.174777 20433 net.cpp:157] Top shape: 1 256 16 16 (65536)
I0903 17:38:14.174779 20433 net.cpp:165] Memory required for data: 1079541760
I0903 17:38:14.174789 20433 layer_factory.hpp:77] Creating layer scalehg2_low6_low7_branch2b
I0903 17:38:14.174799 20433 net.cpp:100] Creating Layer scalehg2_low6_low7_branch2b
I0903 17:38:14.174804 20433 net.cpp:434] scalehg2_low6_low7_branch2b <- reshg2_low6_low7_branch2b
I0903 17:38:14.174810 20433 net.cpp:395] scalehg2_low6_low7_branch2b -> reshg2_low6_low7_branch2b (in-place)
I0903 17:38:14.174847 20433 layer_factory.hpp:77] Creating layer scalehg2_low6_low7_branch2b
I0903 17:38:14.174932 20433 net.cpp:150] Setting up scalehg2_low6_low7_branch2b
I0903 17:38:14.174940 20433 net.cpp:157] Top shape: 1 256 16 16 (65536)
I0903 17:38:14.174944 20433 net.cpp:165] Memory required for data: 1079803904
I0903 17:38:14.174952 20433 layer_factory.hpp:77] Creating layer reshg2_low6_low7_branch2b_relu
I0903 17:38:14.174962 20433 net.cpp:100] Creating Layer reshg2_low6_low7_branch2b_relu
I0903 17:38:14.174965 20433 net.cpp:434] reshg2_low6_low7_branch2b_relu <- reshg2_low6_low7_branch2b
I0903 17:38:14.174973 20433 net.cpp:395] reshg2_low6_low7_branch2b_relu -> reshg2_low6_low7_branch2b (in-place)
I0903 17:38:14.174979 20433 net.cpp:150] Setting up reshg2_low6_low7_branch2b_relu
I0903 17:38:14.174986 20433 net.cpp:157] Top shape: 1 256 16 16 (65536)
I0903 17:38:14.174990 20433 net.cpp:165] Memory required for data: 1080066048
I0903 17:38:14.174994 20433 layer_factory.hpp:77] Creating layer reshg2_low6_low7_branch2c
I0903 17:38:14.175005 20433 net.cpp:100] Creating Layer reshg2_low6_low7_branch2c
I0903 17:38:14.175009 20433 net.cpp:434] reshg2_low6_low7_branch2c <- reshg2_low6_low7_branch2b
I0903 17:38:14.175019 20433 net.cpp:408] reshg2_low6_low7_branch2c -> reshg2_low6_low7_branch2c
I0903 17:38:14.176261 20433 net.cpp:150] Setting up reshg2_low6_low7_branch2c
I0903 17:38:14.176270 20433 net.cpp:157] Top shape: 1 512 16 16 (131072)
I0903 17:38:14.176275 20433 net.cpp:165] Memory required for data: 1080590336
I0903 17:38:14.176281 20433 layer_factory.hpp:77] Creating layer bnhg2_low6_low7_branch2c
I0903 17:38:14.176290 20433 net.cpp:100] Creating Layer bnhg2_low6_low7_branch2c
I0903 17:38:14.176295 20433 net.cpp:434] bnhg2_low6_low7_branch2c <- reshg2_low6_low7_branch2c
I0903 17:38:14.176303 20433 net.cpp:395] bnhg2_low6_low7_branch2c -> reshg2_low6_low7_branch2c (in-place)
I0903 17:38:14.176486 20433 net.cpp:150] Setting up bnhg2_low6_low7_branch2c
I0903 17:38:14.176496 20433 net.cpp:157] Top shape: 1 512 16 16 (131072)
I0903 17:38:14.176499 20433 net.cpp:165] Memory required for data: 1081114624
I0903 17:38:14.176507 20433 layer_factory.hpp:77] Creating layer scalehg2_low6_low7_branch2c
I0903 17:38:14.176515 20433 net.cpp:100] Creating Layer scalehg2_low6_low7_branch2c
I0903 17:38:14.176520 20433 net.cpp:434] scalehg2_low6_low7_branch2c <- reshg2_low6_low7_branch2c
I0903 17:38:14.176527 20433 net.cpp:395] scalehg2_low6_low7_branch2c -> reshg2_low6_low7_branch2c (in-place)
I0903 17:38:14.176566 20433 layer_factory.hpp:77] Creating layer scalehg2_low6_low7_branch2c
I0903 17:38:14.176661 20433 net.cpp:150] Setting up scalehg2_low6_low7_branch2c
I0903 17:38:14.176669 20433 net.cpp:157] Top shape: 1 512 16 16 (131072)
I0903 17:38:14.176673 20433 net.cpp:165] Memory required for data: 1081638912
I0903 17:38:14.176681 20433 layer_factory.hpp:77] Creating layer reshg2_low6_low7
I0903 17:38:14.176690 20433 net.cpp:100] Creating Layer reshg2_low6_low7
I0903 17:38:14.176704 20433 net.cpp:434] reshg2_low6_low7 <- hg2_low6_low6_hg2_low6_low6_0_split_1
I0903 17:38:14.176712 20433 net.cpp:434] reshg2_low6_low7 <- reshg2_low6_low7_branch2c
I0903 17:38:14.176720 20433 net.cpp:408] reshg2_low6_low7 -> reshg2_low6_low7
I0903 17:38:14.176741 20433 net.cpp:150] Setting up reshg2_low6_low7
I0903 17:38:14.176748 20433 net.cpp:157] Top shape: 1 512 16 16 (131072)
I0903 17:38:14.176753 20433 net.cpp:165] Memory required for data: 1082163200
I0903 17:38:14.176756 20433 layer_factory.hpp:77] Creating layer reshg2_low6_low7_relu
I0903 17:38:14.176765 20433 net.cpp:100] Creating Layer reshg2_low6_low7_relu
I0903 17:38:14.176770 20433 net.cpp:434] reshg2_low6_low7_relu <- reshg2_low6_low7
I0903 17:38:14.176776 20433 net.cpp:395] reshg2_low6_low7_relu -> reshg2_low6_low7 (in-place)
I0903 17:38:14.176784 20433 net.cpp:150] Setting up reshg2_low6_low7_relu
I0903 17:38:14.176790 20433 net.cpp:157] Top shape: 1 512 16 16 (131072)
I0903 17:38:14.176795 20433 net.cpp:165] Memory required for data: 1082687488
I0903 17:38:14.176798 20433 layer_factory.hpp:77] Creating layer hg2_low6_up5
I0903 17:38:14.176807 20433 net.cpp:100] Creating Layer hg2_low6_up5
I0903 17:38:14.176811 20433 net.cpp:434] hg2_low6_up5 <- reshg2_low6_low7
I0903 17:38:14.176820 20433 net.cpp:408] hg2_low6_up5 -> hg2_low6_up5
I0903 17:38:14.323206 20433 net.cpp:150] Setting up hg2_low6_up5
I0903 17:38:14.323235 20433 net.cpp:157] Top shape: 1 512 32 32 (524288)
I0903 17:38:14.323251 20433 net.cpp:165] Memory required for data: 1084784640
I0903 17:38:14.323261 20433 layer_factory.hpp:77] Creating layer hg2_low6
I0903 17:38:14.323272 20433 net.cpp:100] Creating Layer hg2_low6
I0903 17:38:14.323279 20433 net.cpp:434] hg2_low6 <- reshg2_low6_up4
I0903 17:38:14.323299 20433 net.cpp:434] hg2_low6 <- hg2_low6_up5
I0903 17:38:14.323307 20433 net.cpp:408] hg2_low6 -> hg2_low6
I0903 17:38:14.323356 20433 net.cpp:150] Setting up hg2_low6
I0903 17:38:14.323374 20433 net.cpp:157] Top shape: 1 512 32 32 (524288)
I0903 17:38:14.323379 20433 net.cpp:165] Memory required for data: 1086881792
I0903 17:38:14.323392 20433 layer_factory.hpp:77] Creating layer hg2_low6_hg2_low6_0_split
I0903 17:38:14.323402 20433 net.cpp:100] Creating Layer hg2_low6_hg2_low6_0_split
I0903 17:38:14.323407 20433 net.cpp:434] hg2_low6_hg2_low6_0_split <- hg2_low6
I0903 17:38:14.323426 20433 net.cpp:408] hg2_low6_hg2_low6_0_split -> hg2_low6_hg2_low6_0_split_0
I0903 17:38:14.323434 20433 net.cpp:408] hg2_low6_hg2_low6_0_split -> hg2_low6_hg2_low6_0_split_1
I0903 17:38:14.323482 20433 net.cpp:150] Setting up hg2_low6_hg2_low6_0_split
I0903 17:38:14.323490 20433 net.cpp:157] Top shape: 1 512 32 32 (524288)
I0903 17:38:14.323505 20433 net.cpp:157] Top shape: 1 512 32 32 (524288)
I0903 17:38:14.323509 20433 net.cpp:165] Memory required for data: 1091076096
I0903 17:38:14.323513 20433 layer_factory.hpp:77] Creating layer reshg2_low7_branch2a
I0903 17:38:14.323529 20433 net.cpp:100] Creating Layer reshg2_low7_branch2a
I0903 17:38:14.323534 20433 net.cpp:434] reshg2_low7_branch2a <- hg2_low6_hg2_low6_0_split_0
I0903 17:38:14.323542 20433 net.cpp:408] reshg2_low7_branch2a -> reshg2_low7_branch2a
I0903 17:38:14.325215 20433 net.cpp:150] Setting up reshg2_low7_branch2a
I0903 17:38:14.325227 20433 net.cpp:157] Top shape: 1 256 32 32 (262144)
I0903 17:38:14.325232 20433 net.cpp:165] Memory required for data: 1092124672
I0903 17:38:14.325238 20433 layer_factory.hpp:77] Creating layer bnhg2_low7_branch2a
I0903 17:38:14.325259 20433 net.cpp:100] Creating Layer bnhg2_low7_branch2a
I0903 17:38:14.325264 20433 net.cpp:434] bnhg2_low7_branch2a <- reshg2_low7_branch2a
I0903 17:38:14.325275 20433 net.cpp:395] bnhg2_low7_branch2a -> reshg2_low7_branch2a (in-place)
I0903 17:38:14.325474 20433 net.cpp:150] Setting up bnhg2_low7_branch2a
I0903 17:38:14.325482 20433 net.cpp:157] Top shape: 1 256 32 32 (262144)
I0903 17:38:14.325485 20433 net.cpp:165] Memory required for data: 1093173248
I0903 17:38:14.325505 20433 layer_factory.hpp:77] Creating layer scalehg2_low7_branch2a
I0903 17:38:14.325528 20433 net.cpp:100] Creating Layer scalehg2_low7_branch2a
I0903 17:38:14.325536 20433 net.cpp:434] scalehg2_low7_branch2a <- reshg2_low7_branch2a
I0903 17:38:14.325543 20433 net.cpp:395] scalehg2_low7_branch2a -> reshg2_low7_branch2a (in-place)
I0903 17:38:14.325585 20433 layer_factory.hpp:77] Creating layer scalehg2_low7_branch2a
I0903 17:38:14.325700 20433 net.cpp:150] Setting up scalehg2_low7_branch2a
I0903 17:38:14.325708 20433 net.cpp:157] Top shape: 1 256 32 32 (262144)
I0903 17:38:14.325712 20433 net.cpp:165] Memory required for data: 1094221824
I0903 17:38:14.325721 20433 layer_factory.hpp:77] Creating layer reshg2_low7_branch2a_relu
I0903 17:38:14.325728 20433 net.cpp:100] Creating Layer reshg2_low7_branch2a_relu
I0903 17:38:14.325733 20433 net.cpp:434] reshg2_low7_branch2a_relu <- reshg2_low7_branch2a
I0903 17:38:14.325742 20433 net.cpp:395] reshg2_low7_branch2a_relu -> reshg2_low7_branch2a (in-place)
I0903 17:38:14.325748 20433 net.cpp:150] Setting up reshg2_low7_branch2a_relu
I0903 17:38:14.325755 20433 net.cpp:157] Top shape: 1 256 32 32 (262144)
I0903 17:38:14.325760 20433 net.cpp:165] Memory required for data: 1095270400
I0903 17:38:14.325763 20433 layer_factory.hpp:77] Creating layer reshg2_low7_branch2b
I0903 17:38:14.325774 20433 net.cpp:100] Creating Layer reshg2_low7_branch2b
I0903 17:38:14.325778 20433 net.cpp:434] reshg2_low7_branch2b <- reshg2_low7_branch2a
I0903 17:38:14.325788 20433 net.cpp:408] reshg2_low7_branch2b -> reshg2_low7_branch2b
I0903 17:38:14.331517 20433 net.cpp:150] Setting up reshg2_low7_branch2b
I0903 17:38:14.331531 20433 net.cpp:157] Top shape: 1 256 32 32 (262144)
I0903 17:38:14.331535 20433 net.cpp:165] Memory required for data: 1096318976
I0903 17:38:14.331542 20433 layer_factory.hpp:77] Creating layer bnhg2_low7_branch2b
I0903 17:38:14.331552 20433 net.cpp:100] Creating Layer bnhg2_low7_branch2b
I0903 17:38:14.331557 20433 net.cpp:434] bnhg2_low7_branch2b <- reshg2_low7_branch2b
I0903 17:38:14.331565 20433 net.cpp:395] bnhg2_low7_branch2b -> reshg2_low7_branch2b (in-place)
I0903 17:38:14.331734 20433 net.cpp:150] Setting up bnhg2_low7_branch2b
I0903 17:38:14.331743 20433 net.cpp:157] Top shape: 1 256 32 32 (262144)
I0903 17:38:14.331745 20433 net.cpp:165] Memory required for data: 1097367552
I0903 17:38:14.331755 20433 layer_factory.hpp:77] Creating layer scalehg2_low7_branch2b
I0903 17:38:14.331765 20433 net.cpp:100] Creating Layer scalehg2_low7_branch2b
I0903 17:38:14.331770 20433 net.cpp:434] scalehg2_low7_branch2b <- reshg2_low7_branch2b
I0903 17:38:14.331778 20433 net.cpp:395] scalehg2_low7_branch2b -> reshg2_low7_branch2b (in-place)
I0903 17:38:14.331815 20433 layer_factory.hpp:77] Creating layer scalehg2_low7_branch2b
I0903 17:38:14.331918 20433 net.cpp:150] Setting up scalehg2_low7_branch2b
I0903 17:38:14.331926 20433 net.cpp:157] Top shape: 1 256 32 32 (262144)
I0903 17:38:14.331930 20433 net.cpp:165] Memory required for data: 1098416128
I0903 17:38:14.331939 20433 layer_factory.hpp:77] Creating layer reshg2_low7_branch2b_relu
I0903 17:38:14.331948 20433 net.cpp:100] Creating Layer reshg2_low7_branch2b_relu
I0903 17:38:14.331953 20433 net.cpp:434] reshg2_low7_branch2b_relu <- reshg2_low7_branch2b
I0903 17:38:14.331960 20433 net.cpp:395] reshg2_low7_branch2b_relu -> reshg2_low7_branch2b (in-place)
I0903 17:38:14.331967 20433 net.cpp:150] Setting up reshg2_low7_branch2b_relu
I0903 17:38:14.331974 20433 net.cpp:157] Top shape: 1 256 32 32 (262144)
I0903 17:38:14.331979 20433 net.cpp:165] Memory required for data: 1099464704
I0903 17:38:14.331982 20433 layer_factory.hpp:77] Creating layer reshg2_low7_branch2c
I0903 17:38:14.331992 20433 net.cpp:100] Creating Layer reshg2_low7_branch2c
I0903 17:38:14.331996 20433 net.cpp:434] reshg2_low7_branch2c <- reshg2_low7_branch2b
I0903 17:38:14.332005 20433 net.cpp:408] reshg2_low7_branch2c -> reshg2_low7_branch2c
I0903 17:38:14.333264 20433 net.cpp:150] Setting up reshg2_low7_branch2c
I0903 17:38:14.333273 20433 net.cpp:157] Top shape: 1 512 32 32 (524288)
I0903 17:38:14.333277 20433 net.cpp:165] Memory required for data: 1101561856
I0903 17:38:14.333295 20433 layer_factory.hpp:77] Creating layer bnhg2_low7_branch2c
I0903 17:38:14.333307 20433 net.cpp:100] Creating Layer bnhg2_low7_branch2c
I0903 17:38:14.333312 20433 net.cpp:434] bnhg2_low7_branch2c <- reshg2_low7_branch2c
I0903 17:38:14.333318 20433 net.cpp:395] bnhg2_low7_branch2c -> reshg2_low7_branch2c (in-place)
I0903 17:38:14.333497 20433 net.cpp:150] Setting up bnhg2_low7_branch2c
I0903 17:38:14.333505 20433 net.cpp:157] Top shape: 1 512 32 32 (524288)
I0903 17:38:14.333508 20433 net.cpp:165] Memory required for data: 1103659008
I0903 17:38:14.333518 20433 layer_factory.hpp:77] Creating layer scalehg2_low7_branch2c
I0903 17:38:14.333528 20433 net.cpp:100] Creating Layer scalehg2_low7_branch2c
I0903 17:38:14.333533 20433 net.cpp:434] scalehg2_low7_branch2c <- reshg2_low7_branch2c
I0903 17:38:14.333540 20433 net.cpp:395] scalehg2_low7_branch2c -> reshg2_low7_branch2c (in-place)
I0903 17:38:14.333580 20433 layer_factory.hpp:77] Creating layer scalehg2_low7_branch2c
I0903 17:38:14.333688 20433 net.cpp:150] Setting up scalehg2_low7_branch2c
I0903 17:38:14.333696 20433 net.cpp:157] Top shape: 1 512 32 32 (524288)
I0903 17:38:14.333701 20433 net.cpp:165] Memory required for data: 1105756160
I0903 17:38:14.333709 20433 layer_factory.hpp:77] Creating layer reshg2_low7
I0903 17:38:14.333715 20433 net.cpp:100] Creating Layer reshg2_low7
I0903 17:38:14.333720 20433 net.cpp:434] reshg2_low7 <- hg2_low6_hg2_low6_0_split_1
I0903 17:38:14.333727 20433 net.cpp:434] reshg2_low7 <- reshg2_low7_branch2c
I0903 17:38:14.333734 20433 net.cpp:408] reshg2_low7 -> reshg2_low7
I0903 17:38:14.333760 20433 net.cpp:150] Setting up reshg2_low7
I0903 17:38:14.333767 20433 net.cpp:157] Top shape: 1 512 32 32 (524288)
I0903 17:38:14.333772 20433 net.cpp:165] Memory required for data: 1107853312
I0903 17:38:14.333776 20433 layer_factory.hpp:77] Creating layer reshg2_low7_relu
I0903 17:38:14.333783 20433 net.cpp:100] Creating Layer reshg2_low7_relu
I0903 17:38:14.333788 20433 net.cpp:434] reshg2_low7_relu <- reshg2_low7
I0903 17:38:14.333796 20433 net.cpp:395] reshg2_low7_relu -> reshg2_low7 (in-place)
I0903 17:38:14.333802 20433 net.cpp:150] Setting up reshg2_low7_relu
I0903 17:38:14.333808 20433 net.cpp:157] Top shape: 1 512 32 32 (524288)
I0903 17:38:14.333812 20433 net.cpp:165] Memory required for data: 1109950464
I0903 17:38:14.333817 20433 layer_factory.hpp:77] Creating layer hg2_up5
I0903 17:38:14.333827 20433 net.cpp:100] Creating Layer hg2_up5
I0903 17:38:14.333832 20433 net.cpp:434] hg2_up5 <- reshg2_low7
I0903 17:38:14.333838 20433 net.cpp:408] hg2_up5 -> hg2_up5
I0903 17:38:14.483482 20433 net.cpp:150] Setting up hg2_up5
I0903 17:38:14.483511 20433 net.cpp:157] Top shape: 1 512 64 64 (2097152)
I0903 17:38:14.483515 20433 net.cpp:165] Memory required for data: 1118339072
I0903 17:38:14.483536 20433 layer_factory.hpp:77] Creating layer hg2
I0903 17:38:14.483549 20433 net.cpp:100] Creating Layer hg2
I0903 17:38:14.483556 20433 net.cpp:434] hg2 <- reshg2_up4
I0903 17:38:14.483564 20433 net.cpp:434] hg2 <- hg2_up5
I0903 17:38:14.483583 20433 net.cpp:408] hg2 -> hg2
I0903 17:38:14.483630 20433 net.cpp:150] Setting up hg2
I0903 17:38:14.483647 20433 net.cpp:157] Top shape: 1 512 64 64 (2097152)
I0903 17:38:14.483651 20433 net.cpp:165] Memory required for data: 1126727680
I0903 17:38:14.483665 20433 layer_factory.hpp:77] Creating layer linear3
I0903 17:38:14.483678 20433 net.cpp:100] Creating Layer linear3
I0903 17:38:14.483683 20433 net.cpp:434] linear3 <- hg2
I0903 17:38:14.483693 20433 net.cpp:408] linear3 -> linear3
I0903 17:38:14.486461 20433 net.cpp:150] Setting up linear3
I0903 17:38:14.486475 20433 net.cpp:157] Top shape: 1 512 64 64 (2097152)
I0903 17:38:14.486490 20433 net.cpp:165] Memory required for data: 1135116288
I0903 17:38:14.486497 20433 layer_factory.hpp:77] Creating layer bn_linear3
I0903 17:38:14.486511 20433 net.cpp:100] Creating Layer bn_linear3
I0903 17:38:14.486516 20433 net.cpp:434] bn_linear3 <- linear3
I0903 17:38:14.486523 20433 net.cpp:395] bn_linear3 -> linear3 (in-place)
I0903 17:38:14.486752 20433 net.cpp:150] Setting up bn_linear3
I0903 17:38:14.486762 20433 net.cpp:157] Top shape: 1 512 64 64 (2097152)
I0903 17:38:14.486768 20433 net.cpp:165] Memory required for data: 1143504896
I0903 17:38:14.486778 20433 layer_factory.hpp:77] Creating layer scale_linear3
I0903 17:38:14.486788 20433 net.cpp:100] Creating Layer scale_linear3
I0903 17:38:14.486793 20433 net.cpp:434] scale_linear3 <- linear3
I0903 17:38:14.486799 20433 net.cpp:395] scale_linear3 -> linear3 (in-place)
I0903 17:38:14.486850 20433 layer_factory.hpp:77] Creating layer scale_linear3
I0903 17:38:14.486965 20433 net.cpp:150] Setting up scale_linear3
I0903 17:38:14.486974 20433 net.cpp:157] Top shape: 1 512 64 64 (2097152)
I0903 17:38:14.486977 20433 net.cpp:165] Memory required for data: 1151893504
I0903 17:38:14.486985 20433 layer_factory.hpp:77] Creating layer linear3_relu
I0903 17:38:14.486992 20433 net.cpp:100] Creating Layer linear3_relu
I0903 17:38:14.486997 20433 net.cpp:434] linear3_relu <- linear3
I0903 17:38:14.487004 20433 net.cpp:395] linear3_relu -> linear3 (in-place)
I0903 17:38:14.487010 20433 net.cpp:150] Setting up linear3_relu
I0903 17:38:14.487017 20433 net.cpp:157] Top shape: 1 512 64 64 (2097152)
I0903 17:38:14.487021 20433 net.cpp:165] Memory required for data: 1160282112
I0903 17:38:14.487025 20433 layer_factory.hpp:77] Creating layer linear4
I0903 17:38:14.487040 20433 net.cpp:100] Creating Layer linear4
I0903 17:38:14.487045 20433 net.cpp:434] linear4 <- linear3
I0903 17:38:14.487052 20433 net.cpp:408] linear4 -> linear4
I0903 17:38:14.489781 20433 net.cpp:150] Setting up linear4
I0903 17:38:14.489796 20433 net.cpp:157] Top shape: 1 512 64 64 (2097152)
I0903 17:38:14.489800 20433 net.cpp:165] Memory required for data: 1168670720
I0903 17:38:14.489807 20433 layer_factory.hpp:77] Creating layer bn_linear4
I0903 17:38:14.489817 20433 net.cpp:100] Creating Layer bn_linear4
I0903 17:38:14.489822 20433 net.cpp:434] bn_linear4 <- linear4
I0903 17:38:14.489832 20433 net.cpp:395] bn_linear4 -> linear4 (in-place)
I0903 17:38:14.490018 20433 net.cpp:150] Setting up bn_linear4
I0903 17:38:14.490026 20433 net.cpp:157] Top shape: 1 512 64 64 (2097152)
I0903 17:38:14.490031 20433 net.cpp:165] Memory required for data: 1177059328
I0903 17:38:14.490041 20433 layer_factory.hpp:77] Creating layer scale_linear4
I0903 17:38:14.490048 20433 net.cpp:100] Creating Layer scale_linear4
I0903 17:38:14.490053 20433 net.cpp:434] scale_linear4 <- linear4
I0903 17:38:14.490059 20433 net.cpp:395] scale_linear4 -> linear4 (in-place)
I0903 17:38:14.490101 20433 layer_factory.hpp:77] Creating layer scale_linear4
I0903 17:38:14.490208 20433 net.cpp:150] Setting up scale_linear4
I0903 17:38:14.490216 20433 net.cpp:157] Top shape: 1 512 64 64 (2097152)
I0903 17:38:14.490221 20433 net.cpp:165] Memory required for data: 1185447936
I0903 17:38:14.490228 20433 layer_factory.hpp:77] Creating layer linear4_relu
I0903 17:38:14.490236 20433 net.cpp:100] Creating Layer linear4_relu
I0903 17:38:14.490242 20433 net.cpp:434] linear4_relu <- linear4
I0903 17:38:14.490248 20433 net.cpp:395] linear4_relu -> linear4 (in-place)
I0903 17:38:14.490255 20433 net.cpp:150] Setting up linear4_relu
I0903 17:38:14.490262 20433 net.cpp:157] Top shape: 1 512 64 64 (2097152)
I0903 17:38:14.490267 20433 net.cpp:165] Memory required for data: 1193836544
I0903 17:38:14.490270 20433 layer_factory.hpp:77] Creating layer output
I0903 17:38:14.490280 20433 net.cpp:100] Creating Layer output
I0903 17:38:14.490284 20433 net.cpp:434] output <- linear4
I0903 17:38:14.490293 20433 net.cpp:408] output -> output
I0903 17:38:14.490551 20433 net.cpp:150] Setting up output
I0903 17:38:14.490559 20433 net.cpp:157] Top shape: 1 16 64 64 (65536)
I0903 17:38:14.490563 20433 net.cpp:165] Memory required for data: 1194098688
I0903 17:38:14.490571 20433 layer_factory.hpp:77] Creating layer output_relu
I0903 17:38:14.490578 20433 net.cpp:100] Creating Layer output_relu
I0903 17:38:14.490583 20433 net.cpp:434] output_relu <- output
I0903 17:38:14.490589 20433 net.cpp:395] output_relu -> output (in-place)
I0903 17:38:14.490607 20433 net.cpp:150] Setting up output_relu
I0903 17:38:14.490614 20433 net.cpp:157] Top shape: 1 16 64 64 (65536)
I0903 17:38:14.490619 20433 net.cpp:165] Memory required for data: 1194360832
I0903 17:38:14.490623 20433 layer_factory.hpp:77] Creating layer heatmap_loss
I0903 17:38:14.490633 20433 net.cpp:100] Creating Layer heatmap_loss
I0903 17:38:14.490638 20433 net.cpp:434] heatmap_loss <- output
I0903 17:38:14.490643 20433 net.cpp:434] heatmap_loss <- label
I0903 17:38:14.490648 20433 net.cpp:434] heatmap_loss <- data_data_0_split_1
…
