…
I0910 10:46:11.660095  7468 net.cpp:58] Initializing net from parameters: 
name: "SHG_MPII_SHG_256x256_train"
state {
  phase: TRAIN
  level: 0
  stage: ""
}
layer {
  name: "data"
  type: "DataHeatmap"
  top: "data"
  top: "label"
  include {
    phase: TRAIN
  }
  visualise: false
  heatmap_data_param {
    segmentation: false
    multfact: 1
    batchsize: 1
    root_img_dir: "data/MPII/images/"
    data_augment: false
    sample_per_cluster: false
    source: "data/MPII/train.txt"
    outsize: 256
    label_width: 64
    label_height: 64
    angle_max: 30
  }
}
layer {
  name: "conv1"
  type: "Convolution"
  bottom: "data"
  top: "conv1"
  param {
    lr_mult: 0
    decay_mult: 1
  }
  param {
    lr_mult: 0
    decay_mult: 0
  }
  convolution_param {
    num_output: 64
    bias_term: true
    pad: 3
    kernel_size: 7
    stride: 2
    weight_filler {
      type: "gaussian"
      std: 0.01
    }
    bias_filler {
      type: "constant"
      value: 0
    }
  }
}
layer {
  name: "bn_conv1"
  type: "BatchNorm"
  bottom: "conv1"
  top: "conv1"
  param {
    lr_mult: 0
    decay_mult: 0
  }
  param {
    lr_mult: 0
    decay_mult: 0
  }
  param {
    lr_mult: 0
    decay_mult: 0
  }
  batch_norm_param {
    eps: 0.001
  }
}
layer {
  name: "scale_conv1"
  type: "EltwiseAffine"
  bottom: "conv1"
  top: "conv1"
  eltwise_affine_param {
    channel_shared: false
  }
}
layer {
  name: "conv1_relu"
  type: "ReLU"
  bottom: "conv1"
  top: "conv1"
}
layer {
  name: "res1_branch1"
  type: "Convolution"
  bottom: "conv1"
  top: "res1_branch1"
  param {
    lr_mult: 0
    decay_mult: 1
  }
  param {
    lr_mult: 0
    decay_mult: 0
  }
  convolution_param {
    num_output: 128
    pad: 0
    kernel_size: 1
    stride: 1
    weight_filler {
      type: "xavier"
    }
    bias_filler {
      type: "constant"
      value: 0
    }
  }
}
layer {
  name: "conv1_bn"
  type: "BatchNorm"
  bottom: "conv1"
  top: "conv1_bn"
  param {
    lr_mult: 0
    decay_mult: 0
  }
  param {
    lr_mult: 0
    decay_mult: 0
  }
  param {
    lr_mult: 0
    decay_mult: 0
  }
  batch_norm_param {
    eps: 0.001
  }
}
layer {
  name: "conv1_bn_scale"
  type: "EltwiseAffine"
  bottom: "conv1_bn"
  top: "conv1_bn"
  eltwise_affine_param {
    channel_shared: false
  }
}
layer {
  name: "conv1_bn_scale_relu"
  type: "ReLU"
  bottom: "conv1_bn"
  top: "conv1_bn"
}
layer {
  name: "res1_branch2a"
  type: "Convolution"
  bottom: "conv1_bn"
  top: "res1_branch2a"
  param {
    lr_mult: 0
    decay_mult: 1
  }
  param {
    lr_mult: 0
    decay_mult: 0
  }
  convolution_param {
    num_output: 64
    bias_term: true
    pad: 0
    kernel_size: 1
    stride: 1
    weight_filler {
      type: "gaussian"
      std: 0.01
    }
    bias_filler {
      type: "constant"
      value: 0
    }
  }
}
layer {
  name: "bn1_branch2a"
  type: "BatchNorm"
  bottom: "res1_branch2a"
  top: "res1_branch2a"
  param {
    lr_mult: 0
    decay_mult: 0
  }
  param {
    lr_mult: 0
    decay_mult: 0
  }
  param {
    lr_mult: 0
    decay_mult: 0
  }
  batch_norm_param {
    eps: 0.001
  }
}
layer {
  name: "scale1_branch2a"
  type: "EltwiseAffine"
  bottom: "res1_branch2a"
  top: "res1_branch2a"
  eltwise_affine_param {
    channel_shared: false
  }
}
layer {
  name: "res1_branch2a_relu"
  type: "ReLU"
  bottom: "res1_branch2a"
  top: "res1_branch2a"
}
layer {
  name: "res1_branch2b"
  type: "Convolution"
  bottom: "res1_branch2a"
  top: "res1_branch2b"
  param {
    lr_mult: 0
    decay_mult: 1
  }
  param {
    lr_mult: 0
    decay_mult: 0
  }
  convolution_param {
    num_output: 64
    bias_term: true
    pad: 1
    kernel_size: 3
    stride: 1
    weight_filler {
      type: "gaussian"
      std: 0.01
    }
    bias_filler {
      type: "constant"
      value: 0
    }
  }
}
layer {
  name: "bn1_branch2b"
  type: "BatchNorm"
  bottom: "res1_branch2b"
  top: "res1_branch2b"
  param {
    lr_mult: 0
    decay_mult: 0
  }
  param {
    lr_mult: 0
    decay_mult: 0
  }
  param {
    lr_mult: 0
    decay_mult: 0
  }
  batch_norm_param {
    eps: 0.001
  }
}
layer {
  name: "scale1_branch2b"
  type: "EltwiseAffine"
  bottom: "res1_branch2b"
  top: "res1_branch2b"
  eltwise_affine_param {
    channel_shared: false
  }
}
layer {
  name: "res1_branch2b_relu"
  type: "ReLU"
  bottom: "res1_branch2b"
  top: "res1_branch2b"
}
layer {
  name: "res1_branch2c"
  type: "Convolution"
  bottom: "res1_branch2b"
  top: "res1_branch2c"
  param {
    lr_mult: 0
    decay_mult: 1
  }
  param {
    lr_mult: 0
    decay_mult: 0
  }
  convolution_param {
    num_output: 128
    pad: 0
    kernel_size: 1
    stride: 1
    weight_filler {
      type: "xavier"
    }
    bias_filler {
      type: "constant"
      value: 0
    }
  }
}
layer {
  name: "res1"
  type: "Eltwise"
  bottom: "res1_branch1"
  bottom: "res1_branch2c"
  top: "res1"
}
layer {
  name: "pool1"
  type: "Pooling"
  bottom: "res1"
  top: "pool1"
  pooling_param {
    pool: MAX
    kernel_size: 2
    stride: 2
  }
}
layer {
  name: "pool1_bn"
  type: "BatchNorm"
  bottom: "pool1"
  top: "pool1_bn"
  param {
    lr_mult: 0
    decay_mult: 0
  }
  param {
    lr_mult: 0
    decay_mult: 0
  }
  param {
    lr_mult: 0
    decay_mult: 0
  }
  batch_norm_param {
    eps: 0.001
  }
}
layer {
  name: "pool1_bn_scale"
  type: "EltwiseAffine"
  bottom: "pool1_bn"
  top: "pool1_bn"
  eltwise_affine_param {
    channel_shared: false
  }
}
layer {
  name: "pool1_bn_scale_relu"
  type: "ReLU"
  bottom: "pool1_bn"
  top: "pool1_bn"
}
layer {
  name: "res4_branch2a"
  type: "Convolution"
  bottom: "pool1_bn"
  top: "res4_branch2a"
  param {
    lr_mult: 0
    decay_mult: 1
  }
  param {
    lr_mult: 0
    decay_mult: 0
  }
  convolution_param {
    num_output: 64
    bias_term: true
    pad: 0
    kernel_size: 1
    stride: 1
    weight_filler {
      type: "gaussian"
      std: 0.01
    }
    bias_filler {
      type: "constant"
      value: 0
    }
  }
}
layer {
  name: "bn4_branch2a"
  type: "BatchNorm"
  bottom: "res4_branch2a"
  top: "res4_branch2a"
  param {
    lr_mult: 0
    decay_mult: 0
  }
  param {
    lr_mult: 0
    decay_mult: 0
  }
  param {
    lr_mult: 0
    decay_mult: 0
  }
  batch_norm_param {
    eps: 0.001
  }
}
layer {
  name: "scale4_branch2a"
  type: "EltwiseAffine"
  bottom: "res4_branch2a"
  top: "res4_branch2a"
  eltwise_affine_param {
    channel_shared: false
  }
}
layer {
  name: "res4_branch2a_relu"
  type: "ReLU"
  bottom: "res4_branch2a"
  top: "res4_branch2a"
}
layer {
  name: "res4_branch2b"
  type: "Convolution"
  bottom: "res4_branch2a"
  top: "res4_branch2b"
  param {
    lr_mult: 0
    decay_mult: 1
  }
  param {
    lr_mult: 0
    decay_mult: 0
  }
  convolution_param {
    num_output: 64
    bias_term: true
    pad: 1
    kernel_size: 3
    stride: 1
    weight_filler {
      type: "gaussian"
      std: 0.01
    }
    bias_filler {
      type: "constant"
      value: 0
    }
  }
}
layer {
  name: "bn4_branch2b"
  type: "BatchNorm"
  bottom: "res4_branch2b"
  top: "res4_branch2b"
  param {
    lr_mult: 0
    decay_mult: 0
  }
  param {
    lr_mult: 0
    decay_mult: 0
  }
  param {
    lr_mult: 0
    decay_mult: 0
  }
  batch_norm_param {
    eps: 0.001
  }
}
layer {
  name: "scale4_branch2b"
  type: "EltwiseAffine"
  bottom: "res4_branch2b"
  top: "res4_branch2b"
  eltwise_affine_param {
    channel_shared: false
  }
}
layer {
  name: "res4_branch2b_relu"
  type: "ReLU"
  bottom: "res4_branch2b"
  top: "res4_branch2b"
}
layer {
  name: "res4_branch2c"
  type: "Convolution"
  bottom: "res4_branch2b"
  top: "res4_branch2c"
  param {
    lr_mult: 0
    decay_mult: 1
  }
  param {
    lr_mult: 0
    decay_mult: 0
  }
  convolution_param {
    num_output: 128
    pad: 0
    kernel_size: 1
    stride: 1
    weight_filler {
      type: "xavier"
    }
    bias_filler {
      type: "constant"
      value: 0
    }
  }
}
layer {
  name: "res4"
  type: "Eltwise"
  bottom: "pool1"
  bottom: "res4_branch2c"
  top: "res4"
}
layer {
  name: "res4_bn"
  type: "BatchNorm"
  bottom: "res4"
  top: "res4_bn"
  param {
    lr_mult: 0
    decay_mult: 0
  }
  param {
    lr_mult: 0
    decay_mult: 0
  }
  param {
    lr_mult: 0
    decay_mult: 0
  }
  batch_norm_param {
    eps: 0.001
  }
}
layer {
  name: "res4_bn_scale"
  type: "EltwiseAffine"
  bottom: "res4_bn"
  top: "res4_bn"
  eltwise_affine_param {
    channel_shared: false
  }
}
layer {
  name: "res4_bn_scale_relu"
  type: "ReLU"
  bottom: "res4_bn"
  top: "res4_bn"
}
layer {
  name: "res5_branch2a"
  type: "Convolution"
  bottom: "res4_bn"
  top: "res5_branch2a"
  param {
    lr_mult: 0
    decay_mult: 1
  }
  param {
    lr_mult: 0
    decay_mult: 0
  }
  convolution_param {
    num_output: 64
    bias_term: true
    pad: 0
    kernel_size: 1
    stride: 1
    weight_filler {
      type: "gaussian"
      std: 0.01
    }
    bias_filler {
      type: "constant"
      value: 0
    }
  }
}
layer {
  name: "bn5_branch2a"
  type: "BatchNorm"
  bottom: "res5_branch2a"
  top: "res5_branch2a"
  param {
    lr_mult: 0
    decay_mult: 0
  }
  param {
    lr_mult: 0
    decay_mult: 0
  }
  param {
    lr_mult: 0
    decay_mult: 0
  }
  batch_norm_param {
    eps: 0.001
  }
}
layer {
  name: "scale5_branch2a"
  type: "EltwiseAffine"
  bottom: "res5_branch2a"
  top: "res5_branch2a"
  eltwise_affine_param {
    channel_shared: false
  }
}
layer {
  name: "res5_branch2a_relu"
  type: "ReLU"
  bottom: "res5_branch2a"
  top: "res5_branch2a"
}
layer {
  name: "res5_branch2b"
  type: "Convolution"
  bottom: "res5_branch2a"
  top: "res5_branch2b"
  param {
    lr_mult: 0
    decay_mult: 1
  }
  param {
    lr_mult: 0
    decay_mult: 0
  }
  convolution_param {
    num_output: 64
    bias_term: true
    pad: 1
    kernel_size: 3
    stride: 1
    weight_filler {
      type: "gaussian"
      std: 0.01
    }
    bias_filler {
      type: "constant"
      value: 0
    }
  }
}
layer {
  name: "bn5_branch2b"
  type: "BatchNorm"
  bottom: "res5_branch2b"
  top: "res5_branch2b"
  param {
    lr_mult: 0
    decay_mult: 0
  }
  param {
    lr_mult: 0
    decay_mult: 0
  }
  param {
    lr_mult: 0
    decay_mult: 0
  }
  batch_norm_param {
    eps: 0.001
  }
}
layer {
  name: "scale5_branch2b"
  type: "EltwiseAffine"
  bottom: "res5_branch2b"
  top: "res5_branch2b"
  eltwise_affine_param {
    channel_shared: false
  }
}
layer {
  name: "res5_branch2b_relu"
  type: "ReLU"
  bottom: "res5_branch2b"
  top: "res5_branch2b"
}
layer {
  name: "res5_branch2c"
  type: "Convolution"
  bottom: "res5_branch2b"
  top: "res5_branch2c"
  param {
    lr_mult: 0
    decay_mult: 1
  }
  param {
    lr_mult: 0
    decay_mult: 0
  }
  convolution_param {
    num_output: 128
    pad: 0
    kernel_size: 1
    stride: 1
    weight_filler {
      type: "xavier"
    }
    bias_filler {
      type: "constant"
      value: 0
    }
  }
}
layer {
  name: "res5"
  type: "Eltwise"
  bottom: "res4"
  bottom: "res5_branch2c"
  top: "res5"
}
layer {
  name: "res6_branch1"
  type: "Convolution"
  bottom: "res5"
  top: "res6_branch1"
  param {
    lr_mult: 0
    decay_mult: 1
  }
  param {
    lr_mult: 0
    decay_mult: 0
  }
  convolution_param {
    num_output: 256
    pad: 0
    kernel_size: 1
    stride: 1
    weight_filler {
      type: "xavier"
    }
    bias_filler {
      type: "constant"
      value: 0
    }
  }
}
layer {
  name: "res5_bn"
  type: "BatchNorm"
  bottom: "res5"
  top: "res5_bn"
  param {
    lr_mult: 0
    decay_mult: 0
  }
  param {
    lr_mult: 0
    decay_mult: 0
  }
  param {
    lr_mult: 0
    decay_mult: 0
  }
  batch_norm_param {
    eps: 0.001
  }
}
layer {
  name: "res5_bn_scale"
  type: "EltwiseAffine"
  bottom: "res5_bn"
  top: "res5_bn"
  eltwise_affine_param {
    channel_shared: false
  }
}
layer {
  name: "res5_bn_scale_relu"
  type: "ReLU"
  bottom: "res5_bn"
  top: "res5_bn"
}
layer {
  name: "res6_branch2a"
  type: "Convolution"
  bottom: "res5_bn"
  top: "res6_branch2a"
  param {
    lr_mult: 0
    decay_mult: 1
  }
  param {
    lr_mult: 0
    decay_mult: 0
  }
  convolution_param {
    num_output: 128
    bias_term: true
    pad: 0
    kernel_size: 1
    stride: 1
    weight_filler {
      type: "gaussian"
      std: 0.01
    }
    bias_filler {
      type: "constant"
      value: 0
    }
  }
}
layer {
  name: "bn6_branch2a"
  type: "BatchNorm"
  bottom: "res6_branch2a"
  top: "res6_branch2a"
  param {
    lr_mult: 0
    decay_mult: 0
  }
  param {
    lr_mult: 0
    decay_mult: 0
  }
  param {
    lr_mult: 0
    decay_mult: 0
  }
  batch_norm_param {
    eps: 0.001
  }
}
layer {
  name: "scale6_branch2a"
  type: "EltwiseAffine"
  bottom: "res6_branch2a"
  top: "res6_branch2a"
  eltwise_affine_param {
    channel_shared: false
  }
}
layer {
  name: "res6_branch2a_relu"
  type: "ReLU"
  bottom: "res6_branch2a"
  top: "res6_branch2a"
}
layer {
  name: "res6_branch2b"
  type: "Convolution"
  bottom: "res6_branch2a"
  top: "res6_branch2b"
  param {
    lr_mult: 0
    decay_mult: 1
  }
  param {
    lr_mult: 0
    decay_mult: 0
  }
  convolution_param {
    num_output: 128
    bias_term: true
    pad: 1
    kernel_size: 3
    stride: 1
    weight_filler {
      type: "gaussian"
      std: 0.01
    }
    bias_filler {
      type: "constant"
      value: 0
    }
  }
}
layer {
  name: "bn6_branch2b"
  type: "BatchNorm"
  bottom: "res6_branch2b"
  top: "res6_branch2b"
  param {
    lr_mult: 0
    decay_mult: 0
  }
  param {
    lr_mult: 0
    decay_mult: 0
  }
  param {
    lr_mult: 0
    decay_mult: 0
  }
  batch_norm_param {
    eps: 0.001
  }
}
layer {
  name: "scale6_branch2b"
  type: "EltwiseAffine"
  bottom: "res6_branch2b"
  top: "res6_branch2b"
  eltwise_affine_param {
    channel_shared: false
  }
}
layer {
  name: "res6_branch2b_relu"
  type: "ReLU"
  bottom: "res6_branch2b"
  top: "res6_branch2b"
}
layer {
  name: "res6_branch2c"
  type: "Convolution"
  bottom: "res6_branch2b"
  top: "res6_branch2c"
  param {
    lr_mult: 0
    decay_mult: 1
  }
  param {
    lr_mult: 0
    decay_mult: 0
  }
  convolution_param {
    num_output: 256
    pad: 0
    kernel_size: 1
    stride: 1
    weight_filler {
      type: "xavier"
    }
    bias_filler {
      type: "constant"
      value: 0
    }
  }
}
layer {
  name: "res6"
  type: "Eltwise"
  bottom: "res6_branch1"
  bottom: "res6_branch2c"
  top: "res6"
}
layer {
  name: "res6_bn"
  type: "BatchNorm"
  bottom: "res6"
  top: "res6_bn"
  param {
    lr_mult: 0
    decay_mult: 0
  }
  param {
    lr_mult: 0
    decay_mult: 0
  }
  param {
    lr_mult: 0
    decay_mult: 0
  }
  batch_norm_param {
    eps: 0.001
  }
}
layer {
  name: "res6_bn_scale"
  type: "EltwiseAffine"
  bottom: "res6_bn"
  top: "res6_bn"
  eltwise_affine_param {
    channel_shared: false
  }
}
layer {
  name: "res6_bn_scale_relu"
  type: "ReLU"
  bottom: "res6_bn"
  top: "res6_bn"
}
layer {
  name: "reshg1_up1_branch2a"
  type: "Convolution"
  bottom: "res6_bn"
  top: "reshg1_up1_branch2a"
  param {
    lr_mult: 0
    decay_mult: 1
  }
  param {
    lr_mult: 0
    decay_mult: 0
  }
  convolution_param {
    num_output: 128
    bias_term: true
    pad: 0
    kernel_size: 1
    stride: 1
    weight_filler {
      type: "gaussian"
      std: 0.01
    }
    bias_filler {
      type: "constant"
      value: 0
    }
  }
}
layer {
  name: "bnhg1_up1_branch2a"
  type: "BatchNorm"
  bottom: "reshg1_up1_branch2a"
  top: "reshg1_up1_branch2a"
  param {
    lr_mult: 0
    decay_mult: 0
  }
  param {
    lr_mult: 0
    decay_mult: 0
  }
  param {
    lr_mult: 0
    decay_mult: 0
  }
  batch_norm_param {
    eps: 0.001
  }
}
layer {
  name: "scalehg1_up1_branch2a"
  type: "EltwiseAffine"
  bottom: "reshg1_up1_branch2a"
  top: "reshg1_up1_branch2a"
  eltwise_affine_param {
    channel_shared: false
  }
}
layer {
  name: "reshg1_up1_branch2a_relu"
  type: "ReLU"
  bottom: "reshg1_up1_branch2a"
  top: "reshg1_up1_branch2a"
}
layer {
  name: "reshg1_up1_branch2b"
  type: "Convolution"
  bottom: "reshg1_up1_branch2a"
  top: "reshg1_up1_branch2b"
  param {
    lr_mult: 0
    decay_mult: 1
  }
  param {
    lr_mult: 0
    decay_mult: 0
  }
  convolution_param {
    num_output: 128
    bias_term: true
    pad: 1
    kernel_size: 3
    stride: 1
    weight_filler {
      type: "gaussian"
      std: 0.01
    }
    bias_filler {
      type: "constant"
      value: 0
    }
  }
}
layer {
  name: "bnhg1_up1_branch2b"
  type: "BatchNorm"
  bottom: "reshg1_up1_branch2b"
  top: "reshg1_up1_branch2b"
  param {
    lr_mult: 0
    decay_mult: 0
  }
  param {
    lr_mult: 0
    decay_mult: 0
  }
  param {
    lr_mult: 0
    decay_mult: 0
  }
  batch_norm_param {
    eps: 0.001
  }
}
layer {
  name: "scalehg1_up1_branch2b"
  type: "EltwiseAffine"
  bottom: "reshg1_up1_branch2b"
  top: "reshg1_up1_branch2b"
  eltwise_affine_param {
    channel_shared: false
  }
}
layer {
  name: "reshg1_up1_branch2b_relu"
  type: "ReLU"
  bottom: "reshg1_up1_branch2b"
  top: "reshg1_up1_branch2b"
}
layer {
  name: "reshg1_up1_branch2c"
  type: "Convolution"
  bottom: "reshg1_up1_branch2b"
  top: "reshg1_up1_branch2c"
  param {
    lr_mult: 0
    decay_mult: 1
  }
  param {
    lr_mult: 0
    decay_mult: 0
  }
  convolution_param {
    num_output: 256
    pad: 0
    kernel_size: 1
    stride: 1
    weight_filler {
      type: "xavier"
    }
    bias_filler {
      type: "constant"
      value: 0
    }
  }
}
layer {
  name: "reshg1_up1"
  type: "Eltwise"
  bottom: "res6"
  bottom: "reshg1_up1_branch2c"
  top: "reshg1_up1"
}
layer {
  name: "reshg1_up1_bn"
  type: "BatchNorm"
  bottom: "reshg1_up1"
  top: "reshg1_up1_bn"
  param {
    lr_mult: 0
    decay_mult: 0
  }
  param {
    lr_mult: 0
    decay_mult: 0
  }
  param {
    lr_mult: 0
    decay_mult: 0
  }
  batch_norm_param {
    eps: 0.001
  }
}
layer {
  name: "reshg1_up1_bn_scale"
  type: "EltwiseAffine"
  bottom: "reshg1_up1_bn"
  top: "reshg1_up1_bn"
  eltwise_affine_param {
    channel_shared: false
  }
}
layer {
  name: "reshg1_up1_bn_scale_relu"
  type: "ReLU"
  bottom: "reshg1_up1_bn"
  top: "reshg1_up1_bn"
}
layer {
  name: "reshg1_up2_branch2a"
  type: "Convolution"
  bottom: "reshg1_up1_bn"
  top: "reshg1_up2_branch2a"
  param {
    lr_mult: 0
    decay_mult: 1
  }
  param {
    lr_mult: 0
    decay_mult: 0
  }
  convolution_param {
    num_output: 128
    bias_term: true
    pad: 0
    kernel_size: 1
    stride: 1
    weight_filler {
      type: "gaussian"
      std: 0.01
    }
    bias_filler {
      type: "constant"
      value: 0
    }
  }
}
layer {
  name: "bnhg1_up2_branch2a"
  type: "BatchNorm"
  bottom: "reshg1_up2_branch2a"
  top: "reshg1_up2_branch2a"
  param {
    lr_mult: 0
    decay_mult: 0
  }
  param {
    lr_mult: 0
    decay_mult: 0
  }
  param {
    lr_mult: 0
    decay_mult: 0
  }
  batch_norm_param {
    eps: 0.001
  }
}
layer {
  name: "scalehg1_up2_branch2a"
  type: "EltwiseAffine"
  bottom: "reshg1_up2_branch2a"
  top: "reshg1_up2_branch2a"
  eltwise_affine_param {
    channel_shared: false
  }
}
layer {
  name: "reshg1_up2_branch2a_relu"
  type: "ReLU"
  bottom: "reshg1_up2_branch2a"
  top: "reshg1_up2_branch2a"
}
layer {
  name: "reshg1_up2_branch2b"
  type: "Convolution"
  bottom: "reshg1_up2_branch2a"
  top: "reshg1_up2_branch2b"
  param {
    lr_mult: 0
    decay_mult: 1
  }
  param {
    lr_mult: 0
    decay_mult: 0
  }
  convolution_param {
    num_output: 128
    bias_term: true
    pad: 1
    kernel_size: 3
    stride: 1
    weight_filler {
      type: "gaussian"
      std: 0.01
    }
    bias_filler {
      type: "constant"
      value: 0
    }
  }
}
layer {
  name: "bnhg1_up2_branch2b"
  type: "BatchNorm"
  bottom: "reshg1_up2_branch2b"
  top: "reshg1_up2_branch2b"
  param {
    lr_mult: 0
    decay_mult: 0
  }
  param {
    lr_mult: 0
    decay_mult: 0
  }
  param {
    lr_mult: 0
    decay_mult: 0
  }
  batch_norm_param {
    eps: 0.001
  }
}
layer {
  name: "scalehg1_up2_branch2b"
  type: "EltwiseAffine"
  bottom: "reshg1_up2_branch2b"
  top: "reshg1_up2_branch2b"
  eltwise_affine_param {
    channel_shared: false
  }
}
layer {
  name: "reshg1_up2_branch2b_relu"
  type: "ReLU"
  bottom: "reshg1_up2_branch2b"
  top: "reshg1_up2_branch2b"
}
layer {
  name: "reshg1_up2_branch2c"
  type: "Convolution"
  bottom: "reshg1_up2_branch2b"
  top: "reshg1_up2_branch2c"
  param {
    lr_mult: 0
    decay_mult: 1
  }
  param {
    lr_mult: 0
    decay_mult: 0
  }
  convolution_param {
    num_output: 256
    pad: 0
    kernel_size: 1
    stride: 1
    weight_filler {
      type: "xavier"
    }
    bias_filler {
      type: "constant"
      value: 0
    }
  }
}
layer {
  name: "reshg1_up2"
  type: "Eltwise"
  bottom: "reshg1_up1"
  bottom: "reshg1_up2_branch2c"
  top: "reshg1_up2"
}
layer {
  name: "reshg1_up4_branch1"
  type: "Convolution"
  bottom: "reshg1_up2"
  top: "reshg1_up4_branch1"
  param {
    lr_mult: 0
    decay_mult: 1
  }
  param {
    lr_mult: 0
    decay_mult: 0
  }
  convolution_param {
    num_output: 512
    pad: 0
    kernel_size: 1
    stride: 1
    weight_filler {
      type: "xavier"
    }
    bias_filler {
      type: "constant"
      value: 0
    }
  }
}
layer {
  name: "reshg1_up2_bn"
  type: "BatchNorm"
  bottom: "reshg1_up2"
  top: "reshg1_up2_bn"
  param {
    lr_mult: 0
    decay_mult: 0
  }
  param {
    lr_mult: 0
    decay_mult: 0
  }
  param {
    lr_mult: 0
    decay_mult: 0
  }
  batch_norm_param {
    eps: 0.001
  }
}
layer {
  name: "reshg1_up2_bn_scale"
  type: "EltwiseAffine"
  bottom: "reshg1_up2_bn"
  top: "reshg1_up2_bn"
  eltwise_affine_param {
    channel_shared: false
  }
}
layer {
  name: "reshg1_up2_bn_scale_relu"
  type: "ReLU"
  bottom: "reshg1_up2_bn"
  top: "reshg1_up2_bn"
}
layer {
  name: "reshg1_up4_branch2a"
  type: "Convolution"
  bottom: "reshg1_up2_bn"
  top: "reshg1_up4_branch2a"
  param {
    lr_mult: 0
    decay_mult: 1
  }
  param {
    lr_mult: 0
    decay_mult: 0
  }
  convolution_param {
    num_output: 256
    bias_term: true
    pad: 0
    kernel_size: 1
    stride: 1
    weight_filler {
      type: "gaussian"
      std: 0.01
    }
    bias_filler {
      type: "constant"
      value: 0
    }
  }
}
layer {
  name: "bnhg1_up4_branch2a"
  type: "BatchNorm"
  bottom: "reshg1_up4_branch2a"
  top: "reshg1_up4_branch2a"
  param {
    lr_mult: 0
    decay_mult: 0
  }
  param {
    lr_mult: 0
    decay_mult: 0
  }
  param {
    lr_mult: 0
    decay_mult: 0
  }
  batch_norm_param {
    eps: 0.001
  }
}
layer {
  name: "scalehg1_up4_branch2a"
  type: "EltwiseAffine"
  bottom: "reshg1_up4_branch2a"
  top: "reshg1_up4_branch2a"
  eltwise_affine_param {
    channel_shared: false
  }
}
layer {
  name: "reshg1_up4_branch2a_relu"
  type: "ReLU"
  bottom: "reshg1_up4_branch2a"
  top: "reshg1_up4_branch2a"
}
layer {
  name: "reshg1_up4_branch2b"
  type: "Convolution"
  bottom: "reshg1_up4_branch2a"
  top: "reshg1_up4_branch2b"
  param {
    lr_mult: 0
    decay_mult: 1
  }
  param {
    lr_mult: 0
    decay_mult: 0
  }
  convolution_param {
    num_output: 256
    bias_term: true
    pad: 1
    kernel_size: 3
    stride: 1
    weight_filler {
      type: "gaussian"
      std: 0.01
    }
    bias_filler {
      type: "constant"
      value: 0
    }
  }
}
layer {
  name: "bnhg1_up4_branch2b"
  type: "BatchNorm"
  bottom: "reshg1_up4_branch2b"
  top: "reshg1_up4_branch2b"
  param {
    lr_mult: 0
    decay_mult: 0
  }
  param {
    lr_mult: 0
    decay_mult: 0
  }
  param {
    lr_mult: 0
    decay_mult: 0
  }
  batch_norm_param {
    eps: 0.001
  }
}
layer {
  name: "scalehg1_up4_branch2b"
  type: "EltwiseAffine"
  bottom: "reshg1_up4_branch2b"
  top: "reshg1_up4_branch2b"
  eltwise_affine_param {
    channel_shared: false
  }
}
layer {
  name: "reshg1_up4_branch2b_relu"
  type: "ReLU"
  bottom: "reshg1_up4_branch2b"
  top: "reshg1_up4_branch2b"
}
layer {
  name: "reshg1_up4_branch2c"
  type: "Convolution"
  bottom: "reshg1_up4_branch2b"
  top: "reshg1_up4_branch2c"
  param {
    lr_mult: 0
    decay_mult: 1
  }
  param {
    lr_mult: 0
    decay_mult: 0
  }
  convolution_param {
    num_output: 512
    pad: 0
    kernel_size: 1
    stride: 1
    weight_filler {
      type: "xavier"
    }
    bias_filler {
      type: "constant"
      value: 0
    }
  }
}
layer {
  name: "reshg1_up4"
  type: "Eltwise"
  bottom: "reshg1_up4_branch1"
  bottom: "reshg1_up4_branch2c"
  top: "reshg1_up4"
}
layer {
  name: "hg1_pool1"
  type: "Pooling"
  bottom: "res6"
  top: "hg1_pool1"
  pooling_param {
    pool: MAX
    kernel_size: 2
    stride: 2
  }
}
layer {
  name: "hg1_pool1_bn"
  type: "BatchNorm"
  bottom: "hg1_pool1"
  top: "hg1_pool1_bn"
  param {
    lr_mult: 0
    decay_mult: 0
  }
  param {
    lr_mult: 0
    decay_mult: 0
  }
  param {
    lr_mult: 0
    decay_mult: 0
  }
  batch_norm_param {
    eps: 0.001
  }
}
layer {
  name: "hg1_pool1_bn_scale"
  type: "EltwiseAffine"
  bottom: "hg1_pool1_bn"
  top: "hg1_pool1_bn"
  eltwise_affine_param {
    channel_shared: false
  }
}
layer {
  name: "hg1_pool1_bn_scale_relu"
  type: "ReLU"
  bottom: "hg1_pool1_bn"
  top: "hg1_pool1_bn"
}
layer {
  name: "reshg1_low1_branch2a"
  type: "Convolution"
  bottom: "hg1_pool1_bn"
  top: "reshg1_low1_branch2a"
  param {
    lr_mult: 0
    decay_mult: 1
  }
  param {
    lr_mult: 0
    decay_mult: 0
  }
  convolution_param {
    num_output: 128
    bias_term: true
    pad: 0
    kernel_size: 1
    stride: 1
    weight_filler {
      type: "gaussian"
      std: 0.01
    }
    bias_filler {
      type: "constant"
      value: 0
    }
  }
}
layer {
  name: "bnhg1_low1_branch2a"
  type: "BatchNorm"
  bottom: "reshg1_low1_branch2a"
  top: "reshg1_low1_branch2a"
  param {
    lr_mult: 0
    decay_mult: 0
  }
  param {
    lr_mult: 0
    decay_mult: 0
  }
  param {
    lr_mult: 0
    decay_mult: 0
  }
  batch_norm_param {
    eps: 0.001
  }
}
layer {
  name: "scalehg1_low1_branch2a"
  type: "EltwiseAffine"
  bottom: "reshg1_low1_branch2a"
  top: "reshg1_low1_branch2a"
  eltwise_affine_param {
    channel_shared: false
  }
}
layer {
  name: "reshg1_low1_branch2a_relu"
  type: "ReLU"
  bottom: "reshg1_low1_branch2a"
  top: "reshg1_low1_branch2a"
}
layer {
  name: "reshg1_low1_branch2b"
  type: "Convolution"
  bottom: "reshg1_low1_branch2a"
  top: "reshg1_low1_branch2b"
  param {
    lr_mult: 0
    decay_mult: 1
  }
  param {
    lr_mult: 0
    decay_mult: 0
  }
  convolution_param {
    num_output: 128
    bias_term: true
    pad: 1
    kernel_size: 3
    stride: 1
    weight_filler {
      type: "gaussian"
      std: 0.01
    }
    bias_filler {
      type: "constant"
      value: 0
    }
  }
}
layer {
  name: "bnhg1_low1_branch2b"
  type: "BatchNorm"
  bottom: "reshg1_low1_branch2b"
  top: "reshg1_low1_branch2b"
  param {
    lr_mult: 0
    decay_mult: 0
  }
  param {
    lr_mult: 0
    decay_mult: 0
  }
  param {
    lr_mult: 0
    decay_mult: 0
  }
  batch_norm_param {
    eps: 0.001
  }
}
layer {
  name: "scalehg1_low1_branch2b"
  type: "EltwiseAffine"
  bottom: "reshg1_low1_branch2b"
  top: "reshg1_low1_branch2b"
  eltwise_affine_param {
    channel_shared: false
  }
}
layer {
  name: "reshg1_low1_branch2b_relu"
  type: "ReLU"
  bottom: "reshg1_low1_branch2b"
  top: "reshg1_low1_branch2b"
}
layer {
  name: "reshg1_low1_branch2c"
  type: "Convolution"
  bottom: "reshg1_low1_branch2b"
  top: "reshg1_low1_branch2c"
  param {
    lr_mult: 0
    decay_mult: 1
  }
  param {
    lr_mult: 0
    decay_mult: 0
  }
  convolution_param {
    num_output: 256
    pad: 0
    kernel_size: 1
    stride: 1
    weight_filler {
      type: "xavier"
    }
    bias_filler {
      type: "constant"
      value: 0
    }
  }
}
layer {
  name: "reshg1_low1"
  type: "Eltwise"
  bottom: "hg1_pool1"
  bottom: "reshg1_low1_branch2c"
  top: "reshg1_low1"
}
layer {
  name: "reshg1_low1_bn"
  type: "BatchNorm"
  bottom: "reshg1_low1"
  top: "reshg1_low1_bn"
  param {
    lr_mult: 0
    decay_mult: 0
  }
  param {
    lr_mult: 0
    decay_mult: 0
  }
  param {
    lr_mult: 0
    decay_mult: 0
  }
  batch_norm_param {
    eps: 0.001
  }
}
layer {
  name: "reshg1_low1_bn_scale"
  type: "EltwiseAffine"
  bottom: "reshg1_low1_bn"
  top: "reshg1_low1_bn"
  eltwise_affine_param {
    channel_shared: false
  }
}
layer {
  name: "reshg1_low1_bn_scale_relu"
  type: "ReLU"
  bottom: "reshg1_low1_bn"
  top: "reshg1_low1_bn"
}
layer {
  name: "reshg1_low2_branch2a"
  type: "Convolution"
  bottom: "reshg1_low1_bn"
  top: "reshg1_low2_branch2a"
  param {
    lr_mult: 0
    decay_mult: 1
  }
  param {
    lr_mult: 0
    decay_mult: 0
  }
  convolution_param {
    num_output: 128
    bias_term: true
    pad: 0
    kernel_size: 1
    stride: 1
    weight_filler {
      type: "gaussian"
      std: 0.01
    }
    bias_filler {
      type: "constant"
      value: 0
    }
  }
}
layer {
  name: "bnhg1_low2_branch2a"
  type: "BatchNorm"
  bottom: "reshg1_low2_branch2a"
  top: "reshg1_low2_branch2a"
  param {
    lr_mult: 0
    decay_mult: 0
  }
  param {
    lr_mult: 0
    decay_mult: 0
  }
  param {
    lr_mult: 0
    decay_mult: 0
  }
  batch_norm_param {
    eps: 0.001
  }
}
layer {
  name: "scalehg1_low2_branch2a"
  type: "EltwiseAffine"
  bottom: "reshg1_low2_branch2a"
  top: "reshg1_low2_branch2a"
  eltwise_affine_param {
    channel_shared: false
  }
}
layer {
  name: "reshg1_low2_branch2a_relu"
  type: "ReLU"
  bottom: "reshg1_low2_branch2a"
  top: "reshg1_low2_branch2a"
}
layer {
  name: "reshg1_low2_branch2b"
  type: "Convolution"
  bottom: "reshg1_low2_branch2a"
  top: "reshg1_low2_branch2b"
  param {
    lr_mult: 0
    decay_mult: 1
  }
  param {
    lr_mult: 0
    decay_mult: 0
  }
  convolution_param {
    num_output: 128
    bias_term: true
    pad: 1
    kernel_size: 3
    stride: 1
    weight_filler {
      type: "gaussian"
      std: 0.01
    }
    bias_filler {
      type: "constant"
      value: 0
    }
  }
}
layer {
  name: "bnhg1_low2_branch2b"
  type: "BatchNorm"
  bottom: "reshg1_low2_branch2b"
  top: "reshg1_low2_branch2b"
  param {
    lr_mult: 0
    decay_mult: 0
  }
  param {
    lr_mult: 0
    decay_mult: 0
  }
  param {
    lr_mult: 0
    decay_mult: 0
  }
  batch
I0910 10:46:11.663235  7468 layer_factory.hpp:77] Creating layer data
I0910 10:46:11.663295  7468 net.cpp:100] Creating Layer data
I0910 10:46:11.663302  7468 net.cpp:408] data -> data
I0910 10:46:11.663322  7468 net.cpp:408] data -> label
I0910 10:46:11.663635  7468 data_heatmap.cpp:61] using joint inds:
I0910 10:46:11.663645  7468 data_heatmap.cpp:72] Loading annotation from data/MPII/train.txt
I0910 10:46:11.816233  7468 data_heatmap.cpp:199] output data size: 1,3,256,256
I0910 10:46:11.816263  7468 data_heatmap.cpp:200] output label size: 1,16,64,64
I0910 10:46:11.816267  7468 data_heatmap.cpp:201] number of label channels: 16
I0910 10:46:11.816268  7468 data_heatmap.cpp:202] datum channels: 3
I0910 10:46:11.818485  7468 net.cpp:150] Setting up data
I0910 10:46:11.818500  7468 net.cpp:157] Top shape: 1 3 256 256 (196608)
I0910 10:46:11.818505  7468 net.cpp:157] Top shape: 1 16 64 64 (65536)
I0910 10:46:11.818507  7468 net.cpp:165] Memory required for data: 1048576
I0910 10:46:11.818526  7468 layer_factory.hpp:77] Creating layer data_data_0_split
I0910 10:46:11.818541  7468 net.cpp:100] Creating Layer data_data_0_split
I0910 10:46:11.818547  7468 net.cpp:434] data_data_0_split <- data
I0910 10:46:11.818557  7468 net.cpp:408] data_data_0_split -> data_data_0_split_0
I0910 10:46:11.818568  7468 net.cpp:408] data_data_0_split -> data_data_0_split_1
I0910 10:46:11.818648  7468 net.cpp:150] Setting up data_data_0_split
I0910 10:46:11.818655  7468 net.cpp:157] Top shape: 1 3 256 256 (196608)
I0910 10:46:11.818660  7468 net.cpp:157] Top shape: 1 3 256 256 (196608)
I0910 10:46:11.818670  7468 net.cpp:165] Memory required for data: 2621440
I0910 10:46:11.818672  7468 layer_factory.hpp:77] Creating layer conv1
I0910 10:46:11.818697  7468 net.cpp:100] Creating Layer conv1
I0910 10:46:11.818701  7468 net.cpp:434] conv1 <- data_data_0_split_0
I0910 10:46:11.818706  7468 net.cpp:408] conv1 -> conv1
I0910 10:46:11.819397  7468 net.cpp:150] Setting up conv1
I0910 10:46:11.819407  7468 net.cpp:157] Top shape: 1 64 128 128 (1048576)
I0910 10:46:11.819434  7468 net.cpp:165] Memory required for data: 6815744
I0910 10:46:11.819450  7468 layer_factory.hpp:77] Creating layer bn_conv1
I0910 10:46:11.819463  7468 net.cpp:100] Creating Layer bn_conv1
I0910 10:46:11.819468  7468 net.cpp:434] bn_conv1 <- conv1
I0910 10:46:11.819476  7468 net.cpp:395] bn_conv1 -> conv1 (in-place)
I0910 10:46:11.819661  7468 net.cpp:150] Setting up bn_conv1
I0910 10:46:11.819669  7468 net.cpp:157] Top shape: 1 64 128 128 (1048576)
I0910 10:46:11.819671  7468 net.cpp:165] Memory required for data: 11010048
I0910 10:46:11.819680  7468 layer_factory.hpp:77] Creating layer scale_conv1
I0910 10:46:11.819687  7468 net.cpp:100] Creating Layer scale_conv1
I0910 10:46:11.819691  7468 net.cpp:434] scale_conv1 <- conv1
I0910 10:46:11.819694  7468 net.cpp:395] scale_conv1 -> conv1 (in-place)
I0910 10:46:11.821374  7468 net.cpp:150] Setting up scale_conv1
I0910 10:46:11.821393  7468 net.cpp:157] Top shape: 1 64 128 128 (1048576)
I0910 10:46:11.821394  7468 net.cpp:165] Memory required for data: 15204352
I0910 10:46:11.821401  7468 layer_factory.hpp:77] Creating layer conv1_relu
I0910 10:46:11.821410  7468 net.cpp:100] Creating Layer conv1_relu
I0910 10:46:11.821415  7468 net.cpp:434] conv1_relu <- conv1
I0910 10:46:11.821420  7468 net.cpp:395] conv1_relu -> conv1 (in-place)
I0910 10:46:11.821426  7468 net.cpp:150] Setting up conv1_relu
I0910 10:46:11.821430  7468 net.cpp:157] Top shape: 1 64 128 128 (1048576)
I0910 10:46:11.821432  7468 net.cpp:165] Memory required for data: 19398656
I0910 10:46:11.821434  7468 layer_factory.hpp:77] Creating layer conv1_conv1_relu_0_split
I0910 10:46:11.821439  7468 net.cpp:100] Creating Layer conv1_conv1_relu_0_split
I0910 10:46:11.821442  7468 net.cpp:434] conv1_conv1_relu_0_split <- conv1
I0910 10:46:11.821447  7468 net.cpp:408] conv1_conv1_relu_0_split -> conv1_conv1_relu_0_split_0
I0910 10:46:11.821454  7468 net.cpp:408] conv1_conv1_relu_0_split -> conv1_conv1_relu_0_split_1
I0910 10:46:11.821478  7468 net.cpp:150] Setting up conv1_conv1_relu_0_split
I0910 10:46:11.821483  7468 net.cpp:157] Top shape: 1 64 128 128 (1048576)
I0910 10:46:11.821486  7468 net.cpp:157] Top shape: 1 64 128 128 (1048576)
I0910 10:46:11.821488  7468 net.cpp:165] Memory required for data: 27787264
I0910 10:46:11.821491  7468 layer_factory.hpp:77] Creating layer res1_branch1
I0910 10:46:11.821499  7468 net.cpp:100] Creating Layer res1_branch1
I0910 10:46:11.821503  7468 net.cpp:434] res1_branch1 <- conv1_conv1_relu_0_split_0
I0910 10:46:11.821527  7468 net.cpp:408] res1_branch1 -> res1_branch1
I0910 10:46:11.821732  7468 net.cpp:150] Setting up res1_branch1
I0910 10:46:11.821738  7468 net.cpp:157] Top shape: 1 128 128 128 (2097152)
I0910 10:46:11.821740  7468 net.cpp:165] Memory required for data: 36175872
I0910 10:46:11.821748  7468 layer_factory.hpp:77] Creating layer conv1_bn
I0910 10:46:11.821755  7468 net.cpp:100] Creating Layer conv1_bn
I0910 10:46:11.821759  7468 net.cpp:434] conv1_bn <- conv1_conv1_relu_0_split_1
I0910 10:46:11.821765  7468 net.cpp:408] conv1_bn -> conv1_bn
I0910 10:46:11.821900  7468 net.cpp:150] Setting up conv1_bn
I0910 10:46:11.821907  7468 net.cpp:157] Top shape: 1 64 128 128 (1048576)
I0910 10:46:11.821908  7468 net.cpp:165] Memory required for data: 40370176
I0910 10:46:11.821913  7468 layer_factory.hpp:77] Creating layer conv1_bn_scale
I0910 10:46:11.821919  7468 net.cpp:100] Creating Layer conv1_bn_scale
I0910 10:46:11.821923  7468 net.cpp:434] conv1_bn_scale <- conv1_bn
I0910 10:46:11.821926  7468 net.cpp:395] conv1_bn_scale -> conv1_bn (in-place)
I0910 10:46:11.823577  7468 net.cpp:150] Setting up conv1_bn_scale
I0910 10:46:11.823597  7468 net.cpp:157] Top shape: 1 64 128 128 (1048576)
I0910 10:46:11.823599  7468 net.cpp:165] Memory required for data: 44564480
I0910 10:46:11.823606  7468 layer_factory.hpp:77] Creating layer conv1_bn_scale_relu
I0910 10:46:11.823616  7468 net.cpp:100] Creating Layer conv1_bn_scale_relu
I0910 10:46:11.823621  7468 net.cpp:434] conv1_bn_scale_relu <- conv1_bn
I0910 10:46:11.823626  7468 net.cpp:395] conv1_bn_scale_relu -> conv1_bn (in-place)
I0910 10:46:11.823645  7468 net.cpp:150] Setting up conv1_bn_scale_relu
I0910 10:46:11.823650  7468 net.cpp:157] Top shape: 1 64 128 128 (1048576)
I0910 10:46:11.823653  7468 net.cpp:165] Memory required for data: 48758784
I0910 10:46:11.823657  7468 layer_factory.hpp:77] Creating layer res1_branch2a
I0910 10:46:11.823665  7468 net.cpp:100] Creating Layer res1_branch2a
I0910 10:46:11.823669  7468 net.cpp:434] res1_branch2a <- conv1_bn
I0910 10:46:11.823673  7468 net.cpp:408] res1_branch2a -> res1_branch2a
I0910 10:46:11.824226  7468 net.cpp:150] Setting up res1_branch2a
I0910 10:46:11.824237  7468 net.cpp:157] Top shape: 1 64 128 128 (1048576)
I0910 10:46:11.824240  7468 net.cpp:165] Memory required for data: 52953088
I0910 10:46:11.824245  7468 layer_factory.hpp:77] Creating layer bn1_branch2a
I0910 10:46:11.824252  7468 net.cpp:100] Creating Layer bn1_branch2a
I0910 10:46:11.824255  7468 net.cpp:434] bn1_branch2a <- res1_branch2a
I0910 10:46:11.824261  7468 net.cpp:395] bn1_branch2a -> res1_branch2a (in-place)
I0910 10:46:11.824394  7468 net.cpp:150] Setting up bn1_branch2a
I0910 10:46:11.824400  7468 net.cpp:157] Top shape: 1 64 128 128 (1048576)
I0910 10:46:11.824403  7468 net.cpp:165] Memory required for data: 57147392
I0910 10:46:11.824410  7468 layer_factory.hpp:77] Creating layer scale1_branch2a
I0910 10:46:11.824415  7468 net.cpp:100] Creating Layer scale1_branch2a
I0910 10:46:11.824419  7468 net.cpp:434] scale1_branch2a <- res1_branch2a
I0910 10:46:11.824424  7468 net.cpp:395] scale1_branch2a -> res1_branch2a (in-place)
I0910 10:46:11.826055  7468 net.cpp:150] Setting up scale1_branch2a
I0910 10:46:11.826074  7468 net.cpp:157] Top shape: 1 64 128 128 (1048576)
I0910 10:46:11.826076  7468 net.cpp:165] Memory required for data: 61341696
I0910 10:46:11.826082  7468 layer_factory.hpp:77] Creating layer res1_branch2a_relu
I0910 10:46:11.826091  7468 net.cpp:100] Creating Layer res1_branch2a_relu
I0910 10:46:11.826095  7468 net.cpp:434] res1_branch2a_relu <- res1_branch2a
I0910 10:46:11.826100  7468 net.cpp:395] res1_branch2a_relu -> res1_branch2a (in-place)
I0910 10:46:11.826109  7468 net.cpp:150] Setting up res1_branch2a_relu
I0910 10:46:11.826113  7468 net.cpp:157] Top shape: 1 64 128 128 (1048576)
I0910 10:46:11.826115  7468 net.cpp:165] Memory required for data: 65536000
I0910 10:46:11.826117  7468 layer_factory.hpp:77] Creating layer res1_branch2b
I0910 10:46:11.826127  7468 net.cpp:100] Creating Layer res1_branch2b
I0910 10:46:11.826129  7468 net.cpp:434] res1_branch2b <- res1_branch2a
I0910 10:46:11.826133  7468 net.cpp:408] res1_branch2b -> res1_branch2b
I0910 10:46:11.826639  7468 net.cpp:150] Setting up res1_branch2b
I0910 10:46:11.826647  7468 net.cpp:157] Top shape: 1 64 128 128 (1048576)
I0910 10:46:11.826649  7468 net.cpp:165] Memory required for data: 69730304
I0910 10:46:11.826654  7468 layer_factory.hpp:77] Creating layer bn1_branch2b
I0910 10:46:11.826665  7468 net.cpp:100] Creating Layer bn1_branch2b
I0910 10:46:11.826669  7468 net.cpp:434] bn1_branch2b <- res1_branch2b
I0910 10:46:11.826673  7468 net.cpp:395] bn1_branch2b -> res1_branch2b (in-place)
I0910 10:46:11.826815  7468 net.cpp:150] Setting up bn1_branch2b
I0910 10:46:11.826822  7468 net.cpp:157] Top shape: 1 64 128 128 (1048576)
I0910 10:46:11.826824  7468 net.cpp:165] Memory required for data: 73924608
I0910 10:46:11.826829  7468 layer_factory.hpp:77] Creating layer scale1_branch2b
I0910 10:46:11.826835  7468 net.cpp:100] Creating Layer scale1_branch2b
I0910 10:46:11.826839  7468 net.cpp:434] scale1_branch2b <- res1_branch2b
I0910 10:46:11.826843  7468 net.cpp:395] scale1_branch2b -> res1_branch2b (in-place)
I0910 10:46:11.828727  7468 net.cpp:150] Setting up scale1_branch2b
I0910 10:46:11.828753  7468 net.cpp:157] Top shape: 1 64 128 128 (1048576)
I0910 10:46:11.828755  7468 net.cpp:165] Memory required for data: 78118912
I0910 10:46:11.828765  7468 layer_factory.hpp:77] Creating layer res1_branch2b_relu
I0910 10:46:11.828775  7468 net.cpp:100] Creating Layer res1_branch2b_relu
I0910 10:46:11.828794  7468 net.cpp:434] res1_branch2b_relu <- res1_branch2b
I0910 10:46:11.828800  7468 net.cpp:395] res1_branch2b_relu -> res1_branch2b (in-place)
I0910 10:46:11.828809  7468 net.cpp:150] Setting up res1_branch2b_relu
I0910 10:46:11.828812  7468 net.cpp:157] Top shape: 1 64 128 128 (1048576)
I0910 10:46:11.828815  7468 net.cpp:165] Memory required for data: 82313216
I0910 10:46:11.828817  7468 layer_factory.hpp:77] Creating layer res1_branch2c
I0910 10:46:11.828829  7468 net.cpp:100] Creating Layer res1_branch2c
I0910 10:46:11.828832  7468 net.cpp:434] res1_branch2c <- res1_branch2b
I0910 10:46:11.828837  7468 net.cpp:408] res1_branch2c -> res1_branch2c
I0910 10:46:11.829056  7468 net.cpp:150] Setting up res1_branch2c
I0910 10:46:11.829062  7468 net.cpp:157] Top shape: 1 128 128 128 (2097152)
I0910 10:46:11.829066  7468 net.cpp:165] Memory required for data: 90701824
I0910 10:46:11.829069  7468 layer_factory.hpp:77] Creating layer res1
I0910 10:46:11.829076  7468 net.cpp:100] Creating Layer res1
I0910 10:46:11.829077  7468 net.cpp:434] res1 <- res1_branch1
I0910 10:46:11.829082  7468 net.cpp:434] res1 <- res1_branch2c
I0910 10:46:11.829084  7468 net.cpp:408] res1 -> res1
I0910 10:46:11.829102  7468 net.cpp:150] Setting up res1
I0910 10:46:11.829104  7468 net.cpp:157] Top shape: 1 128 128 128 (2097152)
I0910 10:46:11.829107  7468 net.cpp:165] Memory required for data: 99090432
I0910 10:46:11.829108  7468 layer_factory.hpp:77] Creating layer pool1
I0910 10:46:11.829115  7468 net.cpp:100] Creating Layer pool1
I0910 10:46:11.829118  7468 net.cpp:434] pool1 <- res1
I0910 10:46:11.829123  7468 net.cpp:408] pool1 -> pool1
I0910 10:46:11.829207  7468 net.cpp:150] Setting up pool1
I0910 10:46:11.829216  7468 net.cpp:157] Top shape: 1 128 64 64 (524288)
I0910 10:46:11.829218  7468 net.cpp:165] Memory required for data: 101187584
I0910 10:46:11.829221  7468 layer_factory.hpp:77] Creating layer pool1_pool1_0_split
I0910 10:46:11.829226  7468 net.cpp:100] Creating Layer pool1_pool1_0_split
I0910 10:46:11.829228  7468 net.cpp:434] pool1_pool1_0_split <- pool1
I0910 10:46:11.829234  7468 net.cpp:408] pool1_pool1_0_split -> pool1_pool1_0_split_0
I0910 10:46:11.829241  7468 net.cpp:408] pool1_pool1_0_split -> pool1_pool1_0_split_1
I0910 10:46:11.829246  7468 net.cpp:408] pool1_pool1_0_split -> pool1_pool1_0_split_2
I0910 10:46:11.829432  7468 net.cpp:150] Setting up pool1_pool1_0_split
I0910 10:46:11.829442  7468 net.cpp:157] Top shape: 1 128 64 64 (524288)
I0910 10:46:11.829447  7468 net.cpp:157] Top shape: 1 128 64 64 (524288)
I0910 10:46:11.829452  7468 net.cpp:157] Top shape: 1 128 64 64 (524288)
I0910 10:46:11.829455  7468 net.cpp:165] Memory required for data: 107479040
I0910 10:46:11.829460  7468 layer_factory.hpp:77] Creating layer pool1_bn
I0910 10:46:11.829488  7468 net.cpp:100] Creating Layer pool1_bn
I0910 10:46:11.829530  7468 net.cpp:434] pool1_bn <- pool1_pool1_0_split_0
I0910 10:46:11.829542  7468 net.cpp:408] pool1_bn -> pool1_bn
I0910 10:46:11.829741  7468 net.cpp:150] Setting up pool1_bn
I0910 10:46:11.829752  7468 net.cpp:157] Top shape: 1 128 64 64 (524288)
I0910 10:46:11.829757  7468 net.cpp:165] Memory required for data: 109576192
I0910 10:46:11.829776  7468 layer_factory.hpp:77] Creating layer pool1_bn_scale
I0910 10:46:11.829784  7468 net.cpp:100] Creating Layer pool1_bn_scale
I0910 10:46:11.829788  7468 net.cpp:434] pool1_bn_scale <- pool1_bn
I0910 10:46:11.829794  7468 net.cpp:395] pool1_bn_scale -> pool1_bn (in-place)
I0910 10:46:11.832046  7468 net.cpp:150] Setting up pool1_bn_scale
I0910 10:46:11.832061  7468 net.cpp:157] Top shape: 1 128 64 64 (524288)
I0910 10:46:11.832067  7468 net.cpp:165] Memory required for data: 111673344
I0910 10:46:11.832074  7468 layer_factory.hpp:77] Creating layer pool1_bn_scale_relu
I0910 10:46:11.832084  7468 net.cpp:100] Creating Layer pool1_bn_scale_relu
I0910 10:46:11.832089  7468 net.cpp:434] pool1_bn_scale_relu <- pool1_bn
I0910 10:46:11.832095  7468 net.cpp:395] pool1_bn_scale_relu -> pool1_bn (in-place)
I0910 10:46:11.832103  7468 net.cpp:150] Setting up pool1_bn_scale_relu
I0910 10:46:11.832120  7468 net.cpp:157] Top shape: 1 128 64 64 (524288)
I0910 10:46:11.832125  7468 net.cpp:165] Memory required for data: 113770496
I0910 10:46:11.832130  7468 layer_factory.hpp:77] Creating layer res4_branch2a
I0910 10:46:11.832141  7468 net.cpp:100] Creating Layer res4_branch2a
I0910 10:46:11.832146  7468 net.cpp:434] res4_branch2a <- pool1_bn
I0910 10:46:11.832154  7468 net.cpp:408] res4_branch2a -> res4_branch2a
I0910 10:46:11.832525  7468 net.cpp:150] Setting up res4_branch2a
I0910 10:46:11.832535  7468 net.cpp:157] Top shape: 1 64 64 64 (262144)
I0910 10:46:11.832540  7468 net.cpp:165] Memory required for data: 114819072
I0910 10:46:11.832553  7468 layer_factory.hpp:77] Creating layer bn4_branch2a
I0910 10:46:11.832561  7468 net.cpp:100] Creating Layer bn4_branch2a
I0910 10:46:11.832566  7468 net.cpp:434] bn4_branch2a <- res4_branch2a
I0910 10:46:11.832574  7468 net.cpp:395] bn4_branch2a -> res4_branch2a (in-place)
I0910 10:46:11.832758  7468 net.cpp:150] Setting up bn4_branch2a
I0910 10:46:11.832767  7468 net.cpp:157] Top shape: 1 64 64 64 (262144)
I0910 10:46:11.832770  7468 net.cpp:165] Memory required for data: 115867648
I0910 10:46:11.832777  7468 layer_factory.hpp:77] Creating layer scale4_branch2a
I0910 10:46:11.832785  7468 net.cpp:100] Creating Layer scale4_branch2a
I0910 10:46:11.832789  7468 net.cpp:434] scale4_branch2a <- res4_branch2a
I0910 10:46:11.832794  7468 net.cpp:395] scale4_branch2a -> res4_branch2a (in-place)
I0910 10:46:11.833856  7468 net.cpp:150] Setting up scale4_branch2a
I0910 10:46:11.833870  7468 net.cpp:157] Top shape: 1 64 64 64 (262144)
I0910 10:46:11.833876  7468 net.cpp:165] Memory required for data: 116916224
I0910 10:46:11.833884  7468 layer_factory.hpp:77] Creating layer res4_branch2a_relu
I0910 10:46:11.833892  7468 net.cpp:100] Creating Layer res4_branch2a_relu
I0910 10:46:11.833897  7468 net.cpp:434] res4_branch2a_relu <- res4_branch2a
I0910 10:46:11.833904  7468 net.cpp:395] res4_branch2a_relu -> res4_branch2a (in-place)
I0910 10:46:11.833914  7468 net.cpp:150] Setting up res4_branch2a_relu
I0910 10:46:11.833920  7468 net.cpp:157] Top shape: 1 64 64 64 (262144)
I0910 10:46:11.833925  7468 net.cpp:165] Memory required for data: 117964800
I0910 10:46:11.833928  7468 layer_factory.hpp:77] Creating layer res4_branch2b
I0910 10:46:11.833940  7468 net.cpp:100] Creating Layer res4_branch2b
I0910 10:46:11.833946  7468 net.cpp:434] res4_branch2b <- res4_branch2a
I0910 10:46:11.833955  7468 net.cpp:408] res4_branch2b -> res4_branch2b
I0910 10:46:11.835242  7468 net.cpp:150] Setting up res4_branch2b
I0910 10:46:11.835255  7468 net.cpp:157] Top shape: 1 64 64 64 (262144)
I0910 10:46:11.835259  7468 net.cpp:165] Memory required for data: 119013376
I0910 10:46:11.835268  7468 layer_factory.hpp:77] Creating layer bn4_branch2b
I0910 10:46:11.835278  7468 net.cpp:100] Creating Layer bn4_branch2b
I0910 10:46:11.835283  7468 net.cpp:434] bn4_branch2b <- res4_branch2b
I0910 10:46:11.835289  7468 net.cpp:395] bn4_branch2b -> res4_branch2b (in-place)
I0910 10:46:11.835475  7468 net.cpp:150] Setting up bn4_branch2b
I0910 10:46:11.835484  7468 net.cpp:157] Top shape: 1 64 64 64 (262144)
I0910 10:46:11.835487  7468 net.cpp:165] Memory required for data: 120061952
I0910 10:46:11.835495  7468 layer_factory.hpp:77] Creating layer scale4_branch2b
I0910 10:46:11.835510  7468 net.cpp:100] Creating Layer scale4_branch2b
I0910 10:46:11.835515  7468 net.cpp:434] scale4_branch2b <- res4_branch2b
I0910 10:46:11.835521  7468 net.cpp:395] scale4_branch2b -> res4_branch2b (in-place)
I0910 10:46:11.836385  7468 net.cpp:150] Setting up scale4_branch2b
I0910 10:46:11.836398  7468 net.cpp:157] Top shape: 1 64 64 64 (262144)
I0910 10:46:11.836405  7468 net.cpp:165] Memory required for data: 121110528
I0910 10:46:11.836413  7468 layer_factory.hpp:77] Creating layer res4_branch2b_relu
I0910 10:46:11.836421  7468 net.cpp:100] Creating Layer res4_branch2b_relu
I0910 10:46:11.836426  7468 net.cpp:434] res4_branch2b_relu <- res4_branch2b
I0910 10:46:11.836434  7468 net.cpp:395] res4_branch2b_relu -> res4_branch2b (in-place)
I0910 10:46:11.836455  7468 net.cpp:150] Setting up res4_branch2b_relu
I0910 10:46:11.836462  7468 net.cpp:157] Top shape: 1 64 64 64 (262144)
I0910 10:46:11.836467  7468 net.cpp:165] Memory required for data: 122159104
I0910 10:46:11.836472  7468 layer_factory.hpp:77] Creating layer res4_branch2c
I0910 10:46:11.836485  7468 net.cpp:100] Creating Layer res4_branch2c
I0910 10:46:11.836490  7468 net.cpp:434] res4_branch2c <- res4_branch2b
I0910 10:46:11.836498  7468 net.cpp:408] res4_branch2c -> res4_branch2c
I0910 10:46:11.836801  7468 net.cpp:150] Setting up res4_branch2c
I0910 10:46:11.836809  7468 net.cpp:157] Top shape: 1 128 64 64 (524288)
I0910 10:46:11.836813  7468 net.cpp:165] Memory required for data: 124256256
I0910 10:46:11.836822  7468 layer_factory.hpp:77] Creating layer res4
I0910 10:46:11.836828  7468 net.cpp:100] Creating Layer res4
I0910 10:46:11.836833  7468 net.cpp:434] res4 <- pool1_pool1_0_split_1
I0910 10:46:11.836839  7468 net.cpp:434] res4 <- res4_branch2c
I0910 10:46:11.836845  7468 net.cpp:408] res4 -> res4
I0910 10:46:11.836874  7468 net.cpp:150] Setting up res4
I0910 10:46:11.836880  7468 net.cpp:157] Top shape: 1 128 64 64 (524288)
I0910 10:46:11.836884  7468 net.cpp:165] Memory required for data: 126353408
I0910 10:46:11.836889  7468 layer_factory.hpp:77] Creating layer res4_res4_0_split
I0910 10:46:11.836899  7468 net.cpp:100] Creating Layer res4_res4_0_split
I0910 10:46:11.836902  7468 net.cpp:434] res4_res4_0_split <- res4
I0910 10:46:11.836910  7468 net.cpp:408] res4_res4_0_split -> res4_res4_0_split_0
I0910 10:46:11.836917  7468 net.cpp:408] res4_res4_0_split -> res4_res4_0_split_1
I0910 10:46:11.836952  7468 net.cpp:150] Setting up res4_res4_0_split
I0910 10:46:11.836959  7468 net.cpp:157] Top shape: 1 128 64 64 (524288)
I0910 10:46:11.836966  7468 net.cpp:157] Top shape: 1 128 64 64 (524288)
I0910 10:46:11.836969  7468 net.cpp:165] Memory required for data: 130547712
I0910 10:46:11.836972  7468 layer_factory.hpp:77] Creating layer res4_bn
I0910 10:46:11.836982  7468 net.cpp:100] Creating Layer res4_bn
I0910 10:46:11.836987  7468 net.cpp:434] res4_bn <- res4_res4_0_split_0
I0910 10:46:11.836994  7468 net.cpp:408] res4_bn -> res4_bn
I0910 10:46:11.837810  7468 net.cpp:150] Setting up res4_bn
I0910 10:46:11.837822  7468 net.cpp:157] Top shape: 1 128 64 64 (524288)
I0910 10:46:11.837828  7468 net.cpp:165] Memory required for data: 132644864
I0910 10:46:11.837837  7468 layer_factory.hpp:77] Creating layer res4_bn_scale
I0910 10:46:11.837847  7468 net.cpp:100] Creating Layer res4_bn_scale
I0910 10:46:11.837852  7468 net.cpp:434] res4_bn_scale <- res4_bn
I0910 10:46:11.837858  7468 net.cpp:395] res4_bn_scale -> res4_bn (in-place)
I0910 10:46:11.839190  7468 net.cpp:150] Setting up res4_bn_scale
I0910 10:46:11.839203  7468 net.cpp:157] Top shape: 1 128 64 64 (524288)
I0910 10:46:11.839207  7468 net.cpp:165] Memory required for data: 134742016
I0910 10:46:11.839215  7468 layer_factory.hpp:77] Creating layer res4_bn_scale_relu
I0910 10:46:11.839224  7468 net.cpp:100] Creating Layer res4_bn_scale_relu
I0910 10:46:11.839228  7468 net.cpp:434] res4_bn_scale_relu <- res4_bn
I0910 10:46:11.839236  7468 net.cpp:395] res4_bn_scale_relu -> res4_bn (in-place)
I0910 10:46:11.839242  7468 net.cpp:150] Setting up res4_bn_scale_relu
I0910 10:46:11.839249  7468 net.cpp:157] Top shape: 1 128 64 64 (524288)
I0910 10:46:11.839252  7468 net.cpp:165] Memory required for data: 136839168
I0910 10:46:11.839256  7468 layer_factory.hpp:77] Creating layer res5_branch2a
I0910 10:46:11.839267  7468 net.cpp:100] Creating Layer res5_branch2a
I0910 10:46:11.839272  7468 net.cpp:434] res5_branch2a <- res4_bn
I0910 10:46:11.839282  7468 net.cpp:408] res5_branch2a -> res5_branch2a
I0910 10:46:11.840106  7468 net.cpp:150] Setting up res5_branch2a
I0910 10:46:11.840121  7468 net.cpp:157] Top shape: 1 64 64 64 (262144)
I0910 10:46:11.840126  7468 net.cpp:165] Memory required for data: 137887744
I0910 10:46:11.840137  7468 layer_factory.hpp:77] Creating layer bn5_branch2a
I0910 10:46:11.840148  7468 net.cpp:100] Creating Layer bn5_branch2a
I0910 10:46:11.840168  7468 net.cpp:434] bn5_branch2a <- res5_branch2a
I0910 10:46:11.840178  7468 net.cpp:395] bn5_branch2a -> res5_branch2a (in-place)
I0910 10:46:11.840390  7468 net.cpp:150] Setting up bn5_branch2a
I0910 10:46:11.840401  7468 net.cpp:157] Top shape: 1 64 64 64 (262144)
I0910 10:46:11.840406  7468 net.cpp:165] Memory required for data: 138936320
I0910 10:46:11.840416  7468 layer_factory.hpp:77] Creating layer scale5_branch2a
I0910 10:46:11.840426  7468 net.cpp:100] Creating Layer scale5_branch2a
I0910 10:46:11.840432  7468 net.cpp:434] scale5_branch2a <- res5_branch2a
I0910 10:46:11.840441  7468 net.cpp:395] scale5_branch2a -> res5_branch2a (in-place)
I0910 10:46:11.841271  7468 net.cpp:150] Setting up scale5_branch2a
I0910 10:46:11.841285  7468 net.cpp:157] Top shape: 1 64 64 64 (262144)
I0910 10:46:11.841291  7468 net.cpp:165] Memory required for data: 139984896
I0910 10:46:11.841301  7468 layer_factory.hpp:77] Creating layer res5_branch2a_relu
I0910 10:46:11.841312  7468 net.cpp:100] Creating Layer res5_branch2a_relu
I0910 10:46:11.841320  7468 net.cpp:434] res5_branch2a_relu <- res5_branch2a
I0910 10:46:11.841327  7468 net.cpp:395] res5_branch2a_relu -> res5_branch2a (in-place)
I0910 10:46:11.841336  7468 net.cpp:150] Setting up res5_branch2a_relu
I0910 10:46:11.841343  7468 net.cpp:157] Top shape: 1 64 64 64 (262144)
I0910 10:46:11.841347  7468 net.cpp:165] Memory required for data: 141033472
I0910 10:46:11.841352  7468 layer_factory.hpp:77] Creating layer res5_branch2b
I0910 10:46:11.841364  7468 net.cpp:100] Creating Layer res5_branch2b
I0910 10:46:11.841369  7468 net.cpp:434] res5_branch2b <- res5_branch2a
I0910 10:46:11.841379  7468 net.cpp:408] res5_branch2b -> res5_branch2b
I0910 10:46:11.842164  7468 net.cpp:150] Setting up res5_branch2b
I0910 10:46:11.842175  7468 net.cpp:157] Top shape: 1 64 64 64 (262144)
I0910 10:46:11.842180  7468 net.cpp:165] Memory required for data: 142082048
I0910 10:46:11.842201  7468 layer_factory.hpp:77] Creating layer bn5_branch2b
I0910 10:46:11.842212  7468 net.cpp:100] Creating Layer bn5_branch2b
I0910 10:46:11.842218  7468 net.cpp:434] bn5_branch2b <- res5_branch2b
I0910 10:46:11.842227  7468 net.cpp:395] bn5_branch2b -> res5_branch2b (in-place)
I0910 10:46:11.842419  7468 net.cpp:150] Setting up bn5_branch2b
I0910 10:46:11.842428  7468 net.cpp:157] Top shape: 1 64 64 64 (262144)
I0910 10:46:11.842432  7468 net.cpp:165] Memory required for data: 143130624
I0910 10:46:11.842442  7468 layer_factory.hpp:77] Creating layer scale5_branch2b
I0910 10:46:11.842450  7468 net.cpp:100] Creating Layer scale5_branch2b
I0910 10:46:11.842455  7468 net.cpp:434] scale5_branch2b <- res5_branch2b
I0910 10:46:11.842463  7468 net.cpp:395] scale5_branch2b -> res5_branch2b (in-place)
I0910 10:46:11.843217  7468 net.cpp:150] Setting up scale5_branch2b
I0910 10:46:11.843230  7468 net.cpp:157] Top shape: 1 64 64 64 (262144)
I0910 10:46:11.843235  7468 net.cpp:165] Memory required for data: 144179200
I0910 10:46:11.843245  7468 layer_factory.hpp:77] Creating layer res5_branch2b_relu
I0910 10:46:11.843252  7468 net.cpp:100] Creating Layer res5_branch2b_relu
I0910 10:46:11.843257  7468 net.cpp:434] res5_branch2b_relu <- res5_branch2b
I0910 10:46:11.843263  7468 net.cpp:395] res5_branch2b_relu -> res5_branch2b (in-place)
I0910 10:46:11.843271  7468 net.cpp:150] Setting up res5_branch2b_relu
I0910 10:46:11.843276  7468 net.cpp:157] Top shape: 1 64 64 64 (262144)
I0910 10:46:11.843281  7468 net.cpp:165] Memory required for data: 145227776
I0910 10:46:11.843286  7468 layer_factory.hpp:77] Creating layer res5_branch2c
I0910 10:46:11.843297  7468 net.cpp:100] Creating Layer res5_branch2c
I0910 10:46:11.843302  7468 net.cpp:434] res5_branch2c <- res5_branch2b
I0910 10:46:11.843312  7468 net.cpp:408] res5_branch2c -> res5_branch2c
I0910 10:46:11.843595  7468 net.cpp:150] Setting up res5_branch2c
I0910 10:46:11.843623  7468 net.cpp:157] Top shape: 1 128 64 64 (524288)
I0910 10:46:11.843636  7468 net.cpp:165] Memory required for data: 147324928
I0910 10:46:11.843657  7468 layer_factory.hpp:77] Creating layer res5
I0910 10:46:11.843664  7468 net.cpp:100] Creating Layer res5
I0910 10:46:11.843669  7468 net.cpp:434] res5 <- res4_res4_0_split_1
I0910 10:46:11.843675  7468 net.cpp:434] res5 <- res5_branch2c
I0910 10:46:11.843683  7468 net.cpp:408] res5 -> res5
I0910 10:46:11.843711  7468 net.cpp:150] Setting up res5
I0910 10:46:11.843718  7468 net.cpp:157] Top shape: 1 128 64 64 (524288)
I0910 10:46:11.843720  7468 net.cpp:165] Memory required for data: 149422080
I0910 10:46:11.843724  7468 layer_factory.hpp:77] Creating layer res5_res5_0_split
I0910 10:46:11.843729  7468 net.cpp:100] Creating Layer res5_res5_0_split
I0910 10:46:11.843734  7468 net.cpp:434] res5_res5_0_split <- res5
I0910 10:46:11.843739  7468 net.cpp:408] res5_res5_0_split -> res5_res5_0_split_0
I0910 10:46:11.843746  7468 net.cpp:408] res5_res5_0_split -> res5_res5_0_split_1
I0910 10:46:11.843777  7468 net.cpp:150] Setting up res5_res5_0_split
I0910 10:46:11.843783  7468 net.cpp:157] Top shape: 1 128 64 64 (524288)
I0910 10:46:11.843787  7468 net.cpp:157] Top shape: 1 128 64 64 (524288)
I0910 10:46:11.843791  7468 net.cpp:165] Memory required for data: 153616384
I0910 10:46:11.843794  7468 layer_factory.hpp:77] Creating layer res6_branch1
I0910 10:46:11.843806  7468 net.cpp:100] Creating Layer res6_branch1
I0910 10:46:11.843822  7468 net.cpp:434] res6_branch1 <- res5_res5_0_split_0
I0910 10:46:11.843832  7468 net.cpp:408] res6_branch1 -> res6_branch1
I0910 10:46:11.844324  7468 net.cpp:150] Setting up res6_branch1
I0910 10:46:11.844333  7468 net.cpp:157] Top shape: 1 256 64 64 (1048576)
I0910 10:46:11.844337  7468 net.cpp:165] Memory required for data: 157810688
I0910 10:46:11.844344  7468 layer_factory.hpp:77] Creating layer res5_bn
I0910 10:46:11.844352  7468 net.cpp:100] Creating Layer res5_bn
I0910 10:46:11.844358  7468 net.cpp:434] res5_bn <- res5_res5_0_split_1
I0910 10:46:11.844364  7468 net.cpp:408] res5_bn -> res5_bn
I0910 10:46:11.844553  7468 net.cpp:150] Setting up res5_bn
I0910 10:46:11.844563  7468 net.cpp:157] Top shape: 1 128 64 64 (524288)
I0910 10:46:11.844568  7468 net.cpp:165] Memory required for data: 159907840
I0910 10:46:11.844575  7468 layer_factory.hpp:77] Creating layer res5_bn_scale
I0910 10:46:11.844583  7468 net.cpp:100] Creating Layer res5_bn_scale
I0910 10:46:11.844588  7468 net.cpp:434] res5_bn_scale <- res5_bn
I0910 10:46:11.844595  7468 net.cpp:395] res5_bn_scale -> res5_bn (in-place)
I0910 10:46:11.845845  7468 net.cpp:150] Setting up res5_bn_scale
I0910 10:46:11.845862  7468 net.cpp:157] Top shape: 1 128 64 64 (524288)
I0910 10:46:11.845866  7468 net.cpp:165] Memory required for data: 162004992
I0910 10:46:11.845875  7468 layer_factory.hpp:77] Creating layer res5_bn_scale_relu
I0910 10:46:11.845885  7468 net.cpp:100] Creating Layer res5_bn_scale_relu
I0910 10:46:11.845890  7468 net.cpp:434] res5_bn_scale_relu <- res5_bn
I0910 10:46:11.845897  7468 net.cpp:395] res5_bn_scale_relu -> res5_bn (in-place)
I0910 10:46:11.845906  7468 net.cpp:150] Setting up res5_bn_scale_relu
I0910 10:46:11.845912  7468 net.cpp:157] Top shape: 1 128 64 64 (524288)
I0910 10:46:11.845916  7468 net.cpp:165] Memory required for data: 164102144
I0910 10:46:11.845921  7468 layer_factory.hpp:77] Creating layer res6_branch2a
I0910 10:46:11.845932  7468 net.cpp:100] Creating Layer res6_branch2a
I0910 10:46:11.845937  7468 net.cpp:434] res6_branch2a <- res5_bn
I0910 10:46:11.845945  7468 net.cpp:408] res6_branch2a -> res6_branch2a
I0910 10:46:11.846391  7468 net.cpp:150] Setting up res6_branch2a
I0910 10:46:11.846400  7468 net.cpp:157] Top shape: 1 128 64 64 (524288)
I0910 10:46:11.846405  7468 net.cpp:165] Memory required for data: 166199296
I0910 10:46:11.846411  7468 layer_factory.hpp:77] Creating layer bn6_branch2a
I0910 10:46:11.846420  7468 net.cpp:100] Creating Layer bn6_branch2a
I0910 10:46:11.846424  7468 net.cpp:434] bn6_branch2a <- res6_branch2a
I0910 10:46:11.846483  7468 net.cpp:395] bn6_branch2a -> res6_branch2a (in-place)
I0910 10:46:11.846670  7468 net.cpp:150] Setting up bn6_branch2a
I0910 10:46:11.846690  7468 net.cpp:157] Top shape: 1 128 64 64 (524288)
I0910 10:46:11.846695  7468 net.cpp:165] Memory required for data: 168296448
I0910 10:46:11.846704  7468 layer_factory.hpp:77] Creating layer scale6_branch2a
I0910 10:46:11.846715  7468 net.cpp:100] Creating Layer scale6_branch2a
I0910 10:46:11.846720  7468 net.cpp:434] scale6_branch2a <- res6_branch2a
I0910 10:46:11.846726  7468 net.cpp:395] scale6_branch2a -> res6_branch2a (in-place)
I0910 10:46:11.847928  7468 net.cpp:150] Setting up scale6_branch2a
I0910 10:46:11.847942  7468 net.cpp:157] Top shape: 1 128 64 64 (524288)
I0910 10:46:11.847960  7468 net.cpp:165] Memory required for data: 170393600
I0910 10:46:11.847971  7468 layer_factory.hpp:77] Creating layer res6_branch2a_relu
I0910 10:46:11.847980  7468 net.cpp:100] Creating Layer res6_branch2a_relu
I0910 10:46:11.847985  7468 net.cpp:434] res6_branch2a_relu <- res6_branch2a
I0910 10:46:11.847991  7468 net.cpp:395] res6_branch2a_relu -> res6_branch2a (in-place)
I0910 10:46:11.848008  7468 net.cpp:150] Setting up res6_branch2a_relu
I0910 10:46:11.848016  7468 net.cpp:157] Top shape: 1 128 64 64 (524288)
I0910 10:46:11.848021  7468 net.cpp:165] Memory required for data: 172490752
I0910 10:46:11.848024  7468 layer_factory.hpp:77] Creating layer res6_branch2b
I0910 10:46:11.848037  7468 net.cpp:100] Creating Layer res6_branch2b
I0910 10:46:11.848050  7468 net.cpp:434] res6_branch2b <- res6_branch2a
I0910 10:46:11.848057  7468 net.cpp:408] res6_branch2b -> res6_branch2b
I0910 10:46:11.850728  7468 net.cpp:150] Setting up res6_branch2b
I0910 10:46:11.850744  7468 net.cpp:157] Top shape: 1 128 64 64 (524288)
I0910 10:46:11.850749  7468 net.cpp:165] Memory required for data: 174587904
I0910 10:46:11.850756  7468 layer_factory.hpp:77] Creating layer bn6_branch2b
I0910 10:46:11.850769  7468 net.cpp:100] Creating Layer bn6_branch2b
I0910 10:46:11.850775  7468 net.cpp:434] bn6_branch2b <- res6_branch2b
I0910 10:46:11.850781  7468 net.cpp:395] bn6_branch2b -> res6_branch2b (in-place)
I0910 10:46:11.851035  7468 net.cpp:150] Setting up bn6_branch2b
I0910 10:46:11.851048  7468 net.cpp:157] Top shape: 1 128 64 64 (524288)
I0910 10:46:11.851053  7468 net.cpp:165] Memory required for data: 176685056
I0910 10:46:11.851064  7468 layer_factory.hpp:77] Creating layer scale6_branch2b
I0910 10:46:11.851075  7468 net.cpp:100] Creating Layer scale6_branch2b
I0910 10:46:11.851080  7468 net.cpp:434] scale6_branch2b <- res6_branch2b
I0910 10:46:11.851088  7468 net.cpp:395] scale6_branch2b -> res6_branch2b (in-place)
I0910 10:46:11.852392  7468 net.cpp:150] Setting up scale6_branch2b
I0910 10:46:11.852409  7468 net.cpp:157] Top shape: 1 128 64 64 (524288)
I0910 10:46:11.852414  7468 net.cpp:165] Memory required for data: 178782208
I0910 10:46:11.852424  7468 layer_factory.hpp:77] Creating layer res6_branch2b_relu
I0910 10:46:11.852433  7468 net.cpp:100] Creating Layer res6_branch2b_relu
I0910 10:46:11.852439  7468 net.cpp:434] res6_branch2b_relu <- res6_branch2b
I0910 10:46:11.852447  7468 net.cpp:395] res6_branch2b_relu -> res6_branch2b (in-place)
I0910 10:46:11.852455  7468 net.cpp:150] Setting up res6_branch2b_relu
I0910 10:46:11.852463  7468 net.cpp:157] Top shape: 1 128 64 64 (524288)
I0910 10:46:11.852468  7468 net.cpp:165] Memory required for data: 180879360
I0910 10:46:11.852473  7468 layer_factory.hpp:77] Creating layer res6_branch2c
I0910 10:46:11.852488  7468 net.cpp:100] Creating Layer res6_branch2c
I0910 10:46:11.852493  7468 net.cpp:434] res6_branch2c <- res6_branch2b
I0910 10:46:11.852500  7468 net.cpp:408] res6_branch2c -> res6_branch2c
I0910 10:46:11.853083  7468 net.cpp:150] Setting up res6_branch2c
I0910 10:46:11.853094  7468 net.cpp:157] Top shape: 1 256 64 64 (1048576)
I0910 10:46:11.853099  7468 net.cpp:165] Memory required for data: 185073664
I0910 10:46:11.853107  7468 layer_factory.hpp:77] Creating layer res6
I0910 10:46:11.853127  7468 net.cpp:100] Creating Layer res6
I0910 10:46:11.853133  7468 net.cpp:434] res6 <- res6_branch1
I0910 10:46:11.853139  7468 net.cpp:434] res6 <- res6_branch2c
I0910 10:46:11.853159  7468 net.cpp:408] res6 -> res6
I0910 10:46:11.853188  7468 net.cpp:150] Setting up res6
I0910 10:46:11.853196  7468 net.cpp:157] Top shape: 1 256 64 64 (1048576)
I0910 10:46:11.853201  7468 net.cpp:165] Memory required for data: 189267968
I0910 10:46:11.853205  7468 layer_factory.hpp:77] Creating layer res6_res6_0_split
I0910 10:46:11.853214  7468 net.cpp:100] Creating Layer res6_res6_0_split
I0910 10:46:11.853219  7468 net.cpp:434] res6_res6_0_split <- res6
I0910 10:46:11.853225  7468 net.cpp:408] res6_res6_0_split -> res6_res6_0_split_0
I0910 10:46:11.853235  7468 net.cpp:408] res6_res6_0_split -> res6_res6_0_split_1
I0910 10:46:11.853245  7468 net.cpp:408] res6_res6_0_split -> res6_res6_0_split_2
I0910 10:46:11.853294  7468 net.cpp:150] Setting up res6_res6_0_split
I0910 10:46:11.853302  7468 net.cpp:157] Top shape: 1 256 64 64 (1048576)
I0910 10:46:11.853308  7468 net.cpp:157] Top shape: 1 256 64 64 (1048576)
I0910 10:46:11.853315  7468 net.cpp:157] Top shape: 1 256 64 64 (1048576)
I0910 10:46:11.853320  7468 net.cpp:165] Memory required for data: 201850880
I0910 10:46:11.853324  7468 layer_factory.hpp:77] Creating layer res6_bn
I0910 10:46:11.853333  7468 net.cpp:100] Creating Layer res6_bn
I0910 10:46:11.853338  7468 net.cpp:434] res6_bn <- res6_res6_0_split_0
I0910 10:46:11.853346  7468 net.cpp:408] res6_bn -> res6_bn
I0910 10:46:11.853562  7468 net.cpp:150] Setting up res6_bn
I0910 10:46:11.853572  7468 net.cpp:157] Top shape: 1 256 64 64 (1048576)
I0910 10:46:11.853577  7468 net.cpp:165] Memory required for data: 206045184
I0910 10:46:11.853587  7468 layer_factory.hpp:77] Creating layer res6_bn_scale
I0910 10:46:11.853595  7468 net.cpp:100] Creating Layer res6_bn_scale
I0910 10:46:11.853600  7468 net.cpp:434] res6_bn_scale <- res6_bn
I0910 10:46:11.853607  7468 net.cpp:395] res6_bn_scale -> res6_bn (in-place)
I0910 10:46:11.856014  7468 net.cpp:150] Setting up res6_bn_scale
I0910 10:46:11.856040  7468 net.cpp:157] Top shape: 1 256 64 64 (1048576)
I0910 10:46:11.856045  7468 net.cpp:165] Memory required for data: 210239488
I0910 10:46:11.856057  7468 layer_factory.hpp:77] Creating layer res6_bn_scale_relu
I0910 10:46:11.856070  7468 net.cpp:100] Creating Layer res6_bn_scale_relu
I0910 10:46:11.856077  7468 net.cpp:434] res6_bn_scale_relu <- res6_bn
I0910 10:46:11.856087  7468 net.cpp:395] res6_bn_scale_relu -> res6_bn (in-place)
I0910 10:46:11.856097  7468 net.cpp:150] Setting up res6_bn_scale_relu
I0910 10:46:11.856103  7468 net.cpp:157] Top shape: 1 256 64 64 (1048576)
I0910 10:46:11.856108  7468 net.cpp:165] Memory required for data: 214433792
I0910 10:46:11.856112  7468 layer_factory.hpp:77] Creating layer reshg1_up1_branch2a
I0910 10:46:11.856127  7468 net.cpp:100] Creating Layer reshg1_up1_branch2a
I0910 10:46:11.856132  7468 net.cpp:434] reshg1_up1_branch2a <- res6_bn
I0910 10:46:11.856138  7468 net.cpp:408] reshg1_up1_branch2a -> reshg1_up1_branch2a
I0910 10:46:11.857825  7468 net.cpp:150] Setting up reshg1_up1_branch2a
I0910 10:46:11.857841  7468 net.cpp:157] Top shape: 1 128 64 64 (524288)
I0910 10:46:11.857847  7468 net.cpp:165] Memory required for data: 216530944
I0910 10:46:11.857856  7468 layer_factory.hpp:77] Creating layer bnhg1_up1_branch2a
I0910 10:46:11.857867  7468 net.cpp:100] Creating Layer bnhg1_up1_branch2a
I0910 10:46:11.857872  7468 net.cpp:434] bnhg1_up1_branch2a <- reshg1_up1_branch2a
I0910 10:46:11.857880  7468 net.cpp:395] bnhg1_up1_branch2a -> reshg1_up1_branch2a (in-place)
I0910 10:46:11.858077  7468 net.cpp:150] Setting up bnhg1_up1_branch2a
I0910 10:46:11.858085  7468 net.cpp:157] Top shape: 1 128 64 64 (524288)
I0910 10:46:11.858090  7468 net.cpp:165] Memory required for data: 218628096
I0910 10:46:11.858099  7468 layer_factory.hpp:77] Creating layer scalehg1_up1_branch2a
I0910 10:46:11.858108  7468 net.cpp:100] Creating Layer scalehg1_up1_branch2a
I0910 10:46:11.858114  7468 net.cpp:434] scalehg1_up1_branch2a <- reshg1_up1_branch2a
I0910 10:46:11.858119  7468 net.cpp:395] scalehg1_up1_branch2a -> reshg1_up1_branch2a (in-place)
I0910 10:46:11.859457  7468 net.cpp:150] Setting up scalehg1_up1_branch2a
I0910 10:46:11.859485  7468 net.cpp:157] Top shape: 1 128 64 64 (524288)
I0910 10:46:11.859491  7468 net.cpp:165] Memory required for data: 220725248
I0910 10:46:11.859500  7468 layer_factory.hpp:77] Creating layer reshg1_up1_branch2a_relu
I0910 10:46:11.859509  7468 net.cpp:100] Creating Layer reshg1_up1_branch2a_relu
I0910 10:46:11.859514  7468 net.cpp:434] reshg1_up1_branch2a_relu <- reshg1_up1_branch2a
I0910 10:46:11.859524  7468 net.cpp:395] reshg1_up1_branch2a_relu -> reshg1_up1_branch2a (in-place)
I0910 10:46:11.859532  7468 net.cpp:150] Setting up reshg1_up1_branch2a_relu
I0910 10:46:11.859539  7468 net.cpp:157] Top shape: 1 128 64 64 (524288)
I0910 10:46:11.859544  7468 net.cpp:165] Memory required for data: 222822400
I0910 10:46:11.859547  7468 layer_factory.hpp:77] Creating layer reshg1_up1_branch2b
I0910 10:46:11.859561  7468 net.cpp:100] Creating Layer reshg1_up1_branch2b
I0910 10:46:11.859567  7468 net.cpp:434] reshg1_up1_branch2b <- reshg1_up1_branch2a
I0910 10:46:11.859576  7468 net.cpp:408] reshg1_up1_branch2b -> reshg1_up1_branch2b
I0910 10:46:11.862424  7468 net.cpp:150] Setting up reshg1_up1_branch2b
I0910 10:46:11.862445  7468 net.cpp:157] Top shape: 1 128 64 64 (524288)
I0910 10:46:11.862449  7468 net.cpp:165] Memory required for data: 224919552
I0910 10:46:11.862459  7468 layer_factory.hpp:77] Creating layer bnhg1_up1_branch2b
I0910 10:46:11.862471  7468 net.cpp:100] Creating Layer bnhg1_up1_branch2b
I0910 10:46:11.862476  7468 net.cpp:434] bnhg1_up1_branch2b <- reshg1_up1_branch2b
I0910 10:46:11.862484  7468 net.cpp:395] bnhg1_up1_branch2b -> reshg1_up1_branch2b (in-place)
I0910 10:46:11.862879  7468 net.cpp:150] Setting up bnhg1_up1_branch2b
I0910 10:46:11.862890  7468 net.cpp:157] Top shape: 1 128 64 64 (524288)
I0910 10:46:11.862893  7468 net.cpp:165] Memory required for data: 227016704
I0910 10:46:11.862903  7468 layer_factory.hpp:77] Creating layer scalehg1_up1_branch2b
I0910 10:46:11.862915  7468 net.cpp:100] Creating Layer scalehg1_up1_branch2b
I0910 10:46:11.862918  7468 net.cpp:434] scalehg1_up1_branch2b <- reshg1_up1_branch2b
I0910 10:46:11.862926  7468 net.cpp:395] scalehg1_up1_branch2b -> reshg1_up1_branch2b (in-place)
I0910 10:46:11.864289  7468 net.cpp:150] Setting up scalehg1_up1_branch2b
I0910 10:46:11.864302  7468 net.cpp:157] Top shape: 1 128 64 64 (524288)
I0910 10:46:11.864305  7468 net.cpp:165] Memory required for data: 229113856
I0910 10:46:11.864313  7468 layer_factory.hpp:77] Creating layer reshg1_up1_branch2b_relu
I0910 10:46:11.864321  7468 net.cpp:100] Creating Layer reshg1_up1_branch2b_relu
I0910 10:46:11.864326  7468 net.cpp:434] reshg1_up1_branch2b_relu <- reshg1_up1_branch2b
I0910 10:46:11.864334  7468 net.cpp:395] reshg1_up1_branch2b_relu -> reshg1_up1_branch2b (in-place)
I0910 10:46:11.864342  7468 net.cpp:150] Setting up reshg1_up1_branch2b_relu
I0910 10:46:11.864348  7468 net.cpp:157] Top shape: 1 128 64 64 (524288)
I0910 10:46:11.864353  7468 net.cpp:165] Memory required for data: 231211008
I0910 10:46:11.864356  7468 layer_factory.hpp:77] Creating layer reshg1_up1_branch2c
I0910 10:46:11.864368  7468 net.cpp:100] Creating Layer reshg1_up1_branch2c
I0910 10:46:11.864372  7468 net.cpp:434] reshg1_up1_branch2c <- reshg1_up1_branch2b
I0910 10:46:11.864380  7468 net.cpp:408] reshg1_up1_branch2c -> reshg1_up1_branch2c
I0910 10:46:11.864961  7468 net.cpp:150] Setting up reshg1_up1_branch2c
I0910 10:46:11.864970  7468 net.cpp:157] Top shape: 1 256 64 64 (1048576)
I0910 10:46:11.864975  7468 net.cpp:165] Memory required for data: 235405312
I0910 10:46:11.864982  7468 layer_factory.hpp:77] Creating layer reshg1_up1
I0910 10:46:11.864990  7468 net.cpp:100] Creating Layer reshg1_up1
I0910 10:46:11.864995  7468 net.cpp:434] reshg1_up1 <- res6_res6_0_split_1
I0910 10:46:11.865000  7468 net.cpp:434] reshg1_up1 <- reshg1_up1_branch2c
I0910 10:46:11.865006  7468 net.cpp:408] reshg1_up1 -> reshg1_up1
I0910 10:46:11.865031  7468 net.cpp:150] Setting up reshg1_up1
I0910 10:46:11.865037  7468 net.cpp:157] Top shape: 1 256 64 64 (1048576)
I0910 10:46:11.865056  7468 net.cpp:165] Memory required for data: 239599616
I0910 10:46:11.865061  7468 layer_factory.hpp:77] Creating layer reshg1_up1_reshg1_up1_0_split
I0910 10:46:11.865068  7468 net.cpp:100] Creating Layer reshg1_up1_reshg1_up1_0_split
I0910 10:46:11.865073  7468 net.cpp:434] reshg1_up1_reshg1_up1_0_split <- reshg1_up1
I0910 10:46:11.865080  7468 net.cpp:408] reshg1_up1_reshg1_up1_0_split -> reshg1_up1_reshg1_up1_0_split_0
I0910 10:46:11.865088  7468 net.cpp:408] reshg1_up1_reshg1_up1_0_split -> reshg1_up1_reshg1_up1_0_split_1
I0910 10:46:11.865126  7468 net.cpp:150] Setting up reshg1_up1_reshg1_up1_0_split
I0910 10:46:11.865134  7468 net.cpp:157] Top shape: 1 256 64 64 (1048576)
I0910 10:46:11.865140  7468 net.cpp:157] Top shape: 1 256 64 64 (1048576)
I0910 10:46:11.865144  7468 net.cpp:165] Memory required for data: 247988224
I0910 10:46:11.865147  7468 layer_factory.hpp:77] Creating layer reshg1_up1_bn
I0910 10:46:11.865154  7468 net.cpp:100] Creating Layer reshg1_up1_bn
I0910 10:46:11.865159  7468 net.cpp:434] reshg1_up1_bn <- reshg1_up1_reshg1_up1_0_split_0
I0910 10:46:11.865166  7468 net.cpp:408] reshg1_up1_bn -> reshg1_up1_bn
I0910 10:46:11.865370  7468 net.cpp:150] Setting up reshg1_up1_bn
I0910 10:46:11.865378  7468 net.cpp:157] Top shape: 1 256 64 64 (1048576)
I0910 10:46:11.865382  7468 net.cpp:165] Memory required for data: 252182528
I0910 10:46:11.865391  7468 layer_factory.hpp:77] Creating layer reshg1_up1_bn_scale
I0910 10:46:11.865397  7468 net.cpp:100] Creating Layer reshg1_up1_bn_scale
I0910 10:46:11.865402  7468 net.cpp:434] reshg1_up1_bn_scale <- reshg1_up1_bn
I0910 10:46:11.865408  7468 net.cpp:395] reshg1_up1_bn_scale -> reshg1_up1_bn (in-place)
I0910 10:46:11.867835  7468 net.cpp:150] Setting up reshg1_up1_bn_scale
I0910 10:46:11.867859  7468 net.cpp:157] Top shape: 1 256 64 64 (1048576)
I0910 10:46:11.867863  7468 net.cpp:165] Memory required for data: 256376832
I0910 10:46:11.867872  7468 layer_factory.hpp:77] Creating layer reshg1_up1_bn_scale_relu
I0910 10:46:11.867879  7468 net.cpp:100] Creating Layer reshg1_up1_bn_scale_relu
I0910 10:46:11.867883  7468 net.cpp:434] reshg1_up1_bn_scale_relu <- reshg1_up1_bn
I0910 10:46:11.867890  7468 net.cpp:395] reshg1_up1_bn_scale_relu -> reshg1_up1_bn (in-place)
I0910 10:46:11.867897  7468 net.cpp:150] Setting up reshg1_up1_bn_scale_relu
I0910 10:46:11.867902  7468 net.cpp:157] Top shape: 1 256 64 64 (1048576)
I0910 10:46:11.867905  7468 net.cpp:165] Memory required for data: 260571136
I0910 10:46:11.867908  7468 layer_factory.hpp:77] Creating layer reshg1_up2_branch2a
I0910 10:46:11.867919  7468 net.cpp:100] Creating Layer reshg1_up2_branch2a
I0910 10:46:11.867923  7468 net.cpp:434] reshg1_up2_branch2a <- reshg1_up1_bn
I0910 10:46:11.867933  7468 net.cpp:408] reshg1_up2_branch2a -> reshg1_up2_branch2a
I0910 10:46:11.868626  7468 net.cpp:150] Setting up reshg1_up2_branch2a
I0910 10:46:11.868636  7468 net.cpp:157] Top shape: 1 128 64 64 (524288)
I0910 10:46:11.868649  7468 net.cpp:165] Memory required for data: 262668288
I0910 10:46:11.868657  7468 layer_factory.hpp:77] Creating layer bnhg1_up2_branch2a
I0910 10:46:11.868665  7468 net.cpp:100] Creating Layer bnhg1_up2_branch2a
I0910 10:46:11.868670  7468 net.cpp:434] bnhg1_up2_branch2a <- reshg1_up2_branch2a
I0910 10:46:11.868679  7468 net.cpp:395] bnhg1_up2_branch2a -> reshg1_up2_branch2a (in-place)
I0910 10:46:11.868871  7468 net.cpp:150] Setting up bnhg1_up2_branch2a
I0910 10:46:11.868880  7468 net.cpp:157] Top shape: 1 128 64 64 (524288)
I0910 10:46:11.868883  7468 net.cpp:165] Memory required for data: 264765440
I0910 10:46:11.868891  7468 layer_factory.hpp:77] Creating layer scalehg1_up2_branch2a
I0910 10:46:11.868898  7468 net.cpp:100] Creating Layer scalehg1_up2_branch2a
I0910 10:46:11.868904  7468 net.cpp:434] scalehg1_up2_branch2a <- reshg1_up2_branch2a
I0910 10:46:11.868911  7468 net.cpp:395] scalehg1_up2_branch2a -> reshg1_up2_branch2a (in-place)
I0910 10:46:11.870275  7468 net.cpp:150] Setting up scalehg1_up2_branch2a
I0910 10:46:11.870297  7468 net.cpp:157] Top shape: 1 128 64 64 (524288)
I0910 10:46:11.870314  7468 net.cpp:165] Memory required for data: 266862592
I0910 10:46:11.870322  7468 layer_factory.hpp:77] Creating layer reshg1_up2_branch2a_relu
I0910 10:46:11.870332  7468 net.cpp:100] Creating Layer reshg1_up2_branch2a_relu
I0910 10:46:11.870335  7468 net.cpp:434] reshg1_up2_branch2a_relu <- reshg1_up2_branch2a
I0910 10:46:11.870342  7468 net.cpp:395] reshg1_up2_branch2a_relu -> reshg1_up2_branch2a (in-place)
I0910 10:46:11.870352  7468 net.cpp:150] Setting up reshg1_up2_branch2a_relu
I0910 10:46:11.870357  7468 net.cpp:157] Top shape: 1 128 64 64 (524288)
I0910 10:46:11.870362  7468 net.cpp:165] Memory required for data: 268959744
I0910 10:46:11.870365  7468 layer_factory.hpp:77] Creating layer reshg1_up2_branch2b
I0910 10:46:11.870376  7468 net.cpp:100] Creating Layer reshg1_up2_branch2b
I0910 10:46:11.870380  7468 net.cpp:434] reshg1_up2_branch2b <- reshg1_up2_branch2a
I0910 10:46:11.870389  7468 net.cpp:408] reshg1_up2_branch2b -> reshg1_up2_branch2b
I0910 10:46:11.873280  7468 net.cpp:150] Setting up reshg1_up2_branch2b
I0910 10:46:11.873293  7468 net.cpp:157] Top shape: 1 128 64 64 (524288)
I0910 10:46:11.873298  7468 net.cpp:165] Memory required for data: 271056896
I0910 10:46:11.873323  7468 layer_factory.hpp:77] Creating layer bnhg1_up2_branch2b
I0910 10:46:11.873334  7468 net.cpp:100] Creating Layer bnhg1_up2_branch2b
I0910 10:46:11.873339  7468 net.cpp:434] bnhg1_up2_branch2b <- reshg1_up2_branch2b
I0910 10:46:11.873347  7468 net.cpp:395] bnhg1_up2_branch2b -> reshg1_up2_branch2b (in-place)
I0910 10:46:11.873569  7468 net.cpp:150] Setting up bnhg1_up2_branch2b
I0910 10:46:11.873579  7468 net.cpp:157] Top shape: 1 128 64 64 (524288)
I0910 10:46:11.873584  7468 net.cpp:165] Memory required for data: 273154048
I0910 10:46:11.873594  7468 layer_factory.hpp:77] Creating layer scalehg1_up2_branch2b
I0910 10:46:11.873602  7468 net.cpp:100] Creating Layer scalehg1_up2_branch2b
I0910 10:46:11.873607  7468 net.cpp:434] scalehg1_up2_branch2b <- reshg1_up2_branch2b
I0910 10:46:11.873612  7468 net.cpp:395] scalehg1_up2_branch2b -> reshg1_up2_branch2b (in-place)
I0910 10:46:11.875255  7468 net.cpp:150] Setting up scalehg1_up2_branch2b
I0910 10:46:11.875270  7468 net.cpp:157] Top shape: 1 128 64 64 (524288)
I0910 10:46:11.875277  7468 net.cpp:165] Memory required for data: 275251200
I0910 10:46:11.875285  7468 layer_factory.hpp:77] Creating layer reshg1_up2_branch2b_relu
I0910 10:46:11.875298  7468 net.cpp:100] Creating Layer reshg1_up2_branch2b_relu
I0910 10:46:11.875303  7468 net.cpp:434] reshg1_up2_branch2b_relu <- reshg1_up2_branch2b
I0910 10:46:11.875310  7468 net.cpp:395] reshg1_up2_branch2b_relu -> reshg1_up2_branch2b (in-place)
I0910 10:46:11.875319  7468 net.cpp:150] Setting up reshg1_up2_branch2b_relu
I0910 10:46:11.875325  7468 net.cpp:157] Top shape: 1 128 64 64 (524288)
I0910 10:46:11.875330  7468 net.cpp:165] Memory required for data: 277348352
I0910 10:46:11.875334  7468 layer_factory.hpp:77] Creating layer reshg1_up2_branch2c
I0910 10:46:11.875347  7468 net.cpp:100] Creating Layer reshg1_up2_branch2c
I0910 10:46:11.875354  7468 net.cpp:434] reshg1_up2_branch2c <- reshg1_up2_branch2b
I0910 10:46:11.875361  7468 net.cpp:408] reshg1_up2_branch2c -> reshg1_up2_branch2c
I0910 10:46:11.876380  7468 net.cpp:150] Setting up reshg1_up2_branch2c
I0910 10:46:11.876392  7468 net.cpp:157] Top shape: 1 256 64 64 (1048576)
I0910 10:46:11.876399  7468 net.cpp:165] Memory required for data: 281542656
I0910 10:46:11.876406  7468 layer_factory.hpp:77] Creating layer reshg1_up2
I0910 10:46:11.876415  7468 net.cpp:100] Creating Layer reshg1_up2
I0910 10:46:11.876421  7468 net.cpp:434] reshg1_up2 <- reshg1_up1_reshg1_up1_0_split_1
I0910 10:46:11.876426  7468 net.cpp:434] reshg1_up2 <- reshg1_up2_branch2c
I0910 10:46:11.876435  7468 net.cpp:408] reshg1_up2 -> reshg1_up2
I0910 10:46:11.876463  7468 net.cpp:150] Setting up reshg1_up2
I0910 10:46:11.876471  7468 net.cpp:157] Top shape: 1 256 64 64 (1048576)
I0910 10:46:11.876476  7468 net.cpp:165] Memory required for data: 285736960
I0910 10:46:11.876494  7468 layer_factory.hpp:77] Creating layer reshg1_up2_reshg1_up2_0_split
I0910 10:46:11.876503  7468 net.cpp:100] Creating Layer reshg1_up2_reshg1_up2_0_split
I0910 10:46:11.876507  7468 net.cpp:434] reshg1_up2_reshg1_up2_0_split <- reshg1_up2
I0910 10:46:11.876516  7468 net.cpp:408] reshg1_up2_reshg1_up2_0_split -> reshg1_up2_reshg1_up2_0_split_0
I0910 10:46:11.876525  7468 net.cpp:408] reshg1_up2_reshg1_up2_0_split -> reshg1_up2_reshg1_up2_0_split_1
I0910 10:46:11.876567  7468 net.cpp:150] Setting up reshg1_up2_reshg1_up2_0_split
I0910 10:46:11.876576  7468 net.cpp:157] Top shape: 1 256 64 64 (1048576)
I0910 10:46:11.876582  7468 net.cpp:157] Top shape: 1 256 64 64 (1048576)
I0910 10:46:11.876586  7468 net.cpp:165] Memory required for data: 294125568
I0910 10:46:11.876590  7468 layer_factory.hpp:77] Creating layer reshg1_up4_branch1
I0910 10:46:11.876602  7468 net.cpp:100] Creating Layer reshg1_up4_branch1
I0910 10:46:11.876607  7468 net.cpp:434] reshg1_up4_branch1 <- reshg1_up2_reshg1_up2_0_split_0
I0910 10:46:11.876617  7468 net.cpp:408] reshg1_up4_branch1 -> reshg1_up4_branch1
I0910 10:46:11.878442  7468 net.cpp:150] Setting up reshg1_up4_branch1
I0910 10:46:11.878455  7468 net.cpp:157] Top shape: 1 512 64 64 (2097152)
I0910 10:46:11.878458  7468 net.cpp:165] Memory required for data: 302514176
I0910 10:46:11.878464  7468 layer_factory.hpp:77] Creating layer reshg1_up2_bn
I0910 10:46:11.878473  7468 net.cpp:100] Creating Layer reshg1_up2_bn
I0910 10:46:11.878476  7468 net.cpp:434] reshg1_up2_bn <- reshg1_up2_reshg1_up2_0_split_1
I0910 10:46:11.878481  7468 net.cpp:408] reshg1_up2_bn -> reshg1_up2_bn
I0910 10:46:11.878633  7468 net.cpp:150] Setting up reshg1_up2_bn
I0910 10:46:11.878638  7468 net.cpp:157] Top shape: 1 256 64 64 (1048576)
I0910 10:46:11.878640  7468 net.cpp:165] Memory required for data: 306708480
I0910 10:46:11.878646  7468 layer_factory.hpp:77] Creating layer reshg1_up2_bn_scale
I0910 10:46:11.878653  7468 net.cpp:100] Creating Layer reshg1_up2_bn_scale
I0910 10:46:11.878656  7468 net.cpp:434] reshg1_up2_bn_scale <- reshg1_up2_bn
I0910 10:46:11.878661  7468 net.cpp:395] reshg1_up2_bn_scale -> reshg1_up2_bn (in-place)
I0910 10:46:11.880481  7468 net.cpp:150] Setting up reshg1_up2_bn_scale
I0910 10:46:11.880494  7468 net.cpp:157] Top shape: 1 256 64 64 (1048576)
I0910 10:46:11.880497  7468 net.cpp:165] Memory required for data: 310902784
I0910 10:46:11.880503  7468 layer_factory.hpp:77] Creating layer reshg1_up2_bn_scale_relu
I0910 10:46:11.880511  7468 net.cpp:100] Creating Layer reshg1_up2_bn_scale_relu
I0910 10:46:11.880516  7468 net.cpp:434] reshg1_up2_bn_scale_relu <- reshg1_up2_bn
I0910 10:46:11.880522  7468 net.cpp:395] reshg1_up2_bn_scale_relu -> reshg1_up2_bn (in-place)
I0910 10:46:11.880529  7468 net.cpp:150] Setting up reshg1_up2_bn_scale_relu
I0910 10:46:11.880533  7468 net.cpp:157] Top shape: 1 256 64 64 (1048576)
I0910 10:46:11.880535  7468 net.cpp:165] Memory required for data: 315097088
I0910 10:46:11.880537  7468 layer_factory.hpp:77] Creating layer reshg1_up4_branch2a
I0910 10:46:11.880553  7468 net.cpp:100] Creating Layer reshg1_up4_branch2a
I0910 10:46:11.880556  7468 net.cpp:434] reshg1_up4_branch2a <- reshg1_up2_bn
I0910 10:46:11.880563  7468 net.cpp:408] reshg1_up4_branch2a -> reshg1_up4_branch2a
I0910 10:46:11.881319  7468 net.cpp:150] Setting up reshg1_up4_branch2a
I0910 10:46:11.881325  7468 net.cpp:157] Top shape: 1 256 64 64 (1048576)
I0910 10:46:11.881327  7468 net.cpp:165] Memory required for data: 319291392
I0910 10:46:11.881332  7468 layer_factory.hpp:77] Creating layer bnhg1_up4_branch2a
I0910 10:46:11.881340  7468 net.cpp:100] Creating Layer bnhg1_up4_branch2a
I0910 10:46:11.881345  7468 net.cpp:434] bnhg1_up4_branch2a <- reshg1_up4_branch2a
I0910 10:46:11.881348  7468 net.cpp:395] bnhg1_up4_branch2a -> reshg1_up4_branch2a (in-place)
I0910 10:46:11.881489  7468 net.cpp:150] Setting up bnhg1_up4_branch2a
I0910 10:46:11.881494  7468 net.cpp:157] Top shape: 1 256 64 64 (1048576)
I0910 10:46:11.881496  7468 net.cpp:165] Memory required for data: 323485696
I0910 10:46:11.881531  7468 layer_factory.hpp:77] Creating layer scalehg1_up4_branch2a
I0910 10:46:11.881538  7468 net.cpp:100] Creating Layer scalehg1_up4_branch2a
I0910 10:46:11.881541  7468 net.cpp:434] scalehg1_up4_branch2a <- reshg1_up4_branch2a
I0910 10:46:11.881544  7468 net.cpp:395] scalehg1_up4_branch2a -> reshg1_up4_branch2a (in-place)
I0910 10:46:11.883246  7468 net.cpp:150] Setting up scalehg1_up4_branch2a
I0910 10:46:11.883258  7468 net.cpp:157] Top shape: 1 256 64 64 (1048576)
I0910 10:46:11.883260  7468 net.cpp:165] Memory required for data: 327680000
I0910 10:46:11.883266  7468 layer_factory.hpp:77] Creating layer reshg1_up4_branch2a_relu
I0910 10:46:11.883273  7468 net.cpp:100] Creating Layer reshg1_up4_branch2a_relu
I0910 10:46:11.883277  7468 net.cpp:434] reshg1_up4_branch2a_relu <- reshg1_up4_branch2a
I0910 10:46:11.883281  7468 net.cpp:395] reshg1_up4_branch2a_relu -> reshg1_up4_branch2a (in-place)
I0910 10:46:11.883286  7468 net.cpp:150] Setting up reshg1_up4_branch2a_relu
I0910 10:46:11.883290  7468 net.cpp:157] Top shape: 1 256 64 64 (1048576)
I0910 10:46:11.883291  7468 net.cpp:165] Memory required for data: 331874304
I0910 10:46:11.883293  7468 layer_factory.hpp:77] Creating layer reshg1_up4_branch2b
I0910 10:46:11.883303  7468 net.cpp:100] Creating Layer reshg1_up4_branch2b
I0910 10:46:11.883306  7468 net.cpp:434] reshg1_up4_branch2b <- reshg1_up4_branch2a
I0910 10:46:11.883312  7468 net.cpp:408] reshg1_up4_branch2b -> reshg1_up4_branch2b
I0910 10:46:11.889780  7468 net.cpp:150] Setting up reshg1_up4_branch2b
I0910 10:46:11.889824  7468 net.cpp:157] Top shape: 1 256 64 64 (1048576)
I0910 10:46:11.889829  7468 net.cpp:165] Memory required for data: 336068608
I0910 10:46:11.889839  7468 layer_factory.hpp:77] Creating layer bnhg1_up4_branch2b
I0910 10:46:11.889854  7468 net.cpp:100] Creating Layer bnhg1_up4_branch2b
I0910 10:46:11.889859  7468 net.cpp:434] bnhg1_up4_branch2b <- reshg1_up4_branch2b
I0910 10:46:11.889871  7468 net.cpp:395] bnhg1_up4_branch2b -> reshg1_up4_branch2b (in-place)
I0910 10:46:11.890043  7468 net.cpp:150] Setting up bnhg1_up4_branch2b
I0910 10:46:11.890049  7468 net.cpp:157] Top shape: 1 256 64 64 (1048576)
I0910 10:46:11.890063  7468 net.cpp:165] Memory required for data: 340262912
I0910 10:46:11.890067  7468 layer_factory.hpp:77] Creating layer scalehg1_up4_branch2b
I0910 10:46:11.890074  7468 net.cpp:100] Creating Layer scalehg1_up4_branch2b
I0910 10:46:11.890077  7468 net.cpp:434] scalehg1_up4_branch2b <- reshg1_up4_branch2b
I0910 10:46:11.890080  7468 net.cpp:395] scalehg1_up4_branch2b -> reshg1_up4_branch2b (in-place)
I0910 10:46:11.891818  7468 net.cpp:150] Setting up scalehg1_up4_branch2b
I0910 10:46:11.891850  7468 net.cpp:157] Top shape: 1 256 64 64 (1048576)
I0910 10:46:11.891854  7468 net.cpp:165] Memory required for data: 344457216
I0910 10:46:11.891861  7468 layer_factory.hpp:77] Creating layer reshg1_up4_branch2b_relu
I0910 10:46:11.891868  7468 net.cpp:100] Creating Layer reshg1_up4_branch2b_relu
I0910 10:46:11.891872  7468 net.cpp:434] reshg1_up4_branch2b_relu <- reshg1_up4_branch2b
I0910 10:46:11.891880  7468 net.cpp:395] reshg1_up4_branch2b_relu -> reshg1_up4_branch2b (in-place)
I0910 10:46:11.891890  7468 net.cpp:150] Setting up reshg1_up4_branch2b_relu
I0910 10:46:11.891892  7468 net.cpp:157] Top shape: 1 256 64 64 (1048576)
I0910 10:46:11.891894  7468 net.cpp:165] Memory required for data: 348651520
I0910 10:46:11.891896  7468 layer_factory.hpp:77] Creating layer reshg1_up4_branch2c
I0910 10:46:11.891907  7468 net.cpp:100] Creating Layer reshg1_up4_branch2c
I0910 10:46:11.891911  7468 net.cpp:434] reshg1_up4_branch2c <- reshg1_up4_branch2b
I0910 10:46:11.891916  7468 net.cpp:408] reshg1_up4_branch2c -> reshg1_up4_branch2c
I0910 10:46:11.892712  7468 net.cpp:150] Setting up reshg1_up4_branch2c
I0910 10:46:11.892721  7468 net.cpp:157] Top shape: 1 512 64 64 (2097152)
I0910 10:46:11.892734  7468 net.cpp:165] Memory required for data: 357040128
I0910 10:46:11.892738  7468 layer_factory.hpp:77] Creating layer reshg1_up4
I0910 10:46:11.892745  7468 net.cpp:100] Creating Layer reshg1_up4
I0910 10:46:11.892763  7468 net.cpp:434] reshg1_up4 <- reshg1_up4_branch1
I0910 10:46:11.892768  7468 net.cpp:434] reshg1_up4 <- reshg1_up4_branch2c
I0910 10:46:11.892773  7468 net.cpp:408] reshg1_up4 -> reshg1_up4
I0910 10:46:11.892794  7468 net.cpp:150] Setting up reshg1_up4
I0910 10:46:11.892799  7468 net.cpp:157] Top shape: 1 512 64 64 (2097152)
I0910 10:46:11.892802  7468 net.cpp:165] Memory required for data: 365428736
I0910 10:46:11.892804  7468 layer_factory.hpp:77] Creating layer hg1_pool1
I0910 10:46:11.892812  7468 net.cpp:100] Creating Layer hg1_pool1
I0910 10:46:11.892815  7468 net.cpp:434] hg1_pool1 <- res6_res6_0_split_2
I0910 10:46:11.892819  7468 net.cpp:408] hg1_pool1 -> hg1_pool1
I0910 10:46:11.892850  7468 net.cpp:150] Setting up hg1_pool1
I0910 10:46:11.892854  7468 net.cpp:157] Top shape: 1 256 32 32 (262144)
I0910 10:46:11.892856  7468 net.cpp:165] Memory required for data: 366477312
I0910 10:46:11.892859  7468 layer_factory.hpp:77] Creating layer hg1_pool1_hg1_pool1_0_split
I0910 10:46:11.892863  7468 net.cpp:100] Creating Layer hg1_pool1_hg1_pool1_0_split
I0910 10:46:11.892868  7468 net.cpp:434] hg1_pool1_hg1_pool1_0_split <- hg1_pool1
I0910 10:46:11.892871  7468 net.cpp:408] hg1_pool1_hg1_pool1_0_split -> hg1_pool1_hg1_pool1_0_split_0
I0910 10:46:11.892876  7468 net.cpp:408] hg1_pool1_hg1_pool1_0_split -> hg1_pool1_hg1_pool1_0_split_1
I0910 10:46:11.892904  7468 net.cpp:150] Setting up hg1_pool1_hg1_pool1_0_split
I0910 10:46:11.892910  7468 net.cpp:157] Top shape: 1 256 32 32 (262144)
I0910 10:46:11.892912  7468 net.cpp:157] Top shape: 1 256 32 32 (262144)
I0910 10:46:11.892915  7468 net.cpp:165] Memory required for data: 368574464
I0910 10:46:11.892916  7468 layer_factory.hpp:77] Creating layer hg1_pool1_bn
I0910 10:46:11.892925  7468 net.cpp:100] Creating Layer hg1_pool1_bn
I0910 10:46:11.892927  7468 net.cpp:434] hg1_pool1_bn <- hg1_pool1_hg1_pool1_0_split_0
I0910 10:46:11.892931  7468 net.cpp:408] hg1_pool1_bn -> hg1_pool1_bn
I0910 10:46:11.893076  7468 net.cpp:150] Setting up hg1_pool1_bn
I0910 10:46:11.893082  7468 net.cpp:157] Top shape: 1 256 32 32 (262144)
I0910 10:46:11.893085  7468 net.cpp:165] Memory required for data: 369623040
I0910 10:46:11.893090  7468 layer_factory.hpp:77] Creating layer hg1_pool1_bn_scale
I0910 10:46:11.893098  7468 net.cpp:100] Creating Layer hg1_pool1_bn_scale
I0910 10:46:11.893101  7468 net.cpp:434] hg1_pool1_bn_scale <- hg1_pool1_bn
I0910 10:46:11.893105  7468 net.cpp:395] hg1_pool1_bn_scale -> hg1_pool1_bn (in-place)
I0910 10:46:11.893738  7468 net.cpp:150] Setting up hg1_pool1_bn_scale
I0910 10:46:11.893750  7468 net.cpp:157] Top shape: 1 256 32 32 (262144)
I0910 10:46:11.893754  7468 net.cpp:165] Memory required for data: 370671616
I0910 10:46:11.893759  7468 layer_factory.hpp:77] Creating layer hg1_pool1_bn_scale_relu
I0910 10:46:11.893767  7468 net.cpp:100] Creating Layer hg1_pool1_bn_scale_relu
I0910 10:46:11.893770  7468 net.cpp:434] hg1_pool1_bn_scale_relu <- hg1_pool1_bn
I0910 10:46:11.893774  7468 net.cpp:395] hg1_pool1_bn_scale_relu -> hg1_pool1_bn (in-place)
I0910 10:46:11.893781  7468 net.cpp:150] Setting up hg1_pool1_bn_scale_relu
I0910 10:46:11.893784  7468 net.cpp:157] Top shape: 1 256 32 32 (262144)
I0910 10:46:11.893787  7468 net.cpp:165] Memory required for data: 371720192
I0910 10:46:11.893790  7468 layer_factory.hpp:77] Creating layer reshg1_low1_branch2a
I0910 10:46:11.893798  7468 net.cpp:100] Creating Layer reshg1_low1_branch2a
I0910 10:46:11.893801  7468 net.cpp:434] reshg1_low1_branch2a <- hg1_pool1_bn
I0910 10:46:11.893807  7468 net.cpp:408] reshg1_low1_branch2a -> reshg1_low1_branch2a
I0910 10:46:11.894284  7468 net.cpp:150] Setting up reshg1_low1_branch2a
I0910 10:46:11.894292  7468 net.cpp:157] Top shape: 1 128 32 32 (131072)
I0910 10:46:11.894295  7468 net.cpp:165] Memory required for data: 372244480
I0910 10:46:11.894299  7468 layer_factory.hpp:77] Creating layer bnhg1_low1_branch2a
I0910 10:46:11.894307  7468 net.cpp:100] Creating Layer bnhg1_low1_branch2a
I0910 10:46:11.894310  7468 net.cpp:434] bnhg1_low1_branch2a <- reshg1_low1_branch2a
I0910 10:46:11.894327  7468 net.cpp:395] bnhg1_low1_branch2a -> reshg1_low1_branch2a (in-place)
I0910 10:46:11.894469  7468 net.cpp:150] Setting up bnhg1_low1_branch2a
I0910 10:46:11.894475  7468 net.cpp:157] Top shape: 1 128 32 32 (131072)
I0910 10:46:11.894477  7468 net.cpp:165] Memory required for data: 372768768
I0910 10:46:11.894484  7468 layer_factory.hpp:77] Creating layer scalehg1_low1_branch2a
I0910 10:46:11.894490  7468 net.cpp:100] Creating Layer scalehg1_low1_branch2a
I0910 10:46:11.894493  7468 net.cpp:434] scalehg1_low1_branch2a <- reshg1_low1_branch2a
I0910 10:46:11.894496  7468 net.cpp:395] scalehg1_low1_branch2a -> reshg1_low1_branch2a (in-place)
I0910 10:46:11.894985  7468 net.cpp:150] Setting up scalehg1_low1_branch2a
I0910 10:46:11.894995  7468 net.cpp:157] Top shape: 1 128 32 32 (131072)
I0910 10:46:11.894999  7468 net.cpp:165] Memory required for data: 373293056
I0910 10:46:11.895004  7468 layer_factory.hpp:77] Creating layer reshg1_low1_branch2a_relu
I0910 10:46:11.895010  7468 net.cpp:100] Creating Layer reshg1_low1_branch2a_relu
I0910 10:46:11.895015  7468 net.cpp:434] reshg1_low1_branch2a_relu <- reshg1_low1_branch2a
I0910 10:46:11.895018  7468 net.cpp:395] reshg1_low1_branch2a_relu -> reshg1_low1_branch2a (in-place)
I0910 10:46:11.895023  7468 net.cpp:150] Setting up reshg1_low1_branch2a_relu
I0910 10:46:11.895027  7468 net.cpp:157] Top shape: 1 128 32 32 (131072)
I0910 10:46:11.895030  7468 net.cpp:165] Memory required for data: 373817344
I0910 10:46:11.895031  7468 layer_factory.hpp:77] Creating layer reshg1_low1_branch2b
I0910 10:46:11.895040  7468 net.cpp:100] Creating Layer reshg1_low1_branch2b
I0910 10:46:11.895042  7468 net.cpp:434] reshg1_low1_branch2b <- reshg1_low1_branch2a
I0910 10:46:11.895048  7468 net.cpp:408] reshg1_low1_branch2b -> reshg1_low1_branch2b
I0910 10:46:11.896754  7468 net.cpp:150] Setting up reshg1_low1_branch2b
I0910 10:46:11.896764  7468 net.cpp:157] Top shape: 1 128 32 32 (131072)
I0910 10:46:11.896767  7468 net.cpp:165] Memory required for data: 374341632
I0910 10:46:11.896772  7468 layer_factory.hpp:77] Creating layer bnhg1_low1_branch2b
I0910 10:46:11.896780  7468 net.cpp:100] Creating Layer bnhg1_low1_branch2b
I0910 10:46:11.896783  7468 net.cpp:434] bnhg1_low1_branch2b <- reshg1_low1_branch2b
I0910 10:46:11.896788  7468 net.cpp:395] bnhg1_low1_branch2b -> reshg1_low1_branch2b (in-place)
I0910 10:46:11.896924  7468 net.cpp:150] Setting up bnhg1_low1_branch2b
I0910 10:46:11.896930  7468 net.cpp:157] Top shape: 1 128 32 32 (131072)
I0910 10:46:11.896932  7468 net.cpp:165] Memory required for data: 374865920
I0910 10:46:11.896937  7468 layer_factory.hpp:77] Creating layer scalehg1_low1_branch2b
I0910 10:46:11.896944  7468 net.cpp:100] Creating Layer scalehg1_low1_branch2b
I0910 10:46:11.896945  7468 net.cpp:434] scalehg1_low1_branch2b <- reshg1_low1_branch2b
I0910 10:46:11.896948  7468 net.cpp:395] scalehg1_low1_branch2b -> reshg1_low1_branch2b (in-place)
I0910 10:46:11.897104  7468 net.cpp:150] Setting up scalehg1_low1_branch2b
I0910 10:46:11.897110  7468 net.cpp:157] Top shape: 1 128 32 32 (131072)
I0910 10:46:11.897114  7468 net.cpp:165] Memory required for data: 375390208
I0910 10:46:11.897119  7468 layer_factory.hpp:77] Creating layer reshg1_low1_branch2b_relu
I0910 10:46:11.897122  7468 net.cpp:100] Creating Layer reshg1_low1_branch2b_relu
I0910 10:46:11.897125  7468 net.cpp:434] reshg1_low1_branch2b_relu <- reshg1_low1_branch2b
I0910 10:46:11.897130  7468 net.cpp:395] reshg1_low1_branch2b_relu -> reshg1_low1_branch2b (in-place)
I0910 10:46:11.897133  7468 net.cpp:150] Setting up reshg1_low1_branch2b_relu
I0910 10:46:11.897137  7468 net.cpp:157] Top shape: 1 128 32 32 (131072)
I0910 10:46:11.897140  7468 net.cpp:165] Memory required for data: 375914496
I0910 10:46:11.897141  7468 layer_factory.hpp:77] Creating layer reshg1_low1_branch2c
I0910 10:46:11.897148  7468 net.cpp:100] Creating Layer reshg1_low1_branch2c
I0910 10:46:11.897152  7468 net.cpp:434] reshg1_low1_branch2c <- reshg1_low1_branch2b
I0910 10:46:11.897156  7468 net.cpp:408] reshg1_low1_branch2c -> reshg1_low1_branch2c
I0910 10:46:11.897498  7468 net.cpp:150] Setting up reshg1_low1_branch2c
I0910 10:46:11.897512  7468 net.cpp:157] Top shape: 1 256 32 32 (262144)
I0910 10:46:11.897516  7468 net.cpp:165] Memory required for data: 376963072
I0910 10:46:11.897521  7468 layer_factory.hpp:77] Creating layer reshg1_low1
I0910 10:46:11.897526  7468 net.cpp:100] Creating Layer reshg1_low1
I0910 10:46:11.897529  7468 net.cpp:434] reshg1_low1 <- hg1_pool1_hg1_pool1_0_split_1
I0910 10:46:11.897533  7468 net.cpp:434] reshg1_low1 <- reshg1_low1_branch2c
I0910 10:46:11.897538  7468 net.cpp:408] reshg1_low1 -> reshg1_low1
I0910 10:46:11.897559  7468 net.cpp:150] Setting up reshg1_low1
I0910 10:46:11.897564  7468 net.cpp:157] Top shape: 1 256 32 32 (262144)
I0910 10:46:11.897567  7468 net.cpp:165] Memory required for data: 378011648
I0910 10:46:11.897569  7468 layer_factory.hpp:77] Creating layer reshg1_low1_reshg1_low1_0_split
I0910 10:46:11.897574  7468 net.cpp:100] Creating Layer reshg1_low1_reshg1_low1_0_split
I0910 10:46:11.897578  7468 net.cpp:434] reshg1_low1_reshg1_low1_0_split <- reshg1_low1
I0910 10:46:11.897583  7468 net.cpp:408] reshg1_low1_reshg1_low1_0_split -> reshg1_low1_reshg1_low1_0_split_0
I0910 10:46:11.897588  7468 net.cpp:408] reshg1_low1_reshg1_low1_0_split -> reshg1_low1_reshg1_low1_0_split_1
I0910 10:46:11.897616  7468 net.cpp:150] Setting up reshg1_low1_reshg1_low1_0_split
I0910 10:46:11.897621  7468 net.cpp:157] Top shape: 1 256 32 32 (262144)
I0910 10:46:11.897624  7468 net.cpp:157] Top shape: 1 256 32 32 (262144)
I0910 10:46:11.897627  7468 net.cpp:165] Memory required for data: 380108800
I0910 10:46:11.897629  7468 layer_factory.hpp:77] Creating layer reshg1_low1_bn
I0910 10:46:11.897635  7468 net.cpp:100] Creating Layer reshg1_low1_bn
I0910 10:46:11.897639  7468 net.cpp:434] reshg1_low1_bn <- reshg1_low1_reshg1_low1_0_split_0
I0910 10:46:11.897642  7468 net.cpp:408] reshg1_low1_bn -> reshg1_low1_bn
I0910 10:46:11.897785  7468 net.cpp:150] Setting up reshg1_low1_bn
I0910 10:46:11.897791  7468 net.cpp:157] Top shape: 1 256 32 32 (262144)
I0910 10:46:11.897794  7468 net.cpp:165] Memory required for data: 381157376
I0910 10:46:11.897799  7468 layer_factory.hpp:77] Creating layer reshg1_low1_bn_scale
I0910 10:46:11.897804  7468 net.cpp:100] Creating Layer reshg1_low1_bn_scale
I0910 10:46:11.897806  7468 net.cpp:434] reshg1_low1_bn_scale <- reshg1_low1_bn
I0910 10:46:11.897810  7468 net.cpp:395] reshg1_low1_bn_scale -> reshg1_low1_bn (in-place)
I0910 10:46:11.898350  7468 net.cpp:150] Setting up reshg1_low1_bn_scale
I0910 10:46:11.898360  7468 net.cpp:157] Top shape: 1 256 32 32 (262144)
I0910 10:46:11.898363  7468 net.cpp:165] Memory required for data: 382205952
I0910 10:46:11.898368  7468 layer_factory.hpp:77] Creating layer reshg1_low1_bn_scale_relu
I0910 10:46:11.898375  7468 net.cpp:100] Creating Layer reshg1_low1_bn_scale_relu
I0910 10:46:11.898380  7468 net.cpp:434] reshg1_low1_bn_scale_relu <- reshg1_low1_bn
I0910 10:46:11.898383  7468 net.cpp:395] reshg1_low1_bn_scale_relu -> reshg1_low1_bn (in-place)
I0910 10:46:11.898389  7468 net.cpp:150] Setting up reshg1_low1_bn_scale_relu
I0910 10:46:11.898393  7468 net.cpp:157] Top shape: 1 256 32 32 (262144)
I0910 10:46:11.898396  7468 net.cpp:165] Memory required for data: 383254528
I0910 10:46:11.898397  7468 layer_factory.hpp:77] Creating layer reshg1_low2_branch2a
I0910 10:46:11.898404  7468 net.cpp:100] Creating Layer reshg1_low2_branch2a
I0910 10:46:11.898408  7468 net.cpp:434] reshg1_low2_branch2a <- reshg1_low1_bn
I0910 10:46:11.898414  7468 net.cpp:408] reshg1_low2_branch2a -> reshg1_low2_branch2a
I0910 10:46:11.898874  7468 net.cpp:150] Setting up reshg1_low2_branch2a
I0910 10:46:11.898880  7468 net.cpp:157] Top shape: 1 128 32 32 (131072)
I0910 10:46:11.898882  7468 net.cpp:165] Memory required for data: 383778816
I0910 10:46:11.898887  7468 layer_factory.hpp:77] Creating layer bnhg1_low2_branch2a
I0910 10:46:11.898912  7468 net.cpp:100] Creating Layer bnhg1_low2_branch2a
I0910 10:46:11.898916  7468 net.cpp:434] bnhg1_low2_branch2a <- reshg1_low2_branch2a
I0910 10:46:11.898931  7468 net.cpp:395] bnhg1_low2_branch2a -> reshg1_low2_branch2a (in-place)
I0910 10:46:11.899072  7468 net.cpp:150] Setting up bnhg1_low2_branch2a
I0910 10:46:11.899078  7468 net.cpp:157] Top shape: 1 128 32 32 (131072)
I0910 10:46:11.899081  7468 net.cpp:165] Memory required for data: 384303104
I0910 10:46:11.899087  7468 layer_factory.hpp:77] Creating layer scalehg1_low2_branch2a
I0910 10:46:11.899092  7468 net.cpp:100] Creating Layer scalehg1_low2_branch2a
I0910 10:46:11.899094  7468 net.cpp:434] scalehg1_low2_branch2a <- reshg1_low2_branch2a
I0910 10:46:11.899099  7468 net.cpp:395] scalehg1_low2_branch2a -> reshg1_low2_branch2a (in-place)
I0910 10:46:11.899565  7468 net.cpp:150] Setting up scalehg1_low2_branch2a
I0910 10:46:11.899574  7468 net.cpp:157] Top shape: 1 128 32 32 (131072)
I0910 10:46:11.899577  7468 net.cpp:165] Memory required for data: 384827392
I0910 10:46:11.899582  7468 layer_factory.hpp:77] Creating layer reshg1_low2_branch2a_relu
I0910 10:46:11.899588  7468 net.cpp:100] Creating Layer reshg1_low2_branch2a_relu
I0910 10:46:11.899592  7468 net.cpp:434] reshg1_low2_branch2a_relu <- reshg1_low2_branch2a
I0910 10:46:11.899597  7468 net.cpp:395] reshg1_low2_branch2a_relu -> reshg1_low2_branch2a (in-place)
I0910 10:46:11.899603  7468 net.cpp:150] Setting up reshg1_low2_branch2a_relu
I0910 10:46:11.899607  7468 net.cpp:157] Top shape: 1 128 32 32 (131072)
I0910 10:46:11.899610  7468 net.cpp:165] Memory required for data: 385351680
I0910 10:46:11.899611  7468 layer_factory.hpp:77] Creating layer reshg1_low2_branch2b
I0910 10:46:11.899621  7468 net.cpp:100] Creating Layer reshg1_low2_branch2b
I0910 10:46:11.899623  7468 net.cpp:434] reshg1_low2_branch2b <- reshg1_low2_branch2a
I0910 10:46:11.899629  7468 net.cpp:408] reshg1_low2_branch2b -> reshg1_low2_branch2b
I0910 10:46:11.901342  7468 net.cpp:150] Setting up reshg1_low2_branch2b
I0910 10:46:11.901351  7468 net.cpp:157] Top shape: 1 128 32 32 (131072)
I0910 10:46:11.901355  7468 net.cpp:165] Memory required for data: 385875968
I0910 10:46:11.901360  7468 layer_factory.hpp:77] Creating layer bnhg1_low2_branch2b
I0910 10:46:11.901366  7468 net.cpp:100] Creating Layer bnhg1_low2_branch2b
I0910 10:46:11.901370  7468 net.cpp:434] bnhg1_low2_branch2b <- reshg1_low2_branch2b
I0910 10:46:11.901373  7468 net.cpp:395] bnhg1_low2_branch2b -> reshg1_low2_branch2b (in-place)
I0910 10:46:11.901520  7468 net.cpp:150] Setting up bnhg1_low2_branch2b
I0910 10:46:11.901527  7468 net.cpp:157] Top shape: 1 128 32 32 (131072)
I0910 10:46:11.901530  7468 net.cpp:165] Memory required for data: 386400256
I0910 10:46:11.901536  7468 layer_factory.hpp:77] Creating layer scalehg1_low2_branch2b
I0910 10:46:11.901542  7468 net.cpp:100] Creating Layer scalehg1_low2_branch2b
I0910 10:46:11.901546  7468 net.cpp:434] scalehg1_low2_branch2b <- reshg1_low2_branch2b
I0910 10:46:11.901548  7468 net.cpp:395] scalehg1_low2_branch2b -> reshg1_low2_branch2b (in-place)
I0910 10:46:11.901706  7468 net.cpp:150] Setting up scalehg1_low2_branch2b
I0910 10:46:11.901711  7468 net.cpp:157] Top shape: 1 128 32 32 (131072)
I0910 10:46:11.901713  7468 net.cpp:165] Memory required for data: 386924544
I0910 10:46:11.901717  7468 layer_factory.hpp:77] Creating layer reshg1_low2_branch2b_relu
I0910 10:46:11.901723  7468 net.cpp:100] Creating Layer reshg1_low2_branch2b_relu
I0910 10:46:11.901726  7468 net.cpp:434] reshg1_low2_branch2b_relu <- reshg1_low2_branch2b
I0910 10:46:11.901729  7468 net.cpp:395] reshg1_low2_branch2b_relu -> reshg1_low2_branch2b (in-place)
I0910 10:46:11.901733  7468 net.cpp:150] Setting up reshg1_low2_branch2b_relu
I0910 10:46:11.901736  7468 net.cpp:157] Top shape: 1 128 32 32 (131072)
I0910 10:46:11.901739  7468 net.cpp:165] Memory required for data: 387448832
I0910 10:46:11.901741  7468 layer_factory.hpp:77] Creating layer reshg1_low2_branch2c
I0910 10:46:11.901748  7468 net.cpp:100] Creating Layer reshg1_low2_branch2c
I0910 10:46:11.901752  7468 net.cpp:434] reshg1_low2_branch2c <- reshg1_low2_branch2b
I0910 10:46:11.901767  7468 net.cpp:408] reshg1_low2_branch2c -> reshg1_low2_branch2c
I0910 10:46:11.902098  7468 net.cpp:150] Setting up reshg1_low2_branch2c
I0910 10:46:11.902104  7468 net.cpp:157] Top shape: 1 256 32 32 (262144)
I0910 10:46:11.902107  7468 net.cpp:165] Memory required for data: 388497408
I0910 10:46:11.902112  7468 layer_factory.hpp:77] Creating layer reshg1_low2
I0910 10:46:11.902117  7468 net.cpp:100] Creating Layer reshg1_low2
I0910 10:46:11.902119  7468 net.cpp:434] reshg1_low2 <- reshg1_low1_reshg1_low1_0_split_1
I0910 10:46:11.902122  7468 net.cpp:434] reshg1_low2 <- reshg1_low2_branch2c
I0910 10:46:11.902127  7468 net.cpp:408] reshg1_low2 -> reshg1_low2
I0910 10:46:11.902146  7468 net.cpp:150] Setting up reshg1_low2
I0910 10:46:11.902151  7468 net.cpp:157] Top shape: 1 256 32 32 (262144)
I0910 10:46:11.902153  7468 net.cpp:165] Memory required for data: 389545984
I0910 10:46:11.902155  7468 layer_factory.hpp:77] Creating layer reshg1_low2_reshg1_low2_0_split
I0910 10:46:11.902161  7468 net.cpp:100] Creating Layer reshg1_low2_reshg1_low2_0_split
I0910 10:46:11.902164  7468 net.cpp:434] reshg1_low2_reshg1_low2_0_split <- reshg1_low2
I0910 10:46:11.902169  7468 net.cpp:408] reshg1_low2_reshg1_low2_0_split -> reshg1_low2_reshg1_low2_0_split_0
I0910 10:46:11.902174  7468 net.cpp:408] reshg1_low2_reshg1_low2_0_split -> reshg1_low2_reshg1_low2_0_split_1
I0910 10:46:11.902202  7468 net.cpp:150] Setting up reshg1_low2_reshg1_low2_0_split
I0910 10:46:11.902207  7468 net.cpp:157] Top shape: 1 256 32 32 (262144)
I0910 10:46:11.902209  7468 net.cpp:157] Top shape: 1 256 32 32 (262144)
I0910 10:46:11.902212  7468 net.cpp:165] Memory required for data: 391643136
I0910 10:46:11.902215  7468 layer_factory.hpp:77] Creating layer reshg1_low2_bn
I0910 10:46:11.902220  7468 net.cpp:100] Creating Layer reshg1_low2_bn
I0910 10:46:11.902223  7468 net.cpp:434] reshg1_low2_bn <- reshg1_low2_reshg1_low2_0_split_0
I0910 10:46:11.902227  7468 net.cpp:408] reshg1_low2_bn -> reshg1_low2_bn
I0910 10:46:11.902375  7468 net.cpp:150] Setting up reshg1_low2_bn
I0910 10:46:11.902380  7468 net.cpp:157] Top shape: 1 256 32 32 (262144)
I0910 10:46:11.902382  7468 net.cpp:165] Memory required for data: 392691712
I0910 10:46:11.902389  7468 layer_factory.hpp:77] Creating layer reshg1_low2_bn_scale
I0910 10:46:11.902393  7468 net.cpp:100] Creating Layer reshg1_low2_bn_scale
I0910 10:46:11.902396  7468 net.cpp:434] reshg1_low2_bn_scale <- reshg1_low2_bn
I0910 10:46:11.902400  7468 net.cpp:395] reshg1_low2_bn_scale -> reshg1_low2_bn (in-place)
I0910 10:46:11.902935  7468 net.cpp:150] Setting up reshg1_low2_bn_scale
I0910 10:46:11.902945  7468 net.cpp:157] Top shape: 1 256 32 32 (262144)
I0910 10:46:11.902947  7468 net.cpp:165] Memory required for data: 393740288
I0910 10:46:11.902952  7468 layer_factory.hpp:77] Creating layer reshg1_low2_bn_scale_relu
I0910 10:46:11.902958  7468 net.cpp:100] Creating Layer reshg1_low2_bn_scale_relu
I0910 10:46:11.902962  7468 net.cpp:434] reshg1_low2_bn_scale_relu <- reshg1_low2_bn
I0910 10:46:11.902966  7468 net.cpp:395] reshg1_low2_bn_scale_relu -> reshg1_low2_bn (in-place)
I0910 10:46:11.902971  7468 net.cpp:150] Setting up reshg1_low2_bn_scale_relu
I0910 10:46:11.902974  7468 net.cpp:157] Top shape: 1 256 32 32 (262144)
I0910 10:46:11.902976  7468 net.cpp:165] Memory required for data: 394788864
I0910 10:46:11.902978  7468 layer_factory.hpp:77] Creating layer reshg1_low5_branch2a
I0910 10:46:11.902987  7468 net.cpp:100] Creating Layer reshg1_low5_branch2a
I0910 10:46:11.902989  7468 net.cpp:434] reshg1_low5_branch2a <- reshg1_low2_bn
I0910 10:46:11.902994  7468 net.cpp:408] reshg1_low5_branch2a -> reshg1_low5_branch2a
I0910 10:46:11.903447  7468 net.cpp:150] Setting up reshg1_low5_branch2a
I0910 10:46:11.903453  7468 net.cpp:157] Top shape: 1 128 32 32 (131072)
I0910 10:46:11.903456  7468 net.cpp:165] Memory required for data: 395313152
I0910 10:46:11.903461  7468 layer_factory.hpp:77] Creating layer bnhg1_low5_branch2a
I0910 10:46:11.903467  7468 net.cpp:100] Creating Layer bnhg1_low5_branch2a
I0910 10:46:11.903478  7468 net.cpp:434] bnhg1_low5_branch2a <- reshg1_low5_branch2a
I0910 10:46:11.903484  7468 net.cpp:395] bnhg1_low5_branch2a -> reshg1_low5_branch2a (in-place)
I0910 10:46:11.903626  7468 net.cpp:150] Setting up bnhg1_low5_branch2a
I0910 10:46:11.903632  7468 net.cpp:157] Top shape: 1 128 32 32 (131072)
I0910 10:46:11.903635  7468 net.cpp:165] Memory required for data: 395837440
I0910 10:46:11.903640  7468 layer_factory.hpp:77] Creating layer scalehg1_low5_branch2a
I0910 10:46:11.903645  7468 net.cpp:100] Creating Layer scalehg1_low5_branch2a
I0910 10:46:11.903647  7468 net.cpp:434] scalehg1_low5_branch2a <- reshg1_low5_branch2a
I0910 10:46:11.903651  7468 net.cpp:395] scalehg1_low5_branch2a -> reshg1_low5_branch2a (in-place)
I0910 10:46:11.904117  7468 net.cpp:150] Setting up scalehg1_low5_branch2a
I0910 10:46:11.904127  7468 net.cpp:157] Top shape: 1 128 32 32 (131072)
I0910 10:46:11.904130  7468 net.cpp:165] Memory required for data: 396361728
I0910 10:46:11.904135  7468 layer_factory.hpp:77] Creating layer reshg1_low5_branch2a_relu
I0910 10:46:11.904142  7468 net.cpp:100] Creating Layer reshg1_low5_branch2a_relu
I0910 10:46:11.904146  7468 net.cpp:434] reshg1_low5_branch2a_relu <- reshg1_low5_branch2a
I0910 10:46:11.904150  7468 net.cpp:395] reshg1_low5_branch2a_relu -> reshg1_low5_branch2a (in-place)
I0910 10:46:11.904155  7468 net.cpp:150] Setting up reshg1_low5_branch2a_relu
I0910 10:46:11.904158  7468 net.cpp:157] Top shape: 1 128 32 32 (131072)
I0910 10:46:11.904160  7468 net.cpp:165] Memory required for data: 396886016
I0910 10:46:11.904162  7468 layer_factory.hpp:77] Creating layer reshg1_low5_branch2b
I0910 10:46:11.904170  7468 net.cpp:100] Creating Layer reshg1_low5_branch2b
I0910 10:46:11.904173  7468 net.cpp:434] reshg1_low5_branch2b <- reshg1_low5_branch2a
I0910 10:46:11.904178  7468 net.cpp:408] reshg1_low5_branch2b -> reshg1_low5_branch2b
I0910 10:46:11.905910  7468 net.cpp:150] Setting up reshg1_low5_branch2b
I0910 10:46:11.905921  7468 net.cpp:157] Top shape: 1 128 32 32 (131072)
I0910 10:46:11.905925  7468 net.cpp:165] Memory required for data: 397410304
I0910 10:46:11.905930  7468 layer_factory.hpp:77] Creating layer bnhg1_low5_branch2b
I0910 10:46:11.905936  7468 net.cpp:100] Creating Layer bnhg1_low5_branch2b
I0910 10:46:11.905941  7468 net.cpp:434] bnhg1_low5_branch2b <- reshg1_low5_branch2b
I0910 10:46:11.905946  7468 net.cpp:395] bnhg1_low5_branch2b -> reshg1_low5_branch2b (in-place)
I0910 10:46:11.906090  7468 net.cpp:150] Setting up bnhg1_low5_branch2b
I0910 10:46:11.906096  7468 net.cpp:157] Top shape: 1 128 32 32 (131072)
I0910 10:46:11.906098  7468 net.cpp:165] Memory required for data: 397934592
I0910 10:46:11.906105  7468 layer_factory.hpp:77] Creating layer scalehg1_low5_branch2b
I0910 10:46:11.906110  7468 net.cpp:100] Creating Layer scalehg1_low5_branch2b
I0910 10:46:11.906112  7468 net.cpp:434] scalehg1_low5_branch2b <- reshg1_low5_branch2b
I0910 10:46:11.906116  7468 net.cpp:395] scalehg1_low5_branch2b -> reshg1_low5_branch2b (in-place)
I0910 10:46:11.906273  7468 net.cpp:150] Setting up scalehg1_low5_branch2b
I0910 10:46:11.906280  7468 net.cpp:157] Top shape: 1 128 32 32 (131072)
I0910 10:46:11.906283  7468 net.cpp:165] Memory required for data: 398458880
I0910 10:46:11.906287  7468 layer_factory.hpp:77] Creating layer reshg1_low5_branch2b_relu
I0910 10:46:11.906293  7468 net.cpp:100] Creating Layer reshg1_low5_branch2b_relu
I0910 10:46:11.906296  7468 net.cpp:434] reshg1_low5_branch2b_relu <- reshg1_low5_branch2b
I0910 10:46:11.906299  7468 net.cpp:395] reshg1_low5_branch2b_relu -> reshg1_low5_branch2b (in-place)
I0910 10:46:11.906304  7468 net.cpp:150] Setting up reshg1_low5_branch2b_relu
I0910 10:46:11.906308  7468 net.cpp:157] Top shape: 1 128 32 32 (131072)
I0910 10:46:11.906311  7468 net.cpp:165] Memory required for data: 398983168
I0910 10:46:11.906312  7468 layer_factory.hpp:77] Creating layer reshg1_low5_branch2c
I0910 10:46:11.906319  7468 net.cpp:100] Creating Layer reshg1_low5_branch2c
I0910 10:46:11.906323  7468 net.cpp:434] reshg1_low5_branch2c <- reshg1_low5_branch2b
I0910 10:46:11.906337  7468 net.cpp:408] reshg1_low5_branch2c -> reshg1_low5_branch2c
I0910 10:46:11.906980  7468 net.cpp:150] Setting up reshg1_low5_branch2c
I0910 10:46:11.906990  7468 net.cpp:157] Top shape: 1 256 32 32 (262144)
I0910 10:46:11.906993  7468 net.cpp:165] Memory required for data: 400031744
I0910 10:46:11.906997  7468 layer_factory.hpp:77] Creating layer reshg1_low5
I0910 10:46:11.907003  7468 net.cpp:100] Creating Layer reshg1_low5
I0910 10:46:11.907007  7468 net.cpp:434] reshg1_low5 <- reshg1_low2_reshg1_low2_0_split_1
I0910 10:46:11.907011  7468 net.cpp:434] reshg1_low5 <- reshg1_low5_branch2c
I0910 10:46:11.907016  7468 net.cpp:408] reshg1_low5 -> reshg1_low5
I0910 10:46:11.907035  7468 net.cpp:150] Setting up reshg1_low5
I0910 10:46:11.907040  7468 net.cpp:157] Top shape: 1 256 32 32 (262144)
I0910 10:46:11.907042  7468 net.cpp:165] Memory required for data: 401080320
I0910 10:46:11.907045  7468 layer_factory.hpp:77] Creating layer reshg1_low5_reshg1_low5_0_split
I0910 10:46:11.907052  7468 net.cpp:100] Creating Layer reshg1_low5_reshg1_low5_0_split
I0910 10:46:11.907055  7468 net.cpp:434] reshg1_low5_reshg1_low5_0_split <- reshg1_low5
I0910 10:46:11.907059  7468 net.cpp:408] reshg1_low5_reshg1_low5_0_split -> reshg1_low5_reshg1_low5_0_split_0
I0910 10:46:11.907065  7468 net.cpp:408] reshg1_low5_reshg1_low5_0_split -> reshg1_low5_reshg1_low5_0_split_1
I0910 10:46:11.907071  7468 net.cpp:408] reshg1_low5_reshg1_low5_0_split -> reshg1_low5_reshg1_low5_0_split_2
I0910 10:46:11.907107  7468 net.cpp:150] Setting up reshg1_low5_reshg1_low5_0_split
I0910 10:46:11.907111  7468 net.cpp:157] Top shape: 1 256 32 32 (262144)
I0910 10:46:11.907114  7468 net.cpp:157] Top shape: 1 256 32 32 (262144)
I0910 10:46:11.907119  7468 net.cpp:157] Top shape: 1 256 32 32 (262144)
I0910 10:46:11.907120  7468 net.cpp:165] Memory required for data: 404226048
I0910 10:46:11.907122  7468 layer_factory.hpp:77] Creating layer reshg1_low5_bn
I0910 10:46:11.907130  7468 net.cpp:100] Creating Layer reshg1_low5_bn
I0910 10:46:11.907133  7468 net.cpp:434] reshg1_low5_bn <- reshg1_low5_reshg1_low5_0_split_0
I0910 10:46:11.907136  7468 net.cpp:408] reshg1_low5_bn -> reshg1_low5_bn
I0910 10:46:11.907284  7468 net.cpp:150] Setting up reshg1_low5_bn
I0910 10:46:11.907289  7468 net.cpp:157] Top shape: 1 256 32 32 (262144)
I0910 10:46:11.907292  7468 net.cpp:165] Memory required for data: 405274624
I0910 10:46:11.907297  7468 layer_factory.hpp:77] Creating layer reshg1_low5_bn_scale
I0910 10:46:11.907302  7468 net.cpp:100] Creating Layer reshg1_low5_bn_scale
I0910 10:46:11.907305  7468 net.cpp:434] reshg1_low5_bn_scale <- reshg1_low5_bn
I0910 10:46:11.907308  7468 net.cpp:395] reshg1_low5_bn_scale -> reshg1_low5_bn (in-place)
I0910 10:46:11.907838  7468 net.cpp:150] Setting up reshg1_low5_bn_scale
I0910 10:46:11.907847  7468 net.cpp:157] Top shape: 1 256 32 32 (262144)
I0910 10:46:11.907851  7468 net.cpp:165] Memory required for data: 406323200
I0910 10:46:11.907856  7468 layer_factory.hpp:77] Creating layer reshg1_low5_bn_scale_relu
I0910 10:46:11.907862  7468 net.cpp:100] Creating Layer reshg1_low5_bn_scale_relu
I0910 10:46:11.907866  7468 net.cpp:434] reshg1_low5_bn_scale_relu <- reshg1_low5_bn
I0910 10:46:11.907871  7468 net.cpp:395] reshg1_low5_bn_scale_relu -> reshg1_low5_bn (in-place)
I0910 10:46:11.907877  7468 net.cpp:150] Setting up reshg1_low5_bn_scale_relu
I0910 10:46:11.907881  7468 net.cpp:157] Top shape: 1 256 32 32 (262144)
I0910 10:46:11.907883  7468 net.cpp:165] Memory required for data: 407371776
I0910 10:46:11.907886  7468 layer_factory.hpp:77] Creating layer reshg1_low6_up1_branch2a
I0910 10:46:11.907892  7468 net.cpp:100] Creating Layer reshg1_low6_up1_branch2a
I0910 10:46:11.907896  7468 net.cpp:434] reshg1_low6_up1_branch2a <- reshg1_low5_bn
I0910 10:46:11.907901  7468 net.cpp:408] reshg1_low6_up1_branch2a -> reshg1_low6_up1_branch2a
I0910 10:46:11.908354  7468 net.cpp:150] Setting up reshg1_low6_up1_branch2a
I0910 10:46:11.908360  7468 net.cpp:157] Top shape: 1 128 32 32 (131072)
I0910 10:46:11.908363  7468 net.cpp:165] Memory required for data: 407896064
I0910 10:46:11.908376  7468 layer_factory.hpp:77] Creating layer bnhg1_low6_up1_branch2a
I0910 10:46:11.908382  7468 net.cpp:100] Creating Layer bnhg1_low6_up1_branch2a
I0910 10:46:11.908386  7468 net.cpp:434] bnhg1_low6_up1_branch2a <- reshg1_low6_up1_branch2a
I0910 10:46:11.908391  7468 net.cpp:395] bnhg1_low6_up1_branch2a -> reshg1_low6_up1_branch2a (in-place)
I0910 10:46:11.908535  7468 net.cpp:150] Setting up bnhg1_low6_up1_branch2a
I0910 10:46:11.908541  7468 net.cpp:157] Top shape: 1 128 32 32 (131072)
I0910 10:46:11.908543  7468 net.cpp:165] Memory required for data: 408420352
I0910 10:46:11.908548  7468 layer_factory.hpp:77] Creating layer scalehg1_low6_up1_branch2a
I0910 10:46:11.908553  7468 net.cpp:100] Creating Layer scalehg1_low6_up1_branch2a
I0910 10:46:11.908557  7468 net.cpp:434] scalehg1_low6_up1_branch2a <- reshg1_low6_up1_branch2a
I0910 10:46:11.908560  7468 net.cpp:395] scalehg1_low6_up1_branch2a -> reshg1_low6_up1_branch2a (in-place)
I0910 10:46:11.909029  7468 net.cpp:150] Setting up scalehg1_low6_up1_branch2a
I0910 10:46:11.909037  7468 net.cpp:157] Top shape: 1 128 32 32 (131072)
I0910 10:46:11.909040  7468 net.cpp:165] Memory required for data: 408944640
I0910 10:46:11.909044  7468 layer_factory.hpp:77] Creating layer reshg1_low6_up1_branch2a_relu
I0910 10:46:11.909050  7468 net.cpp:100] Creating Layer reshg1_low6_up1_branch2a_relu
I0910 10:46:11.909054  7468 net.cpp:434] reshg1_low6_up1_branch2a_relu <- reshg1_low6_up1_branch2a
I0910 10:46:11.909057  7468 net.cpp:395] reshg1_low6_up1_branch2a_relu -> reshg1_low6_up1_branch2a (in-place)
I0910 10:46:11.909063  7468 net.cpp:150] Setting up reshg1_low6_up1_branch2a_relu
I0910 10:46:11.909067  7468 net.cpp:157] Top shape: 1 128 32 32 (131072)
I0910 10:46:11.909070  7468 net.cpp:165] Memory required for data: 409468928
I0910 10:46:11.909071  7468 layer_factory.hpp:77] Creating layer reshg1_low6_up1_branch2b
I0910 10:46:11.909080  7468 net.cpp:100] Creating Layer reshg1_low6_up1_branch2b
I0910 10:46:11.909083  7468 net.cpp:434] reshg1_low6_up1_branch2b <- reshg1_low6_up1_branch2a
I0910 10:46:11.909088  7468 net.cpp:408] reshg1_low6_up1_branch2b -> reshg1_low6_up1_branch2b
I0910 10:46:11.910815  7468 net.cpp:150] Setting up reshg1_low6_up1_branch2b
I0910 10:46:11.910825  7468 net.cpp:157] Top shape: 1 128 32 32 (131072)
I0910 10:46:11.910827  7468 net.cpp:165] Memory required for data: 409993216
I0910 10:46:11.910832  7468 layer_factory.hpp:77] Creating layer bnhg1_low6_up1_branch2b
I0910 10:46:11.910841  7468 net.cpp:100] Creating Layer bnhg1_low6_up1_branch2b
I0910 10:46:11.910845  7468 net.cpp:434] bnhg1_low6_up1_branch2b <- reshg1_low6_up1_branch2b
I0910 10:46:11.910851  7468 net.cpp:395] bnhg1_low6_up1_branch2b -> reshg1_low6_up1_branch2b (in-place)
I0910 10:46:11.910998  7468 net.cpp:150] Setting up bnhg1_low6_up1_branch2b
I0910 10:46:11.911005  7468 net.cpp:157] Top shape: 1 128 32 32 (131072)
I0910 10:46:11.911006  7468 net.cpp:165] Memory required for data: 410517504
I0910 10:46:11.911012  7468 layer_factory.hpp:77] Creating layer scalehg1_low6_up1_branch2b
I0910 10:46:11.911017  7468 net.cpp:100] Creating Layer scalehg1_low6_up1_branch2b
I0910 10:46:11.911020  7468 net.cpp:434] scalehg1_low6_up1_branch2b <- reshg1_low6_up1_branch2b
I0910 10:46:11.911025  7468 net.cpp:395] scalehg1_low6_up1_branch2b -> reshg1_low6_up1_branch2b (in-place)
I0910 10:46:11.911185  7468 net.cpp:150] Setting up scalehg1_low6_up1_branch2b
I0910 10:46:11.911191  7468 net.cpp:157] Top shape: 1 128 32 32 (131072)
I0910 10:46:11.911193  7468 net.cpp:165] Memory required for data: 411041792
I0910 10:46:11.911197  7468 layer_factory.hpp:77] Creating layer reshg1_low6_up1_branch2b_relu
I0910 10:46:11.911203  7468 net.cpp:100] Creating Layer reshg1_low6_up1_branch2b_relu
I0910 10:46:11.911206  7468 net.cpp:434] reshg1_low6_up1_branch2b_relu <- reshg1_low6_up1_branch2b
I0910 10:46:11.911211  7468 net.cpp:395] reshg1_low6_up1_branch2b_relu -> reshg1_low6_up1_branch2b (in-place)
I0910 10:46:11.911214  7468 net.cpp:150] Setting up reshg1_low6_up1_branch2b_relu
I0910 10:46:11.911227  7468 net.cpp:157] Top shape: 1 128 32 32 (131072)
I0910 10:46:11.911231  7468 net.cpp:165] Memory required for data: 411566080
I0910 10:46:11.911232  7468 layer_factory.hpp:77] Creating layer reshg1_low6_up1_branch2c
I0910 10:46:11.911240  7468 net.cpp:100] Creating Layer reshg1_low6_up1_branch2c
I0910 10:46:11.911243  7468 net.cpp:434] reshg1_low6_up1_branch2c <- reshg1_low6_up1_branch2b
I0910 10:46:11.911249  7468 net.cpp:408] reshg1_low6_up1_branch2c -> reshg1_low6_up1_branch2c
I0910 10:46:11.911586  7468 net.cpp:150] Setting up reshg1_low6_up1_branch2c
I0910 10:46:11.911592  7468 net.cpp:157] Top shape: 1 256 32 32 (262144)
I0910 10:46:11.911594  7468 net.cpp:165] Memory required for data: 412614656
I0910 10:46:11.911599  7468 layer_factory.hpp:77] Creating layer reshg1_low6_up1
I0910 10:46:11.911604  7468 net.cpp:100] Creating Layer reshg1_low6_up1
I0910 10:46:11.911608  7468 net.cpp:434] reshg1_low6_up1 <- reshg1_low5_reshg1_low5_0_split_1
I0910 10:46:11.911612  7468 net.cpp:434] reshg1_low6_up1 <- reshg1_low6_up1_branch2c
I0910 10:46:11.911617  7468 net.cpp:408] reshg1_low6_up1 -> reshg1_low6_up1
I0910 10:46:11.911636  7468 net.cpp:150] Setting up reshg1_low6_up1
I0910 10:46:11.911641  7468 net.cpp:157] Top shape: 1 256 32 32 (262144)
I0910 10:46:11.911643  7468 net.cpp:165] Memory required for data: 413663232
I0910 10:46:11.911645  7468 layer_factory.hpp:77] Creating layer reshg1_low6_up1_reshg1_low6_up1_0_split
I0910 10:46:11.911651  7468 net.cpp:100] Creating Layer reshg1_low6_up1_reshg1_low6_up1_0_split
I0910 10:46:11.911655  7468 net.cpp:434] reshg1_low6_up1_reshg1_low6_up1_0_split <- reshg1_low6_up1
I0910 10:46:11.911660  7468 net.cpp:408] reshg1_low6_up1_reshg1_low6_up1_0_split -> reshg1_low6_up1_reshg1_low6_up1_0_split_0
I0910 10:46:11.911666  7468 net.cpp:408] reshg1_low6_up1_reshg1_low6_up1_0_split -> reshg1_low6_up1_reshg1_low6_up1_0_split_1
I0910 10:46:11.911695  7468 net.cpp:150] Setting up reshg1_low6_up1_reshg1_low6_up1_0_split
I0910 10:46:11.911700  7468 net.cpp:157] Top shape: 1 256 32 32 (262144)
I0910 10:46:11.911702  7468 net.cpp:157] Top shape: 1 256 32 32 (262144)
I0910 10:46:11.911705  7468 net.cpp:165] Memory required for data: 415760384
I0910 10:46:11.911706  7468 layer_factory.hpp:77] Creating layer reshg1_low6_up1_bn
I0910 10:46:11.911712  7468 net.cpp:100] Creating Layer reshg1_low6_up1_bn
I0910 10:46:11.911715  7468 net.cpp:434] reshg1_low6_up1_bn <- reshg1_low6_up1_reshg1_low6_up1_0_split_0
I0910 10:46:11.911720  7468 net.cpp:408] reshg1_low6_up1_bn -> reshg1_low6_up1_bn
I0910 10:46:11.911869  7468 net.cpp:150] Setting up reshg1_low6_up1_bn
I0910 10:46:11.911875  7468 net.cpp:157] Top shape: 1 256 32 32 (262144)
I0910 10:46:11.911876  7468 net.cpp:165] Memory required for data: 416808960
I0910 10:46:11.911881  7468 layer_factory.hpp:77] Creating layer reshg1_low6_up1_bn_scale
I0910 10:46:11.911886  7468 net.cpp:100] Creating Layer reshg1_low6_up1_bn_scale
I0910 10:46:11.911890  7468 net.cpp:434] reshg1_low6_up1_bn_scale <- reshg1_low6_up1_bn
I0910 10:46:11.911893  7468 net.cpp:395] reshg1_low6_up1_bn_scale -> reshg1_low6_up1_bn (in-place)
I0910 10:46:11.912478  7468 net.cpp:150] Setting up reshg1_low6_up1_bn_scale
I0910 10:46:11.912489  7468 net.cpp:157] Top shape: 1 256 32 32 (262144)
I0910 10:46:11.912492  7468 net.cpp:165] Memory required for data: 417857536
I0910 10:46:11.912497  7468 layer_factory.hpp:77] Creating layer reshg1_low6_up1_bn_scale_relu
I0910 10:46:11.912503  7468 net.cpp:100] Creating Layer reshg1_low6_up1_bn_scale_relu
I0910 10:46:11.912508  7468 net.cpp:434] reshg1_low6_up1_bn_scale_relu <- reshg1_low6_up1_bn
I0910 10:46:11.912511  7468 net.cpp:395] reshg1_low6_up1_bn_scale_relu -> reshg1_low6_up1_bn (in-place)
I0910 10:46:11.912518  7468 net.cpp:150] Setting up reshg1_low6_up1_bn_scale_relu
I0910 10:46:11.912521  7468 net.cpp:157] Top shape: 1 256 32 32 (262144)
I0910 10:46:11.912524  7468 net.cpp:165] Memory required for data: 418906112
I0910 10:46:11.912526  7468 layer_factory.hpp:77] Creating layer reshg1_low6_up2_branch2a
I0910 10:46:11.912544  7468 net.cpp:100] Creating Layer reshg1_low6_up2_branch2a
I0910 10:46:11.912549  7468 net.cpp:434] reshg1_low6_up2_branch2a <- reshg1_low6_up1_bn
I0910 10:46:11.912552  7468 net.cpp:408] reshg1_low6_up2_branch2a -> reshg1_low6_up2_branch2a
I0910 10:46:11.913022  7468 net.cpp:150] Setting up reshg1_low6_up2_branch2a
I0910 10:46:11.913028  7468 net.cpp:157] Top shape: 1 128 32 32 (131072)
I0910 10:46:11.913030  7468 net.cpp:165] Memory required for data: 419430400
I0910 10:46:11.913034  7468 layer_factory.hpp:77] Creating layer bnhg1_low6_up2_branch2a
I0910 10:46:11.913040  7468 net.cpp:100] Creating Layer bnhg1_low6_up2_branch2a
I0910 10:46:11.913044  7468 net.cpp:434] bnhg1_low6_up2_branch2a <- reshg1_low6_up2_branch2a
I0910 10:46:11.913049  7468 net.cpp:395] bnhg1_low6_up2_branch2a -> reshg1_low6_up2_branch2a (in-place)
I0910 10:46:11.913194  7468 net.cpp:150] Setting up bnhg1_low6_up2_branch2a
I0910 10:46:11.913199  7468 net.cpp:157] Top shape: 1 128 32 32 (131072)
I0910 10:46:11.913203  7468 net.cpp:165] Memory required for data: 419954688
I0910 10:46:11.913208  7468 layer_factory.hpp:77] Creating layer scalehg1_low6_up2_branch2a
I0910 10:46:11.913213  7468 net.cpp:100] Creating Layer scalehg1_low6_up2_branch2a
I0910 10:46:11.913216  7468 net.cpp:434] scalehg1_low6_up2_branch2a <- reshg1_low6_up2_branch2a
I0910 10:46:11.913221  7468 net.cpp:395] scalehg1_low6_up2_branch2a -> reshg1_low6_up2_branch2a (in-place)
I0910 10:46:11.913702  7468 net.cpp:150] Setting up scalehg1_low6_up2_branch2a
I0910 10:46:11.913712  7468 net.cpp:157] Top shape: 1 128 32 32 (131072)
I0910 10:46:11.913715  7468 net.cpp:165] Memory required for data: 420478976
I0910 10:46:11.913720  7468 layer_factory.hpp:77] Creating layer reshg1_low6_up2_branch2a_relu
I0910 10:46:11.913727  7468 net.cpp:100] Creating Layer reshg1_low6_up2_branch2a_relu
I0910 10:46:11.913729  7468 net.cpp:434] reshg1_low6_up2_branch2a_relu <- reshg1_low6_up2_branch2a
I0910 10:46:11.913735  7468 net.cpp:395] reshg1_low6_up2_branch2a_relu -> reshg1_low6_up2_branch2a (in-place)
I0910 10:46:11.913741  7468 net.cpp:150] Setting up reshg1_low6_up2_branch2a_relu
I0910 10:46:11.913745  7468 net.cpp:157] Top shape: 1 128 32 32 (131072)
I0910 10:46:11.913748  7468 net.cpp:165] Memory required for data: 421003264
I0910 10:46:11.913750  7468 layer_factory.hpp:77] Creating layer reshg1_low6_up2_branch2b
I0910 10:46:11.913758  7468 net.cpp:100] Creating Layer reshg1_low6_up2_branch2b
I0910 10:46:11.913761  7468 net.cpp:434] reshg1_low6_up2_branch2b <- reshg1_low6_up2_branch2a
I0910 10:46:11.913766  7468 net.cpp:408] reshg1_low6_up2_branch2b -> reshg1_low6_up2_branch2b
I0910 10:46:11.915563  7468 net.cpp:150] Setting up reshg1_low6_up2_branch2b
I0910 10:46:11.915575  7468 net.cpp:157] Top shape: 1 128 32 32 (131072)
I0910 10:46:11.915576  7468 net.cpp:165] Memory required for data: 421527552
I0910 10:46:11.915604  7468 layer_factory.hpp:77] Creating layer bnhg1_low6_up2_branch2b
I0910 10:46:11.915611  7468 net.cpp:100] Creating Layer bnhg1_low6_up2_branch2b
I0910 10:46:11.915616  7468 net.cpp:434] bnhg1_low6_up2_branch2b <- reshg1_low6_up2_branch2b
I0910 10:46:11.915621  7468 net.cpp:395] bnhg1_low6_up2_branch2b -> reshg1_low6_up2_branch2b (in-place)
I0910 10:46:11.915772  7468 net.cpp:150] Setting up bnhg1_low6_up2_branch2b
I0910 10:46:11.915778  7468 net.cpp:157] Top shape: 1 128 32 32 (131072)
I0910 10:46:11.915781  7468 net.cpp:165] Memory required for data: 422051840
I0910 10:46:11.915786  7468 layer_factory.hpp:77] Creating layer scalehg1_low6_up2_branch2b
I0910 10:46:11.915792  7468 net.cpp:100] Creating Layer scalehg1_low6_up2_branch2b
I0910 10:46:11.915796  7468 net.cpp:434] scalehg1_low6_up2_branch2b <- reshg1_low6_up2_branch2b
I0910 10:46:11.915799  7468 net.cpp:395] scalehg1_low6_up2_branch2b -> reshg1_low6_up2_branch2b (in-place)
I0910 10:46:11.915963  7468 net.cpp:150] Setting up scalehg1_low6_up2_branch2b
I0910 10:46:11.915971  7468 net.cpp:157] Top shape: 1 128 32 32 (131072)
I0910 10:46:11.915973  7468 net.cpp:165] Memory required for data: 422576128
I0910 10:46:11.915988  7468 layer_factory.hpp:77] Creating layer reshg1_low6_up2_branch2b_relu
I0910 10:46:11.915995  7468 net.cpp:100] Creating Layer reshg1_low6_up2_branch2b_relu
I0910 10:46:11.915998  7468 net.cpp:434] reshg1_low6_up2_branch2b_relu <- reshg1_low6_up2_branch2b
I0910 10:46:11.916002  7468 net.cpp:395] reshg1_low6_up2_branch2b_relu -> reshg1_low6_up2_branch2b (in-place)
I0910 10:46:11.916007  7468 net.cpp:150] Setting up reshg1_low6_up2_branch2b_relu
I0910 10:46:11.916012  7468 net.cpp:157] Top shape: 1 128 32 32 (131072)
I0910 10:46:11.916013  7468 net.cpp:165] Memory required for data: 423100416
I0910 10:46:11.916016  7468 layer_factory.hpp:77] Creating layer reshg1_low6_up2_branch2c
I0910 10:46:11.916024  7468 net.cpp:100] Creating Layer reshg1_low6_up2_branch2c
I0910 10:46:11.916028  7468 net.cpp:434] reshg1_low6_up2_branch2c <- reshg1_low6_up2_branch2b
I0910 10:46:11.916033  7468 net.cpp:408] reshg1_low6_up2_branch2c -> reshg1_low6_up2_branch2c
I0910 10:46:11.916368  7468 net.cpp:150] Setting up reshg1_low6_up2_branch2c
I0910 10:46:11.916374  7468 net.cpp:157] Top shape: 1 256 32 32 (262144)
I0910 10:46:11.916378  7468 net.cpp:165] Memory required for data: 424148992
I0910 10:46:11.916381  7468 layer_factory.hpp:77] Creating layer reshg1_low6_up2
I0910 10:46:11.916388  7468 net.cpp:100] Creating Layer reshg1_low6_up2
I0910 10:46:11.916393  7468 net.cpp:434] reshg1_low6_up2 <- reshg1_low6_up1_reshg1_low6_up1_0_split_1
I0910 10:46:11.916395  7468 net.cpp:434] reshg1_low6_up2 <- reshg1_low6_up2_branch2c
I0910 10:46:11.916399  7468 net.cpp:408] reshg1_low6_up2 -> reshg1_low6_up2
I0910 10:46:11.916420  7468 net.cpp:150] Setting up reshg1_low6_up2
I0910 10:46:11.916425  7468 net.cpp:157] Top shape: 1 256 32 32 (262144)
I0910 10:46:11.916427  7468 net.cpp:165] Memory required for data: 425197568
I0910 10:46:11.916430  7468 layer_factory.hpp:77] Creating layer reshg1_low6_up2_reshg1_low6_up2_0_split
I0910 10:46:11.916435  7468 net.cpp:100] Creating Layer reshg1_low6_up2_reshg1_low6_up2_0_split
I0910 10:46:11.916438  7468 net.cpp:434] reshg1_low6_up2_reshg1_low6_up2_0_split <- reshg1_low6_up2
I0910 10:46:11.916445  7468 net.cpp:408] reshg1_low6_up2_reshg1_low6_up2_0_split -> reshg1_low6_up2_reshg1_low6_up2_0_split_0
I0910 10:46:11.916450  7468 net.cpp:408] reshg1_low6_up2_reshg1_low6_up2_0_split -> reshg1_low6_up2_reshg1_low6_up2_0_split_1
I0910 10:46:11.916478  7468 net.cpp:150] Setting up reshg1_low6_up2_reshg1_low6_up2_0_split
I0910 10:46:11.916483  7468 net.cpp:157] Top shape: 1 256 32 32 (262144)
I0910 10:46:11.916487  7468 net.cpp:157] Top shape: 1 256 32 32 (262144)
I0910 10:46:11.916489  7468 net.cpp:165] Memory required for data: 427294720
I0910 10:46:11.916492  7468 layer_factory.hpp:77] Creating layer reshg1_low6_up4_branch1
I0910 10:46:11.916501  7468 net.cpp:100] Creating Layer reshg1_low6_up4_branch1
I0910 10:46:11.916503  7468 net.cpp:434] reshg1_low6_up4_branch1 <- reshg1_low6_up2_reshg1_low6_up2_0_split_0
I0910 10:46:11.916508  7468 net.cpp:408] reshg1_low6_up4_branch1 -> reshg1_low6_up4_branch1
I0910 10:46:11.917632  7468 net.cpp:150] Setting up reshg1_low6_up4_branch1
I0910 10:46:11.917642  7468 net.cpp:157] Top shape: 1 512 32 32 (524288)
I0910 10:46:11.917645  7468 net.cpp:165] Memory required for data: 429391872
I0910 10:46:11.917650  7468 layer_factory.hpp:77] Creating layer reshg1_low6_up2_bn
I0910 10:46:11.917659  7468 net.cpp:100] Creating Layer reshg1_low6_up2_bn
I0910 10:46:11.917662  7468 net.cpp:434] reshg1_low6_up2_bn <- reshg1_low6_up2_reshg1_low6_up2_0_split_1
I0910 10:46:11.917668  7468 net.cpp:408] reshg1_low6_up2_bn -> reshg1_low6_up2_bn
I0910 10:46:11.917850  7468 net.cpp:150] Setting up reshg1_low6_up2_bn
I0910 10:46:11.917857  7468 net.cpp:157] Top shape: 1 256 32 32 (262144)
I0910 10:46:11.917860  7468 net.cpp:165] Memory required for data: 430440448
I0910 10:46:11.917865  7468 layer_factory.hpp:77] Creating layer reshg1_low6_up2_bn_scale
I0910 10:46:11.917871  7468 net.cpp:100] Creating Layer reshg1_low6_up2_bn_scale
I0910 10:46:11.917876  7468 net.cpp:434] reshg1_low6_up2_bn_scale <- reshg1_low6_up2_bn
I0910 10:46:11.917889  7468 net.cpp:395] reshg1_low6_up2_bn_scale -> reshg1_low6_up2_bn (in-place)
I0910 10:46:11.918431  7468 net.cpp:150] Setting up reshg1_low6_up2_bn_scale
I0910 10:46:11.918442  7468 net.cpp:157] Top shape: 1 256 32 32 (262144)
I0910 10:46:11.918444  7468 net.cpp:165] Memory required for data: 431489024
I0910 10:46:11.918449  7468 layer_factory.hpp:77] Creating layer reshg1_low6_up2_bn_scale_relu
I0910 10:46:11.918455  7468 net.cpp:100] Creating Layer reshg1_low6_up2_bn_scale_relu
I0910 10:46:11.918458  7468 net.cpp:434] reshg1_low6_up2_bn_scale_relu <- reshg1_low6_up2_bn
I0910 10:46:11.918463  7468 net.cpp:395] reshg1_low6_up2_bn_scale_relu -> reshg1_low6_up2_bn (in-place)
I0910 10:46:11.918469  7468 net.cpp:150] Setting up reshg1_low6_up2_bn_scale_relu
I0910 10:46:11.918473  7468 net.cpp:157] Top shape: 1 256 32 32 (262144)
I0910 10:46:11.918475  7468 net.cpp:165] Memory required for data: 432537600
I0910 10:46:11.918478  7468 layer_factory.hpp:77] Creating layer reshg1_low6_up4_branch2a
I0910 10:46:11.918488  7468 net.cpp:100] Creating Layer reshg1_low6_up4_branch2a
I0910 10:46:11.918491  7468 net.cpp:434] reshg1_low6_up4_branch2a <- reshg1_low6_up2_bn
I0910 10:46:11.918495  7468 net.cpp:408] reshg1_low6_up4_branch2a -> reshg1_low6_up4_branch2a
I0910 10:46:11.919236  7468 net.cpp:150] Setting up reshg1_low6_up4_branch2a
I0910 10:46:11.919244  7468 net.cpp:157] Top shape: 1 256 32 32 (262144)
I0910 10:46:11.919246  7468 net.cpp:165] Memory required for data: 433586176
I0910 10:46:11.919251  7468 layer_factory.hpp:77] Creating layer bnhg1_low6_up4_branch2a
I0910 10:46:11.919258  7468 net.cpp:100] Creating Layer bnhg1_low6_up4_branch2a
I0910 10:46:11.919262  7468 net.cpp:434] bnhg1_low6_up4_branch2a <- reshg1_low6_up4_branch2a
I0910 10:46:11.919266  7468 net.cpp:395] bnhg1_low6_up4_branch2a -> reshg1_low6_up4_branch2a (in-place)
I0910 10:46:11.919414  7468 net.cpp:150] Setting up bnhg1_low6_up4_branch2a
I0910 10:46:11.919419  7468 net.cpp:157] Top shape: 1 256 32 32 (262144)
I0910 10:46:11.919421  7468 net.cpp:165] Memory required for data: 434634752
I0910 10:46:11.919426  7468 layer_factory.hpp:77] Creating layer scalehg1_low6_up4_branch2a
I0910 10:46:11.919432  7468 net.cpp:100] Creating Layer scalehg1_low6_up4_branch2a
I0910 10:46:11.919436  7468 net.cpp:434] scalehg1_low6_up4_branch2a <- reshg1_low6_up4_branch2a
I0910 10:46:11.919440  7468 net.cpp:395] scalehg1_low6_up4_branch2a -> reshg1_low6_up4_branch2a (in-place)
I0910 10:46:11.919970  7468 net.cpp:150] Setting up scalehg1_low6_up4_branch2a
I0910 10:46:11.919980  7468 net.cpp:157] Top shape: 1 256 32 32 (262144)
I0910 10:46:11.919982  7468 net.cpp:165] Memory required for data: 435683328
I0910 10:46:11.919987  7468 layer_factory.hpp:77] Creating layer reshg1_low6_up4_branch2a_relu
I0910 10:46:11.919993  7468 net.cpp:100] Creating Layer reshg1_low6_up4_branch2a_relu
I0910 10:46:11.919997  7468 net.cpp:434] reshg1_low6_up4_branch2a_relu <- reshg1_low6_up4_branch2a
I0910 10:46:11.920002  7468 net.cpp:395] reshg1_low6_up4_branch2a_relu -> reshg1_low6_up4_branch2a (in-place)
I0910 10:46:11.920007  7468 net.cpp:150] Setting up reshg1_low6_up4_branch2a_relu
I0910 10:46:11.920011  7468 net.cpp:157] Top shape: 1 256 32 32 (262144)
I0910 10:46:11.920014  7468 net.cpp:165] Memory required for data: 436731904
I0910 10:46:11.920017  7468 layer_factory.hpp:77] Creating layer reshg1_low6_up4_branch2b
I0910 10:46:11.920024  7468 net.cpp:100] Creating Layer reshg1_low6_up4_branch2b
I0910 10:46:11.920028  7468 net.cpp:434] reshg1_low6_up4_branch2b <- reshg1_low6_up4_branch2a
I0910 10:46:11.920033  7468 net.cpp:408] reshg1_low6_up4_branch2b -> reshg1_low6_up4_branch2b
I0910 10:46:11.926004  7468 net.cpp:150] Setting up reshg1_low6_up4_branch2b
I0910 10:46:11.926020  7468 net.cpp:157] Top shape: 1 256 32 32 (262144)
I0910 10:46:11.926023  7468 net.cpp:165] Memory required for data: 437780480
I0910 10:46:11.926029  7468 layer_factory.hpp:77] Creating layer bnhg1_low6_up4_branch2b
I0910 10:46:11.926038  7468 net.cpp:100] Creating Layer bnhg1_low6_up4_branch2b
I0910 10:46:11.926053  7468 net.cpp:434] bnhg1_low6_up4_branch2b <- reshg1_low6_up4_branch2b
I0910 10:46:11.926059  7468 net.cpp:395] bnhg1_low6_up4_branch2b -> reshg1_low6_up4_branch2b (in-place)
I0910 10:46:11.926210  7468 net.cpp:150] Setting up bnhg1_low6_up4_branch2b
I0910 10:46:11.926215  7468 net.cpp:157] Top shape: 1 256 32 32 (262144)
I0910 10:46:11.926218  7468 net.cpp:165] Memory required for data: 438829056
I0910 10:46:11.926223  7468 layer_factory.hpp:77] Creating layer scalehg1_low6_up4_branch2b
I0910 10:46:11.926229  7468 net.cpp:100] Creating Layer scalehg1_low6_up4_branch2b
I0910 10:46:11.926231  7468 net.cpp:434] scalehg1_low6_up4_branch2b <- reshg1_low6_up4_branch2b
I0910 10:46:11.926235  7468 net.cpp:395] scalehg1_low6_up4_branch2b -> reshg1_low6_up4_branch2b (in-place)
I0910 10:46:11.926791  7468 net.cpp:150] Setting up scalehg1_low6_up4_branch2b
I0910 10:46:11.926800  7468 net.cpp:157] Top shape: 1 256 32 32 (262144)
I0910 10:46:11.926803  7468 net.cpp:165] Memory required for data: 439877632
I0910 10:46:11.926807  7468 layer_factory.hpp:77] Creating layer reshg1_low6_up4_branch2b_relu
I0910 10:46:11.926812  7468 net.cpp:100] Creating Layer reshg1_low6_up4_branch2b_relu
I0910 10:46:11.926815  7468 net.cpp:434] reshg1_low6_up4_branch2b_relu <- reshg1_low6_up4_branch2b
I0910 10:46:11.926820  7468 net.cpp:395] reshg1_low6_up4_branch2b_relu -> reshg1_low6_up4_branch2b (in-place)
I0910 10:46:11.926826  7468 net.cpp:150] Setting up reshg1_low6_up4_branch2b_relu
I0910 10:46:11.926831  7468 net.cpp:157] Top shape: 1 256 32 32 (262144)
I0910 10:46:11.926832  7468 net.cpp:165] Memory required for data: 440926208
I0910 10:46:11.926834  7468 layer_factory.hpp:77] Creating layer reshg1_low6_up4_branch2c
I0910 10:46:11.926842  7468 net.cpp:100] Creating Layer reshg1_low6_up4_branch2c
I0910 10:46:11.926846  7468 net.cpp:434] reshg1_low6_up4_branch2c <- reshg1_low6_up4_branch2b
I0910 10:46:11.926851  7468 net.cpp:408] reshg1_low6_up4_branch2c -> reshg1_low6_up4_branch2c
I0910 10:46:11.927636  7468 net.cpp:150] Setting up reshg1_low6_up4_branch2c
I0910 10:46:11.927644  7468 net.cpp:157] Top shape: 1 512 32 32 (524288)
I0910 10:46:11.927646  7468 net.cpp:165] Memory required for data: 443023360
I0910 10:46:11.927650  7468 layer_factory.hpp:77] Creating layer reshg1_low6_up4
I0910 10:46:11.927656  7468 net.cpp:100] Creating Layer reshg1_low6_up4
I0910 10:46:11.927659  7468 net.cpp:434] reshg1_low6_up4 <- reshg1_low6_up4_branch1
I0910 10:46:11.927664  7468 net.cpp:434] reshg1_low6_up4 <- reshg1_low6_up4_branch2c
I0910 10:46:11.927667  7468 net.cpp:408] reshg1_low6_up4 -> reshg1_low6_up4
I0910 10:46:11.927688  7468 net.cpp:150] Setting up reshg1_low6_up4
I0910 10:46:11.927693  7468 net.cpp:157] Top shape: 1 512 32 32 (524288)
I0910 10:46:11.927696  7468 net.cpp:165] Memory required for data: 445120512
I0910 10:46:11.927698  7468 layer_factory.hpp:77] Creating layer hg1_low6_pool1
I0910 10:46:11.927706  7468 net.cpp:100] Creating Layer hg1_low6_pool1
I0910 10:46:11.927711  7468 net.cpp:434] hg1_low6_pool1 <- reshg1_low5_reshg1_low5_0_split_2
I0910 10:46:11.927714  7468 net.cpp:408] hg1_low6_pool1 -> hg1_low6_pool1
I0910 10:46:11.927745  7468 net.cpp:150] Setting up hg1_low6_pool1
I0910 10:46:11.927752  7468 net.cpp:157] Top shape: 1 256 16 16 (65536)
I0910 10:46:11.927753  7468 net.cpp:165] Memory required for data: 445382656
I0910 10:46:11.927757  7468 layer_factory.hpp:77] Creating layer hg1_low6_pool1_hg1_low6_pool1_0_split
I0910 10:46:11.927762  7468 net.cpp:100] Creating Layer hg1_low6_pool1_hg1_low6_pool1_0_split
I0910 10:46:11.927764  7468 net.cpp:434] hg1_low6_pool1_hg1_low6_pool1_0_split <- hg1_low6_pool1
I0910 10:46:11.927769  7468 net.cpp:408] hg1_low6_pool1_hg1_low6_pool1_0_split -> hg1_low6_pool1_hg1_low6_pool1_0_split_0
I0910 10:46:11.927774  7468 net.cpp:408] hg1_low6_pool1_hg1_low6_pool1_0_split -> hg1_low6_pool1_hg1_low6_pool1_0_split_1
I0910 10:46:11.927803  7468 net.cpp:150] Setting up hg1_low6_pool1_hg1_low6_pool1_0_split
I0910 10:46:11.927809  7468 net.cpp:157] Top shape: 1 256 16 16 (65536)
I0910 10:46:11.927820  7468 net.cpp:157] Top shape: 1 256 16 16 (65536)
I0910 10:46:11.927824  7468 net.cpp:165] Memory required for data: 445906944
I0910 10:46:11.927825  7468 layer_factory.hpp:77] Creating layer hg1_low6_pool1_bn
I0910 10:46:11.927832  7468 net.cpp:100] Creating Layer hg1_low6_pool1_bn
I0910 10:46:11.927836  7468 net.cpp:434] hg1_low6_pool1_bn <- hg1_low6_pool1_hg1_low6_pool1_0_split_0
I0910 10:46:11.927840  7468 net.cpp:408] hg1_low6_pool1_bn -> hg1_low6_pool1_bn
I0910 10:46:11.927995  7468 net.cpp:150] Setting up hg1_low6_pool1_bn
I0910 10:46:11.928000  7468 net.cpp:157] Top shape: 1 256 16 16 (65536)
I0910 10:46:11.928004  7468 net.cpp:165] Memory required for data: 446169088
I0910 10:46:11.928009  7468 layer_factory.hpp:77] Creating layer hg1_low6_pool1_bn_scale
I0910 10:46:11.928014  7468 net.cpp:100] Creating Layer hg1_low6_pool1_bn_scale
I0910 10:46:11.928017  7468 net.cpp:434] hg1_low6_pool1_bn_scale <- hg1_low6_pool1_bn
I0910 10:46:11.928020  7468 net.cpp:395] hg1_low6_pool1_bn_scale -> hg1_low6_pool1_bn (in-place)
I0910 10:46:11.928474  7468 net.cpp:150] Setting up hg1_low6_pool1_bn_scale
I0910 10:46:11.928484  7468 net.cpp:157] Top shape: 1 256 16 16 (65536)
I0910 10:46:11.928488  7468 net.cpp:165] Memory required for data: 446431232
I0910 10:46:11.928493  7468 layer_factory.hpp:77] Creating layer hg1_low6_pool1_bn_scale_relu
I0910 10:46:11.928499  7468 net.cpp:100] Creating Layer hg1_low6_pool1_bn_scale_relu
I0910 10:46:11.928503  7468 net.cpp:434] hg1_low6_pool1_bn_scale_relu <- hg1_low6_pool1_bn
I0910 10:46:11.928508  7468 net.cpp:395] hg1_low6_pool1_bn_scale_relu -> hg1_low6_pool1_bn (in-place)
I0910 10:46:11.928514  7468 net.cpp:150] Setting up hg1_low6_pool1_bn_scale_relu
I0910 10:46:11.928517  7468 net.cpp:157] Top shape: 1 256 16 16 (65536)
I0910 10:46:11.928519  7468 net.cpp:165] Memory required for data: 446693376
I0910 10:46:11.928522  7468 layer_factory.hpp:77] Creating layer reshg1_low6_low1_branch2a
I0910 10:46:11.928530  7468 net.cpp:100] Creating Layer reshg1_low6_low1_branch2a
I0910 10:46:11.928534  7468 net.cpp:434] reshg1_low6_low1_branch2a <- hg1_low6_pool1_bn
I0910 10:46:11.928539  7468 net.cpp:408] reshg1_low6_low1_branch2a -> reshg1_low6_low1_branch2a
I0910 10:46:11.929002  7468 net.cpp:150] Setting up reshg1_low6_low1_branch2a
I0910 10:46:11.929008  7468 net.cpp:157] Top shape: 1 128 16 16 (32768)
I0910 10:46:11.929010  7468 net.cpp:165] Memory required for data: 446824448
I0910 10:46:11.929014  7468 layer_factory.hpp:77] Creating layer bnhg1_low6_low1_branch2a
I0910 10:46:11.929020  7468 net.cpp:100] Creating Layer bnhg1_low6_low1_branch2a
I0910 10:46:11.929024  7468 net.cpp:434] bnhg1_low6_low1_branch2a <- reshg1_low6_low1_branch2a
I0910 10:46:11.929029  7468 net.cpp:395] bnhg1_low6_low1_branch2a -> reshg1_low6_low1_branch2a (in-place)
I0910 10:46:11.929172  7468 net.cpp:150] Setting up bnhg1_low6_low1_branch2a
I0910 10:46:11.929177  7468 net.cpp:157] Top shape: 1 128 16 16 (32768)
I0910 10:46:11.929180  7468 net.cpp:165] Memory required for data: 446955520
I0910 10:46:11.929185  7468 layer_factory.hpp:77] Creating layer scalehg1_low6_low1_branch2a
I0910 10:46:11.929191  7468 net.cpp:100] Creating Layer scalehg1_low6_low1_branch2a
I0910 10:46:11.929194  7468 net.cpp:434] scalehg1_low6_low1_branch2a <- reshg1_low6_low1_branch2a
I0910 10:46:11.929198  7468 net.cpp:395] scalehg1_low6_low1_branch2a -> reshg1_low6_low1_branch2a (in-place)
I0910 10:46:11.929319  7468 net.cpp:150] Setting up scalehg1_low6_low1_branch2a
I0910 10:46:11.929327  7468 net.cpp:157] Top shape: 1 128 16 16 (32768)
I0910 10:46:11.929328  7468 net.cpp:165] Memory required for data: 447086592
I0910 10:46:11.929332  7468 layer_factory.hpp:77] Creating layer reshg1_low6_low1_branch2a_relu
I0910 10:46:11.929338  7468 net.cpp:100] Creating Layer reshg1_low6_low1_branch2a_relu
I0910 10:46:11.929342  7468 net.cpp:434] reshg1_low6_low1_branch2a_relu <- reshg1_low6_low1_branch2a
I0910 10:46:11.929344  7468 net.cpp:395] reshg1_low6_low1_branch2a_relu -> reshg1_low6_low1_branch2a (in-place)
I0910 10:46:11.929358  7468 net.cpp:150] Setting up reshg1_low6_low1_branch2a_relu
I0910 10:46:11.929363  7468 net.cpp:157] Top shape: 1 128 16 16 (32768)
I0910 10:46:11.929364  7468 net.cpp:165] Memory required for data: 447217664
I0910 10:46:11.929368  7468 layer_factory.hpp:77] Creating layer reshg1_low6_low1_branch2b
I0910 10:46:11.929375  7468 net.cpp:100] Creating Layer reshg1_low6_low1_branch2b
I0910 10:46:11.929378  7468 net.cpp:434] reshg1_low6_low1_branch2b <- reshg1_low6_low1_branch2a
I0910 10:46:11.929383  7468 net.cpp:408] reshg1_low6_low1_branch2b -> reshg1_low6_low1_branch2b
I0910 10:46:11.931162  7468 net.cpp:150] Setting up reshg1_low6_low1_branch2b
I0910 10:46:11.931172  7468 net.cpp:157] Top shape: 1 128 16 16 (32768)
I0910 10:46:11.931176  7468 net.cpp:165] Memory required for data: 447348736
I0910 10:46:11.931180  7468 layer_factory.hpp:77] Creating layer bnhg1_low6_low1_branch2b
I0910 10:46:11.931190  7468 net.cpp:100] Creating Layer bnhg1_low6_low1_branch2b
I0910 10:46:11.931195  7468 net.cpp:434] bnhg1_low6_low1_branch2b <- reshg1_low6_low1_branch2b
I0910 10:46:11.931200  7468 net.cpp:395] bnhg1_low6_low1_branch2b -> reshg1_low6_low1_branch2b (in-place)
I0910 10:46:11.931349  7468 net.cpp:150] Setting up bnhg1_low6_low1_branch2b
I0910 10:46:11.931354  7468 net.cpp:157] Top shape: 1 128 16 16 (32768)
I0910 10:46:11.931357  7468 net.cpp:165] Memory required for data: 447479808
I0910 10:46:11.931362  7468 layer_factory.hpp:77] Creating layer scalehg1_low6_low1_branch2b
I0910 10:46:11.931370  7468 net.cpp:100] Creating Layer scalehg1_low6_low1_branch2b
I0910 10:46:11.931372  7468 net.cpp:434] scalehg1_low6_low1_branch2b <- reshg1_low6_low1_branch2b
I0910 10:46:11.931376  7468 net.cpp:395] scalehg1_low6_low1_branch2b -> reshg1_low6_low1_branch2b (in-place)
I0910 10:46:11.931494  7468 net.cpp:150] Setting up scalehg1_low6_low1_branch2b
I0910 10:46:11.931500  7468 net.cpp:157] Top shape: 1 128 16 16 (32768)
I0910 10:46:11.931504  7468 net.cpp:165] Memory required for data: 447610880
I0910 10:46:11.931507  7468 layer_factory.hpp:77] Creating layer reshg1_low6_low1_branch2b_relu
I0910 10:46:11.931514  7468 net.cpp:100] Creating Layer reshg1_low6_low1_branch2b_relu
I0910 10:46:11.931517  7468 net.cpp:434] reshg1_low6_low1_branch2b_relu <- reshg1_low6_low1_branch2b
I0910 10:46:11.931520  7468 net.cpp:395] reshg1_low6_low1_branch2b_relu -> reshg1_low6_low1_branch2b (in-place)
I0910 10:46:11.931524  7468 net.cpp:150] Setting up reshg1_low6_low1_branch2b_relu
I0910 10:46:11.931529  7468 net.cpp:157] Top shape: 1 128 16 16 (32768)
I0910 10:46:11.931530  7468 net.cpp:165] Memory required for data: 447741952
I0910 10:46:11.931532  7468 layer_factory.hpp:77] Creating layer reshg1_low6_low1_branch2c
I0910 10:46:11.931540  7468 net.cpp:100] Creating Layer reshg1_low6_low1_branch2c
I0910 10:46:11.931542  7468 net.cpp:434] reshg1_low6_low1_branch2c <- reshg1_low6_low1_branch2b
I0910 10:46:11.931548  7468 net.cpp:408] reshg1_low6_low1_branch2c -> reshg1_low6_low1_branch2c
I0910 10:46:11.931877  7468 net.cpp:150] Setting up reshg1_low6_low1_branch2c
I0910 10:46:11.931885  7468 net.cpp:157] Top shape: 1 256 16 16 (65536)
I0910 10:46:11.931887  7468 net.cpp:165] Memory required for data: 448004096
…
I0910 10:46:12.826653  7468 net.cpp:434] scalehg2_low6_low6_low6_low6_branch2a <- reshg2_low6_low6_low6_low6_branch2a
I0910 10:46:12.826660  7468 net.cpp:395] scalehg2_low6_low6_low6_low6_branch2a -> reshg2_low6_low6_low6_low6_branch2a (in-place)
I0910 10:46:12.826773  7468 net.cpp:150] Setting up scalehg2_low6_low6_low6_low6_branch2a
I0910 10:46:12.826788  7468 net.cpp:157] Top shape: 1 256 4 4 (4096)
I0910 10:46:12.826793  7468 net.cpp:165] Memory required for data: 910409728
I0910 10:46:12.826800  7468 layer_factory.hpp:77] Creating layer reshg2_low6_low6_low6_low6_branch2a_relu
I0910 10:46:12.826810  7468 net.cpp:100] Creating Layer reshg2_low6_low6_low6_low6_branch2a_relu
I0910 10:46:12.826815  7468 net.cpp:434] reshg2_low6_low6_low6_low6_branch2a_relu <- reshg2_low6_low6_low6_low6_branch2a
I0910 10:46:12.826822  7468 net.cpp:395] reshg2_low6_low6_low6_low6_branch2a_relu -> reshg2_low6_low6_low6_low6_branch2a (in-place)
I0910 10:46:12.826828  7468 net.cpp:150] Setting up reshg2_low6_low6_low6_low6_branch2a_relu
I0910 10:46:12.826835  7468 net.cpp:157] Top shape: 1 256 4 4 (4096)
I0910 10:46:12.826840  7468 net.cpp:165] Memory required for data: 910426112
I0910 10:46:12.826843  7468 layer_factory.hpp:77] Creating layer reshg2_low6_low6_low6_low6_branch2b
I0910 10:46:12.826855  7468 net.cpp:100] Creating Layer reshg2_low6_low6_low6_low6_branch2b
I0910 10:46:12.826859  7468 net.cpp:434] reshg2_low6_low6_low6_low6_branch2b <- reshg2_low6_low6_low6_low6_branch2a
I0910 10:46:12.826869  7468 net.cpp:408] reshg2_low6_low6_low6_low6_branch2b -> reshg2_low6_low6_low6_low6_branch2b
I0910 10:46:12.832593  7468 net.cpp:150] Setting up reshg2_low6_low6_low6_low6_branch2b
I0910 10:46:12.832609  7468 net.cpp:157] Top shape: 1 256 4 4 (4096)
I0910 10:46:12.832613  7468 net.cpp:165] Memory required for data: 910442496
I0910 10:46:12.832622  7468 layer_factory.hpp:77] Creating layer bnhg2_low6_low6_low6_low6_branch2b
I0910 10:46:12.832633  7468 net.cpp:100] Creating Layer bnhg2_low6_low6_low6_low6_branch2b
I0910 10:46:12.832639  7468 net.cpp:434] bnhg2_low6_low6_low6_low6_branch2b <- reshg2_low6_low6_low6_low6_branch2b
I0910 10:46:12.832649  7468 net.cpp:395] bnhg2_low6_low6_low6_low6_branch2b -> reshg2_low6_low6_low6_low6_branch2b (in-place)
I0910 10:46:12.832809  7468 net.cpp:150] Setting up bnhg2_low6_low6_low6_low6_branch2b
I0910 10:46:12.832818  7468 net.cpp:157] Top shape: 1 256 4 4 (4096)
I0910 10:46:12.832820  7468 net.cpp:165] Memory required for data: 910458880
I0910 10:46:12.832830  7468 layer_factory.hpp:77] Creating layer scalehg2_low6_low6_low6_low6_branch2b
I0910 10:46:12.832839  7468 net.cpp:100] Creating Layer scalehg2_low6_low6_low6_low6_branch2b
I0910 10:46:12.832844  7468 net.cpp:434] scalehg2_low6_low6_low6_low6_branch2b <- reshg2_low6_low6_low6_low6_branch2b
I0910 10:46:12.832851  7468 net.cpp:395] scalehg2_low6_low6_low6_low6_branch2b -> reshg2_low6_low6_low6_low6_branch2b (in-place)
I0910 10:46:12.832973  7468 net.cpp:150] Setting up scalehg2_low6_low6_low6_low6_branch2b
I0910 10:46:12.832980  7468 net.cpp:157] Top shape: 1 256 4 4 (4096)
I0910 10:46:12.832984  7468 net.cpp:165] Memory required for data: 910475264
I0910 10:46:12.832993  7468 layer_factory.hpp:77] Creating layer reshg2_low6_low6_low6_low6_branch2b_relu
I0910 10:46:12.833001  7468 net.cpp:100] Creating Layer reshg2_low6_low6_low6_low6_branch2b_relu
I0910 10:46:12.833006  7468 net.cpp:434] reshg2_low6_low6_low6_low6_branch2b_relu <- reshg2_low6_low6_low6_low6_branch2b
I0910 10:46:12.833014  7468 net.cpp:395] reshg2_low6_low6_low6_low6_branch2b_relu -> reshg2_low6_low6_low6_low6_branch2b (in-place)
I0910 10:46:12.833021  7468 net.cpp:150] Setting up reshg2_low6_low6_low6_low6_branch2b_relu
I0910 10:46:12.833027  7468 net.cpp:157] Top shape: 1 256 4 4 (4096)
I0910 10:46:12.833032  7468 net.cpp:165] Memory required for data: 910491648
I0910 10:46:12.833036  7468 layer_factory.hpp:77] Creating layer reshg2_low6_low6_low6_low6_branch2c
I0910 10:46:12.833048  7468 net.cpp:100] Creating Layer reshg2_low6_low6_low6_low6_branch2c
I0910 10:46:12.833052  7468 net.cpp:434] reshg2_low6_low6_low6_low6_branch2c <- reshg2_low6_low6_low6_low6_branch2b
I0910 10:46:12.833060  7468 net.cpp:408] reshg2_low6_low6_low6_low6_branch2c -> reshg2_low6_low6_low6_low6_branch2c
I0910 10:46:12.833889  7468 net.cpp:150] Setting up reshg2_low6_low6_low6_low6_branch2c
I0910 10:46:12.833899  7468 net.cpp:157] Top shape: 1 512 4 4 (8192)
I0910 10:46:12.833916  7468 net.cpp:165] Memory required for data: 910524416
I0910 10:46:12.833927  7468 layer_factory.hpp:77] Creating layer reshg2_low6_low6_low6_low6
I0910 10:46:12.833935  7468 net.cpp:100] Creating Layer reshg2_low6_low6_low6_low6
I0910 10:46:12.833940  7468 net.cpp:434] reshg2_low6_low6_low6_low6 <- reshg2_low6_low6_low6_low6_branch1
I0910 10:46:12.833947  7468 net.cpp:434] reshg2_low6_low6_low6_low6 <- reshg2_low6_low6_low6_low6_branch2c
I0910 10:46:12.833957  7468 net.cpp:408] reshg2_low6_low6_low6_low6 -> reshg2_low6_low6_low6_low6
I0910 10:46:12.833986  7468 net.cpp:150] Setting up reshg2_low6_low6_low6_low6
I0910 10:46:12.833997  7468 net.cpp:157] Top shape: 1 512 4 4 (8192)
I0910 10:46:12.834002  7468 net.cpp:165] Memory required for data: 910557184
I0910 10:46:12.834004  7468 layer_factory.hpp:77] Creating layer reshg2_low6_low6_low6_low6_reshg2_low6_low6_low6_low6_0_split
I0910 10:46:12.834013  7468 net.cpp:100] Creating Layer reshg2_low6_low6_low6_low6_reshg2_low6_low6_low6_low6_0_split
I0910 10:46:12.834017  7468 net.cpp:434] reshg2_low6_low6_low6_low6_reshg2_low6_low6_low6_low6_0_split <- reshg2_low6_low6_low6_low6
I0910 10:46:12.834024  7468 net.cpp:408] reshg2_low6_low6_low6_low6_reshg2_low6_low6_low6_low6_0_split -> reshg2_low6_low6_low6_low6_reshg2_low6_low6_low6_low6_0_split_0
I0910 10:46:12.834034  7468 net.cpp:408] reshg2_low6_low6_low6_low6_reshg2_low6_low6_low6_low6_0_split -> reshg2_low6_low6_low6_low6_reshg2_low6_low6_low6_low6_0_split_1
I0910 10:46:12.834069  7468 net.cpp:150] Setting up reshg2_low6_low6_low6_low6_reshg2_low6_low6_low6_low6_0_split
I0910 10:46:12.834076  7468 net.cpp:157] Top shape: 1 512 4 4 (8192)
I0910 10:46:12.834084  7468 net.cpp:157] Top shape: 1 512 4 4 (8192)
I0910 10:46:12.834089  7468 net.cpp:165] Memory required for data: 910622720
I0910 10:46:12.834092  7468 layer_factory.hpp:77] Creating layer reshg2_low6_low6_low6_low6_bn
I0910 10:46:12.834102  7468 net.cpp:100] Creating Layer reshg2_low6_low6_low6_low6_bn
I0910 10:46:12.834107  7468 net.cpp:434] reshg2_low6_low6_low6_low6_bn <- reshg2_low6_low6_low6_low6_reshg2_low6_low6_low6_low6_0_split_0
I0910 10:46:12.834115  7468 net.cpp:408] reshg2_low6_low6_low6_low6_bn -> reshg2_low6_low6_low6_low6_bn
I0910 10:46:12.834291  7468 net.cpp:150] Setting up reshg2_low6_low6_low6_low6_bn
I0910 10:46:12.834300  7468 net.cpp:157] Top shape: 1 512 4 4 (8192)
I0910 10:46:12.834303  7468 net.cpp:165] Memory required for data: 910655488
I0910 10:46:12.834313  7468 layer_factory.hpp:77] Creating layer reshg2_low6_low6_low6_low6_bn_scale
I0910 10:46:12.834321  7468 net.cpp:100] Creating Layer reshg2_low6_low6_low6_low6_bn_scale
I0910 10:46:12.834326  7468 net.cpp:434] reshg2_low6_low6_low6_low6_bn_scale <- reshg2_low6_low6_low6_low6_bn
I0910 10:46:12.834334  7468 net.cpp:395] reshg2_low6_low6_low6_low6_bn_scale -> reshg2_low6_low6_low6_low6_bn (in-place)
I0910 10:46:12.834473  7468 net.cpp:150] Setting up reshg2_low6_low6_low6_low6_bn_scale
I0910 10:46:12.834481  7468 net.cpp:157] Top shape: 1 512 4 4 (8192)
I0910 10:46:12.834486  7468 net.cpp:165] Memory required for data: 910688256
I0910 10:46:12.834493  7468 layer_factory.hpp:77] Creating layer reshg2_low6_low6_low6_low6_bn_scale_relu
I0910 10:46:12.834501  7468 net.cpp:100] Creating Layer reshg2_low6_low6_low6_low6_bn_scale_relu
I0910 10:46:12.834506  7468 net.cpp:434] reshg2_low6_low6_low6_low6_bn_scale_relu <- reshg2_low6_low6_low6_low6_bn
I0910 10:46:12.834514  7468 net.cpp:395] reshg2_low6_low6_low6_low6_bn_scale_relu -> reshg2_low6_low6_low6_low6_bn (in-place)
I0910 10:46:12.834522  7468 net.cpp:150] Setting up reshg2_low6_low6_low6_low6_bn_scale_relu
I0910 10:46:12.834528  7468 net.cpp:157] Top shape: 1 512 4 4 (8192)
I0910 10:46:12.834532  7468 net.cpp:165] Memory required for data: 910721024
I0910 10:46:12.834537  7468 layer_factory.hpp:77] Creating layer reshg2_low6_low6_low6_low7_branch2a
I0910 10:46:12.834547  7468 net.cpp:100] Creating Layer reshg2_low6_low6_low6_low7_branch2a
I0910 10:46:12.834553  7468 net.cpp:434] reshg2_low6_low6_low6_low7_branch2a <- reshg2_low6_low6_low6_low6_bn
I0910 10:46:12.834571  7468 net.cpp:408] reshg2_low6_low6_low6_low7_branch2a -> reshg2_low6_low6_low6_low7_branch2a
I0910 10:46:12.836267  7468 net.cpp:150] Setting up reshg2_low6_low6_low6_low7_branch2a
I0910 10:46:12.836279  7468 net.cpp:157] Top shape: 1 256 4 4 (4096)
I0910 10:46:12.836283  7468 net.cpp:165] Memory required for data: 910737408
I0910 10:46:12.836290  7468 layer_factory.hpp:77] Creating layer bnhg2_low6_low6_low6_low7_branch2a
I0910 10:46:12.836303  7468 net.cpp:100] Creating Layer bnhg2_low6_low6_low6_low7_branch2a
I0910 10:46:12.836308  7468 net.cpp:434] bnhg2_low6_low6_low6_low7_branch2a <- reshg2_low6_low6_low6_low7_branch2a
I0910 10:46:12.836318  7468 net.cpp:395] bnhg2_low6_low6_low6_low7_branch2a -> reshg2_low6_low6_low6_low7_branch2a (in-place)
I0910 10:46:12.836490  7468 net.cpp:150] Setting up bnhg2_low6_low6_low6_low7_branch2a
I0910 10:46:12.836499  7468 net.cpp:157] Top shape: 1 256 4 4 (4096)
I0910 10:46:12.836503  7468 net.cpp:165] Memory required for data: 910753792
I0910 10:46:12.836513  7468 layer_factory.hpp:77] Creating layer scalehg2_low6_low6_low6_low7_branch2a
I0910 10:46:12.836520  7468 net.cpp:100] Creating Layer scalehg2_low6_low6_low6_low7_branch2a
I0910 10:46:12.836526  7468 net.cpp:434] scalehg2_low6_low6_low6_low7_branch2a <- reshg2_low6_low6_low6_low7_branch2a
I0910 10:46:12.836536  7468 net.cpp:395] scalehg2_low6_low6_low6_low7_branch2a -> reshg2_low6_low6_low6_low7_branch2a (in-place)
I0910 10:46:12.836658  7468 net.cpp:150] Setting up scalehg2_low6_low6_low6_low7_branch2a
I0910 10:46:12.836665  7468 net.cpp:157] Top shape: 1 256 4 4 (4096)
I0910 10:46:12.836669  7468 net.cpp:165] Memory required for data: 910770176
I0910 10:46:12.836678  7468 layer_factory.hpp:77] Creating layer reshg2_low6_low6_low6_low7_branch2a_relu
I0910 10:46:12.836688  7468 net.cpp:100] Creating Layer reshg2_low6_low6_low6_low7_branch2a_relu
I0910 10:46:12.836693  7468 net.cpp:434] reshg2_low6_low6_low6_low7_branch2a_relu <- reshg2_low6_low6_low6_low7_branch2a
I0910 10:46:12.836699  7468 net.cpp:395] reshg2_low6_low6_low6_low7_branch2a_relu -> reshg2_low6_low6_low6_low7_branch2a (in-place)
I0910 10:46:12.836705  7468 net.cpp:150] Setting up reshg2_low6_low6_low6_low7_branch2a_relu
I0910 10:46:12.836712  7468 net.cpp:157] Top shape: 1 256 4 4 (4096)
I0910 10:46:12.836717  7468 net.cpp:165] Memory required for data: 910786560
I0910 10:46:12.836721  7468 layer_factory.hpp:77] Creating layer reshg2_low6_low6_low6_low7_branch2b
I0910 10:46:12.836733  7468 net.cpp:100] Creating Layer reshg2_low6_low6_low6_low7_branch2b
I0910 10:46:12.836737  7468 net.cpp:434] reshg2_low6_low6_low6_low7_branch2b <- reshg2_low6_low6_low6_low7_branch2a
I0910 10:46:12.836746  7468 net.cpp:408] reshg2_low6_low6_low6_low7_branch2b -> reshg2_low6_low6_low6_low7_branch2b
I0910 10:46:12.842587  7468 net.cpp:150] Setting up reshg2_low6_low6_low6_low7_branch2b
I0910 10:46:12.842602  7468 net.cpp:157] Top shape: 1 256 4 4 (4096)
I0910 10:46:12.842607  7468 net.cpp:165] Memory required for data: 910802944
I0910 10:46:12.842614  7468 layer_factory.hpp:77] Creating layer bnhg2_low6_low6_low6_low7_branch2b
I0910 10:46:12.842628  7468 net.cpp:100] Creating Layer bnhg2_low6_low6_low6_low7_branch2b
I0910 10:46:12.842633  7468 net.cpp:434] bnhg2_low6_low6_low6_low7_branch2b <- reshg2_low6_low6_low6_low7_branch2b
I0910 10:46:12.842643  7468 net.cpp:395] bnhg2_low6_low6_low6_low7_branch2b -> reshg2_low6_low6_low6_low7_branch2b (in-place)
I0910 10:46:12.843194  7468 net.cpp:150] Setting up bnhg2_low6_low6_low6_low7_branch2b
I0910 10:46:12.843206  7468 net.cpp:157] Top shape: 1 256 4 4 (4096)
I0910 10:46:12.843209  7468 net.cpp:165] Memory required for data: 910819328
I0910 10:46:12.843219  7468 layer_factory.hpp:77] Creating layer scalehg2_low6_low6_low6_low7_branch2b
I0910 10:46:12.843230  7468 net.cpp:100] Creating Layer scalehg2_low6_low6_low6_low7_branch2b
I0910 10:46:12.843237  7468 net.cpp:434] scalehg2_low6_low6_low6_low7_branch2b <- reshg2_low6_low6_low6_low7_branch2b
I0910 10:46:12.843256  7468 net.cpp:395] scalehg2_low6_low6_low6_low7_branch2b -> reshg2_low6_low6_low6_low7_branch2b (in-place)
I0910 10:46:12.843385  7468 net.cpp:150] Setting up scalehg2_low6_low6_low6_low7_branch2b
I0910 10:46:12.843394  7468 net.cpp:157] Top shape: 1 256 4 4 (4096)
I0910 10:46:12.843397  7468 net.cpp:165] Memory required for data: 910835712
I0910 10:46:12.843406  7468 layer_factory.hpp:77] Creating layer reshg2_low6_low6_low6_low7_branch2b_relu
I0910 10:46:12.843413  7468 net.cpp:100] Creating Layer reshg2_low6_low6_low6_low7_branch2b_relu
I0910 10:46:12.843420  7468 net.cpp:434] reshg2_low6_low6_low6_low7_branch2b_relu <- reshg2_low6_low6_low6_low7_branch2b
I0910 10:46:12.843427  7468 net.cpp:395] reshg2_low6_low6_low6_low7_branch2b_relu -> reshg2_low6_low6_low6_low7_branch2b (in-place)
I0910 10:46:12.843436  7468 net.cpp:150] Setting up reshg2_low6_low6_low6_low7_branch2b_relu
I0910 10:46:12.843441  7468 net.cpp:157] Top shape: 1 256 4 4 (4096)
I0910 10:46:12.843446  7468 net.cpp:165] Memory required for data: 910852096
I0910 10:46:12.843451  7468 layer_factory.hpp:77] Creating layer reshg2_low6_low6_low6_low7_branch2c
I0910 10:46:12.843462  7468 net.cpp:100] Creating Layer reshg2_low6_low6_low6_low7_branch2c
I0910 10:46:12.843467  7468 net.cpp:434] reshg2_low6_low6_low6_low7_branch2c <- reshg2_low6_low6_low6_low7_branch2b
I0910 10:46:12.843477  7468 net.cpp:408] reshg2_low6_low6_low6_low7_branch2c -> reshg2_low6_low6_low6_low7_branch2c
I0910 10:46:12.844280  7468 net.cpp:150] Setting up reshg2_low6_low6_low6_low7_branch2c
I0910 10:46:12.844290  7468 net.cpp:157] Top shape: 1 512 4 4 (8192)
I0910 10:46:12.844293  7468 net.cpp:165] Memory required for data: 910884864
I0910 10:46:12.844302  7468 layer_factory.hpp:77] Creating layer reshg2_low6_low6_low6_low7
I0910 10:46:12.844310  7468 net.cpp:100] Creating Layer reshg2_low6_low6_low6_low7
I0910 10:46:12.844316  7468 net.cpp:434] reshg2_low6_low6_low6_low7 <- reshg2_low6_low6_low6_low6_reshg2_low6_low6_low6_low6_0_split_1
I0910 10:46:12.844322  7468 net.cpp:434] reshg2_low6_low6_low6_low7 <- reshg2_low6_low6_low6_low7_branch2c
I0910 10:46:12.844331  7468 net.cpp:408] reshg2_low6_low6_low6_low7 -> reshg2_low6_low6_low6_low7
I0910 10:46:12.844357  7468 net.cpp:150] Setting up reshg2_low6_low6_low6_low7
I0910 10:46:12.844364  7468 net.cpp:157] Top shape: 1 512 4 4 (8192)
I0910 10:46:12.844369  7468 net.cpp:165] Memory required for data: 910917632
I0910 10:46:12.844374  7468 layer_factory.hpp:77] Creating layer hg2_low6_low6_low6_up5
I0910 10:46:12.844383  7468 net.cpp:100] Creating Layer hg2_low6_low6_low6_up5
I0910 10:46:12.844388  7468 net.cpp:434] hg2_low6_low6_low6_up5 <- reshg2_low6_low6_low6_low7
I0910 10:46:12.844398  7468 net.cpp:408] hg2_low6_low6_low6_up5 -> hg2_low6_low6_low6_up5
I0910 10:46:12.997112  7468 net.cpp:150] Setting up hg2_low6_low6_low6_up5
I0910 10:46:12.997150  7468 net.cpp:157] Top shape: 1 512 8 8 (32768)
I0910 10:46:12.997154  7468 net.cpp:165] Memory required for data: 911048704
I0910 10:46:12.997162  7468 layer_factory.hpp:77] Creating layer hg2_low6_low6_low6
I0910 10:46:12.997171  7468 net.cpp:100] Creating Layer hg2_low6_low6_low6
I0910 10:46:12.997179  7468 net.cpp:434] hg2_low6_low6_low6 <- reshg2_low6_low6_low6_up4
I0910 10:46:12.997187  7468 net.cpp:434] hg2_low6_low6_low6 <- hg2_low6_low6_low6_up5
I0910 10:46:12.997195  7468 net.cpp:408] hg2_low6_low6_low6 -> hg2_low6_low6_low6
I0910 10:46:12.997229  7468 net.cpp:150] Setting up hg2_low6_low6_low6
I0910 10:46:12.997236  7468 net.cpp:157] Top shape: 1 512 8 8 (32768)
I0910 10:46:12.997237  7468 net.cpp:165] Memory required for data: 911179776
I0910 10:46:12.997241  7468 layer_factory.hpp:77] Creating layer hg2_low6_low6_low6_hg2_low6_low6_low6_0_split
I0910 10:46:12.997246  7468 net.cpp:100] Creating Layer hg2_low6_low6_low6_hg2_low6_low6_low6_0_split
I0910 10:46:12.997251  7468 net.cpp:434] hg2_low6_low6_low6_hg2_low6_low6_low6_0_split <- hg2_low6_low6_low6
I0910 10:46:12.997256  7468 net.cpp:408] hg2_low6_low6_low6_hg2_low6_low6_low6_0_split -> hg2_low6_low6_low6_hg2_low6_low6_low6_0_split_0
I0910 10:46:12.997277  7468 net.cpp:408] hg2_low6_low6_low6_hg2_low6_low6_low6_0_split -> hg2_low6_low6_low6_hg2_low6_low6_low6_0_split_1
I0910 10:46:12.997314  7468 net.cpp:150] Setting up hg2_low6_low6_low6_hg2_low6_low6_low6_0_split
I0910 10:46:12.997320  7468 net.cpp:157] Top shape: 1 512 8 8 (32768)
I0910 10:46:12.997323  7468 net.cpp:157] Top shape: 1 512 8 8 (32768)
I0910 10:46:12.997325  7468 net.cpp:165] Memory required for data: 911441920
I0910 10:46:12.997328  7468 layer_factory.hpp:77] Creating layer hg2_low6_low6_low6_bn
I0910 10:46:12.997335  7468 net.cpp:100] Creating Layer hg2_low6_low6_low6_bn
I0910 10:46:12.997339  7468 net.cpp:434] hg2_low6_low6_low6_bn <- hg2_low6_low6_low6_hg2_low6_low6_low6_0_split_0
I0910 10:46:12.997344  7468 net.cpp:408] hg2_low6_low6_low6_bn -> hg2_low6_low6_low6_bn
I0910 10:46:12.997575  7468 net.cpp:150] Setting up hg2_low6_low6_low6_bn
I0910 10:46:12.997581  7468 net.cpp:157] Top shape: 1 512 8 8 (32768)
I0910 10:46:12.997583  7468 net.cpp:165] Memory required for data: 911572992
I0910 10:46:12.997591  7468 layer_factory.hpp:77] Creating layer hg2_low6_low6_low6_bn_scale
I0910 10:46:12.997596  7468 net.cpp:100] Creating Layer hg2_low6_low6_low6_bn_scale
I0910 10:46:12.997601  7468 net.cpp:434] hg2_low6_low6_low6_bn_scale <- hg2_low6_low6_low6_bn
I0910 10:46:12.997604  7468 net.cpp:395] hg2_low6_low6_low6_bn_scale -> hg2_low6_low6_low6_bn (in-place)
I0910 10:46:12.997771  7468 net.cpp:150] Setting up hg2_low6_low6_low6_bn_scale
I0910 10:46:12.997778  7468 net.cpp:157] Top shape: 1 512 8 8 (32768)
I0910 10:46:12.997781  7468 net.cpp:165] Memory required for data: 911704064
I0910 10:46:12.997786  7468 layer_factory.hpp:77] Creating layer hg2_low6_low6_low6_bn_scale_relu
I0910 10:46:12.997792  7468 net.cpp:100] Creating Layer hg2_low6_low6_low6_bn_scale_relu
I0910 10:46:12.997795  7468 net.cpp:434] hg2_low6_low6_low6_bn_scale_relu <- hg2_low6_low6_low6_bn
I0910 10:46:12.997800  7468 net.cpp:395] hg2_low6_low6_low6_bn_scale_relu -> hg2_low6_low6_low6_bn (in-place)
I0910 10:46:12.997805  7468 net.cpp:150] Setting up hg2_low6_low6_low6_bn_scale_relu
I0910 10:46:12.997809  7468 net.cpp:157] Top shape: 1 512 8 8 (32768)
I0910 10:46:12.997812  7468 net.cpp:165] Memory required for data: 911835136
I0910 10:46:12.997813  7468 layer_factory.hpp:77] Creating layer reshg2_low6_low6_low7_branch2a
I0910 10:46:12.997822  7468 net.cpp:100] Creating Layer reshg2_low6_low6_low7_branch2a
I0910 10:46:12.997826  7468 net.cpp:434] reshg2_low6_low6_low7_branch2a <- hg2_low6_low6_low6_bn
I0910 10:46:12.997833  7468 net.cpp:408] reshg2_low6_low6_low7_branch2a -> reshg2_low6_low6_low7_branch2a
I0910 10:46:12.999557  7468 net.cpp:150] Setting up reshg2_low6_low6_low7_branch2a
I0910 10:46:12.999568  7468 net.cpp:157] Top shape: 1 256 8 8 (16384)
I0910 10:46:12.999572  7468 net.cpp:165] Memory required for data: 911900672
I0910 10:46:12.999577  7468 layer_factory.hpp:77] Creating layer bnhg2_low6_low6_low7_branch2a
I0910 10:46:12.999585  7468 net.cpp:100] Creating Layer bnhg2_low6_low6_low7_branch2a
I0910 10:46:12.999590  7468 net.cpp:434] bnhg2_low6_low6_low7_branch2a <- reshg2_low6_low6_low7_branch2a
I0910 10:46:12.999594  7468 net.cpp:395] bnhg2_low6_low6_low7_branch2a -> reshg2_low6_low6_low7_branch2a (in-place)
I0910 10:46:12.999737  7468 net.cpp:150] Setting up bnhg2_low6_low6_low7_branch2a
I0910 10:46:12.999742  7468 net.cpp:157] Top shape: 1 256 8 8 (16384)
I0910 10:46:12.999744  7468 net.cpp:165] Memory required for data: 911966208
I0910 10:46:12.999749  7468 layer_factory.hpp:77] Creating layer scalehg2_low6_low6_low7_branch2a
I0910 10:46:12.999755  7468 net.cpp:100] Creating Layer scalehg2_low6_low6_low7_branch2a
I0910 10:46:12.999758  7468 net.cpp:434] scalehg2_low6_low6_low7_branch2a <- reshg2_low6_low6_low7_branch2a
I0910 10:46:12.999763  7468 net.cpp:395] scalehg2_low6_low6_low7_branch2a -> reshg2_low6_low6_low7_branch2a (in-place)
I0910 10:46:13.000269  7468 net.cpp:150] Setting up scalehg2_low6_low6_low7_branch2a
I0910 10:46:13.000279  7468 net.cpp:157] Top shape: 1 256 8 8 (16384)
I0910 10:46:13.000291  7468 net.cpp:165] Memory required for data: 912031744
I0910 10:46:13.000298  7468 layer_factory.hpp:77] Creating layer reshg2_low6_low6_low7_branch2a_relu
I0910 10:46:13.000306  7468 net.cpp:100] Creating Layer reshg2_low6_low6_low7_branch2a_relu
I0910 10:46:13.000310  7468 net.cpp:434] reshg2_low6_low6_low7_branch2a_relu <- reshg2_low6_low6_low7_branch2a
I0910 10:46:13.000314  7468 net.cpp:395] reshg2_low6_low6_low7_branch2a_relu -> reshg2_low6_low6_low7_branch2a (in-place)
I0910 10:46:13.000319  7468 net.cpp:150] Setting up reshg2_low6_low6_low7_branch2a_relu
I0910 10:46:13.000324  7468 net.cpp:157] Top shape: 1 256 8 8 (16384)
I0910 10:46:13.000325  7468 net.cpp:165] Memory required for data: 912097280
I0910 10:46:13.000327  7468 layer_factory.hpp:77] Creating layer reshg2_low6_low6_low7_branch2b
I0910 10:46:13.000335  7468 net.cpp:100] Creating Layer reshg2_low6_low6_low7_branch2b
I0910 10:46:13.000339  7468 net.cpp:434] reshg2_low6_low6_low7_branch2b <- reshg2_low6_low6_low7_branch2a
I0910 10:46:13.000344  7468 net.cpp:408] reshg2_low6_low6_low7_branch2b -> reshg2_low6_low6_low7_branch2b
I0910 10:46:13.006160  7468 net.cpp:150] Setting up reshg2_low6_low6_low7_branch2b
I0910 10:46:13.006172  7468 net.cpp:157] Top shape: 1 256 8 8 (16384)
I0910 10:46:13.006176  7468 net.cpp:165] Memory required for data: 912162816
I0910 10:46:13.006184  7468 layer_factory.hpp:77] Creating layer bnhg2_low6_low6_low7_branch2b
I0910 10:46:13.006196  7468 net.cpp:100] Creating Layer bnhg2_low6_low6_low7_branch2b
I0910 10:46:13.006202  7468 net.cpp:434] bnhg2_low6_low6_low7_branch2b <- reshg2_low6_low6_low7_branch2b
I0910 10:46:13.006211  7468 net.cpp:395] bnhg2_low6_low6_low7_branch2b -> reshg2_low6_low6_low7_branch2b (in-place)
I0910 10:46:13.006369  7468 net.cpp:150] Setting up bnhg2_low6_low6_low7_branch2b
I0910 10:46:13.006377  7468 net.cpp:157] Top shape: 1 256 8 8 (16384)
I0910 10:46:13.006381  7468 net.cpp:165] Memory required for data: 912228352
I0910 10:46:13.006391  7468 layer_factory.hpp:77] Creating layer scalehg2_low6_low6_low7_branch2b
I0910 10:46:13.006399  7468 net.cpp:100] Creating Layer scalehg2_low6_low6_low7_branch2b
I0910 10:46:13.006405  7468 net.cpp:434] scalehg2_low6_low6_low7_branch2b <- reshg2_low6_low6_low7_branch2b
I0910 10:46:13.006412  7468 net.cpp:395] scalehg2_low6_low6_low7_branch2b -> reshg2_low6_low6_low7_branch2b (in-place)
I0910 10:46:13.006530  7468 net.cpp:150] Setting up scalehg2_low6_low6_low7_branch2b
I0910 10:46:13.006538  7468 net.cpp:157] Top shape: 1 256 8 8 (16384)
I0910 10:46:13.006543  7468 net.cpp:165] Memory required for data: 912293888
I0910 10:46:13.006551  7468 layer_factory.hpp:77] Creating layer reshg2_low6_low6_low7_branch2b_relu
I0910 10:46:13.006558  7468 net.cpp:100] Creating Layer reshg2_low6_low6_low7_branch2b_relu
I0910 10:46:13.006563  7468 net.cpp:434] reshg2_low6_low6_low7_branch2b_relu <- reshg2_low6_low6_low7_branch2b
I0910 10:46:13.006569  7468 net.cpp:395] reshg2_low6_low6_low7_branch2b_relu -> reshg2_low6_low6_low7_branch2b (in-place)
I0910 10:46:13.006577  7468 net.cpp:150] Setting up reshg2_low6_low6_low7_branch2b_relu
I0910 10:46:13.006583  7468 net.cpp:157] Top shape: 1 256 8 8 (16384)
I0910 10:46:13.006588  7468 net.cpp:165] Memory required for data: 912359424
I0910 10:46:13.006592  7468 layer_factory.hpp:77] Creating layer reshg2_low6_low6_low7_branch2c
I0910 10:46:13.006604  7468 net.cpp:100] Creating Layer reshg2_low6_low6_low7_branch2c
I0910 10:46:13.006608  7468 net.cpp:434] reshg2_low6_low6_low7_branch2c <- reshg2_low6_low6_low7_branch2b
I0910 10:46:13.006618  7468 net.cpp:408] reshg2_low6_low6_low7_branch2c -> reshg2_low6_low6_low7_branch2c
I0910 10:46:13.007421  7468 net.cpp:150] Setting up reshg2_low6_low6_low7_branch2c
I0910 10:46:13.007429  7468 net.cpp:157] Top shape: 1 512 8 8 (32768)
I0910 10:46:13.007433  7468 net.cpp:165] Memory required for data: 912490496
I0910 10:46:13.007442  7468 layer_factory.hpp:77] Creating layer reshg2_low6_low6_low7
I0910 10:46:13.007452  7468 net.cpp:100] Creating Layer reshg2_low6_low6_low7
I0910 10:46:13.007467  7468 net.cpp:434] reshg2_low6_low6_low7 <- hg2_low6_low6_low6_hg2_low6_low6_low6_0_split_1
I0910 10:46:13.007475  7468 net.cpp:434] reshg2_low6_low6_low7 <- reshg2_low6_low6_low7_branch2c
I0910 10:46:13.007483  7468 net.cpp:408] reshg2_low6_low6_low7 -> reshg2_low6_low6_low7
I0910 10:46:13.007509  7468 net.cpp:150] Setting up reshg2_low6_low6_low7
I0910 10:46:13.007516  7468 net.cpp:157] Top shape: 1 512 8 8 (32768)
I0910 10:46:13.007521  7468 net.cpp:165] Memory required for data: 912621568
I0910 10:46:13.007525  7468 layer_factory.hpp:77] Creating layer hg2_low6_low6_up5
I0910 10:46:13.007536  7468 net.cpp:100] Creating Layer hg2_low6_low6_up5
I0910 10:46:13.007541  7468 net.cpp:434] hg2_low6_low6_up5 <- reshg2_low6_low6_low7
I0910 10:46:13.007551  7468 net.cpp:408] hg2_low6_low6_up5 -> hg2_low6_low6_up5
I0910 10:46:13.164476  7468 net.cpp:150] Setting up hg2_low6_low6_up5
I0910 10:46:13.164502  7468 net.cpp:157] Top shape: 1 512 16 16 (131072)
I0910 10:46:13.164506  7468 net.cpp:165] Memory required for data: 913145856
I0910 10:46:13.164527  7468 layer_factory.hpp:77] Creating layer hg2_low6_low6
I0910 10:46:13.164551  7468 net.cpp:100] Creating Layer hg2_low6_low6
I0910 10:46:13.164559  7468 net.cpp:434] hg2_low6_low6 <- reshg2_low6_low6_up4
I0910 10:46:13.164569  7468 net.cpp:434] hg2_low6_low6 <- hg2_low6_low6_up5
I0910 10:46:13.164578  7468 net.cpp:408] hg2_low6_low6 -> hg2_low6_low6
I0910 10:46:13.164609  7468 net.cpp:150] Setting up hg2_low6_low6
I0910 10:46:13.164625  7468 net.cpp:157] Top shape: 1 512 16 16 (131072)
I0910 10:46:13.164639  7468 net.cpp:165] Memory required for data: 913670144
I0910 10:46:13.164644  7468 layer_factory.hpp:77] Creating layer hg2_low6_low6_hg2_low6_low6_0_split
I0910 10:46:13.164652  7468 net.cpp:100] Creating Layer hg2_low6_low6_hg2_low6_low6_0_split
I0910 10:46:13.164657  7468 net.cpp:434] hg2_low6_low6_hg2_low6_low6_0_split <- hg2_low6_low6
I0910 10:46:13.164665  7468 net.cpp:408] hg2_low6_low6_hg2_low6_low6_0_split -> hg2_low6_low6_hg2_low6_low6_0_split_0
I0910 10:46:13.164674  7468 net.cpp:408] hg2_low6_low6_hg2_low6_low6_0_split -> hg2_low6_low6_hg2_low6_low6_0_split_1
I0910 10:46:13.164732  7468 net.cpp:150] Setting up hg2_low6_low6_hg2_low6_low6_0_split
I0910 10:46:13.164739  7468 net.cpp:157] Top shape: 1 512 16 16 (131072)
I0910 10:46:13.164754  7468 net.cpp:157] Top shape: 1 512 16 16 (131072)
I0910 10:46:13.164768  7468 net.cpp:165] Memory required for data: 914718720
I0910 10:46:13.164773  7468 layer_factory.hpp:77] Creating layer hg2_low6_low6_bn
I0910 10:46:13.164785  7468 net.cpp:100] Creating Layer hg2_low6_low6_bn
I0910 10:46:13.164790  7468 net.cpp:434] hg2_low6_low6_bn <- hg2_low6_low6_hg2_low6_low6_0_split_0
I0910 10:46:13.164800  7468 net.cpp:408] hg2_low6_low6_bn -> hg2_low6_low6_bn
I0910 10:46:13.165012  7468 net.cpp:150] Setting up hg2_low6_low6_bn
I0910 10:46:13.165020  7468 net.cpp:157] Top shape: 1 512 16 16 (131072)
I0910 10:46:13.165024  7468 net.cpp:165] Memory required for data: 915243008
I0910 10:46:13.165043  7468 layer_factory.hpp:77] Creating layer hg2_low6_low6_bn_scale
I0910 10:46:13.165050  7468 net.cpp:100] Creating Layer hg2_low6_low6_bn_scale
I0910 10:46:13.165055  7468 net.cpp:434] hg2_low6_low6_bn_scale <- hg2_low6_low6_bn
I0910 10:46:13.165063  7468 net.cpp:395] hg2_low6_low6_bn_scale -> hg2_low6_low6_bn (in-place)
I0910 10:46:13.165638  7468 net.cpp:150] Setting up hg2_low6_low6_bn_scale
I0910 10:46:13.165650  7468 net.cpp:157] Top shape: 1 512 16 16 (131072)
I0910 10:46:13.165654  7468 net.cpp:165] Memory required for data: 915767296
I0910 10:46:13.165663  7468 layer_factory.hpp:77] Creating layer hg2_low6_low6_bn_scale_relu
I0910 10:46:13.165673  7468 net.cpp:100] Creating Layer hg2_low6_low6_bn_scale_relu
I0910 10:46:13.165678  7468 net.cpp:434] hg2_low6_low6_bn_scale_relu <- hg2_low6_low6_bn
I0910 10:46:13.165686  7468 net.cpp:395] hg2_low6_low6_bn_scale_relu -> hg2_low6_low6_bn (in-place)
I0910 10:46:13.165695  7468 net.cpp:150] Setting up hg2_low6_low6_bn_scale_relu
I0910 10:46:13.165704  7468 net.cpp:157] Top shape: 1 512 16 16 (131072)
I0910 10:46:13.165717  7468 net.cpp:165] Memory required for data: 916291584
I0910 10:46:13.165724  7468 layer_factory.hpp:77] Creating layer reshg2_low6_low7_branch2a
I0910 10:46:13.165735  7468 net.cpp:100] Creating Layer reshg2_low6_low7_branch2a
I0910 10:46:13.165740  7468 net.cpp:434] reshg2_low6_low7_branch2a <- hg2_low6_low6_bn
I0910 10:46:13.165750  7468 net.cpp:408] reshg2_low6_low7_branch2a -> reshg2_low6_low7_branch2a
I0910 10:46:13.167037  7468 net.cpp:150] Setting up reshg2_low6_low7_branch2a
I0910 10:46:13.167045  7468 net.cpp:157] Top shape: 1 256 16 16 (65536)
I0910 10:46:13.167049  7468 net.cpp:165] Memory required for data: 916553728
I0910 10:46:13.167058  7468 layer_factory.hpp:77] Creating layer bnhg2_low6_low7_branch2a
I0910 10:46:13.167068  7468 net.cpp:100] Creating Layer bnhg2_low6_low7_branch2a
I0910 10:46:13.167073  7468 net.cpp:434] bnhg2_low6_low7_branch2a <- reshg2_low6_low7_branch2a
I0910 10:46:13.167083  7468 net.cpp:395] bnhg2_low6_low7_branch2a -> reshg2_low6_low7_branch2a (in-place)
I0910 10:46:13.167223  7468 net.cpp:150] Setting up bnhg2_low6_low7_branch2a
I0910 10:46:13.167232  7468 net.cpp:157] Top shape: 1 256 16 16 (65536)
I0910 10:46:13.167234  7468 net.cpp:165] Memory required for data: 916815872
I0910 10:46:13.167244  7468 layer_factory.hpp:77] Creating layer scalehg2_low6_low7_branch2a
I0910 10:46:13.167253  7468 net.cpp:100] Creating Layer scalehg2_low6_low7_branch2a
I0910 10:46:13.167258  7468 net.cpp:434] scalehg2_low6_low7_branch2a <- reshg2_low6_low7_branch2a
I0910 10:46:13.167264  7468 net.cpp:395] scalehg2_low6_low7_branch2a -> reshg2_low6_low7_branch2a (in-place)
I0910 10:46:13.167409  7468 net.cpp:150] Setting up scalehg2_low6_low7_branch2a
I0910 10:46:13.167418  7468 net.cpp:157] Top shape: 1 256 16 16 (65536)
I0910 10:46:13.167421  7468 net.cpp:165] Memory required for data: 917078016
I0910 10:46:13.167429  7468 layer_factory.hpp:77] Creating layer reshg2_low6_low7_branch2a_relu
I0910 10:46:13.167438  7468 net.cpp:100] Creating Layer reshg2_low6_low7_branch2a_relu
I0910 10:46:13.167443  7468 net.cpp:434] reshg2_low6_low7_branch2a_relu <- reshg2_low6_low7_branch2a
I0910 10:46:13.167449  7468 net.cpp:395] reshg2_low6_low7_branch2a_relu -> reshg2_low6_low7_branch2a (in-place)
I0910 10:46:13.167456  7468 net.cpp:150] Setting up reshg2_low6_low7_branch2a_relu
I0910 10:46:13.167464  7468 net.cpp:157] Top shape: 1 256 16 16 (65536)
I0910 10:46:13.167467  7468 net.cpp:165] Memory required for data: 917340160
I0910 10:46:13.167471  7468 layer_factory.hpp:77] Creating layer reshg2_low6_low7_branch2b
I0910 10:46:13.167484  7468 net.cpp:100] Creating Layer reshg2_low6_low7_branch2b
I0910 10:46:13.167489  7468 net.cpp:434] reshg2_low6_low7_branch2b <- reshg2_low6_low7_branch2a
I0910 10:46:13.167497  7468 net.cpp:408] reshg2_low6_low7_branch2b -> reshg2_low6_low7_branch2b
I0910 10:46:13.173207  7468 net.cpp:150] Setting up reshg2_low6_low7_branch2b
I0910 10:46:13.173226  7468 net.cpp:157] Top shape: 1 256 16 16 (65536)
I0910 10:46:13.173230  7468 net.cpp:165] Memory required for data: 917602304
I0910 10:46:13.173239  7468 layer_factory.hpp:77] Creating layer bnhg2_low6_low7_branch2b
I0910 10:46:13.173252  7468 net.cpp:100] Creating Layer bnhg2_low6_low7_branch2b
I0910 10:46:13.173259  7468 net.cpp:434] bnhg2_low6_low7_branch2b <- reshg2_low6_low7_branch2b
I0910 10:46:13.173269  7468 net.cpp:395] bnhg2_low6_low7_branch2b -> reshg2_low6_low7_branch2b (in-place)
I0910 10:46:13.173415  7468 net.cpp:150] Setting up bnhg2_low6_low7_branch2b
I0910 10:46:13.173424  7468 net.cpp:157] Top shape: 1 256 16 16 (65536)
I0910 10:46:13.173427  7468 net.cpp:165] Memory required for data: 917864448
I0910 10:46:13.173437  7468 layer_factory.hpp:77] Creating layer scalehg2_low6_low7_branch2b
I0910 10:46:13.173445  7468 net.cpp:100] Creating Layer scalehg2_low6_low7_branch2b
I0910 10:46:13.173450  7468 net.cpp:434] scalehg2_low6_low7_branch2b <- reshg2_low6_low7_branch2b
I0910 10:46:13.173458  7468 net.cpp:395] scalehg2_low6_low7_branch2b -> reshg2_low6_low7_branch2b (in-place)
I0910 10:46:13.173615  7468 net.cpp:150] Setting up scalehg2_low6_low7_branch2b
I0910 10:46:13.173624  7468 net.cpp:157] Top shape: 1 256 16 16 (65536)
I0910 10:46:13.173629  7468 net.cpp:165] Memory required for data: 918126592
I0910 10:46:13.173635  7468 layer_factory.hpp:77] Creating layer reshg2_low6_low7_branch2b_relu
I0910 10:46:13.173643  7468 net.cpp:100] Creating Layer reshg2_low6_low7_branch2b_relu
I0910 10:46:13.173650  7468 net.cpp:434] reshg2_low6_low7_branch2b_relu <- reshg2_low6_low7_branch2b
I0910 10:46:13.173657  7468 net.cpp:395] reshg2_low6_low7_branch2b_relu -> reshg2_low6_low7_branch2b (in-place)
I0910 10:46:13.173666  7468 net.cpp:150] Setting up reshg2_low6_low7_branch2b_relu
I0910 10:46:13.173672  7468 net.cpp:157] Top shape: 1 256 16 16 (65536)
I0910 10:46:13.173676  7468 net.cpp:165] Memory required for data: 918388736
I0910 10:46:13.173681  7468 layer_factory.hpp:77] Creating layer reshg2_low6_low7_branch2c
I0910 10:46:13.173696  7468 net.cpp:100] Creating Layer reshg2_low6_low7_branch2c
I0910 10:46:13.173699  7468 net.cpp:434] reshg2_low6_low7_branch2c <- reshg2_low6_low7_branch2b
I0910 10:46:13.173708  7468 net.cpp:408] reshg2_low6_low7_branch2c -> reshg2_low6_low7_branch2c
I0910 10:46:13.174887  7468 net.cpp:150] Setting up reshg2_low6_low7_branch2c
I0910 10:46:13.174898  7468 net.cpp:157] Top shape: 1 512 16 16 (131072)
I0910 10:46:13.174902  7468 net.cpp:165] Memory required for data: 918913024
I0910 10:46:13.174911  7468 layer_factory.hpp:77] Creating layer reshg2_low6_low7
I0910 10:46:13.174919  7468 net.cpp:100] Creating Layer reshg2_low6_low7
I0910 10:46:13.174926  7468 net.cpp:434] reshg2_low6_low7 <- hg2_low6_low6_hg2_low6_low6_0_split_1
I0910 10:46:13.174933  7468 net.cpp:434] reshg2_low6_low7 <- reshg2_low6_low7_branch2c
I0910 10:46:13.174943  7468 net.cpp:408] reshg2_low6_low7 -> reshg2_low6_low7
I0910 10:46:13.174964  7468 net.cpp:150] Setting up reshg2_low6_low7
I0910 10:46:13.174971  7468 net.cpp:157] Top shape: 1 512 16 16 (131072)
I0910 10:46:13.174976  7468 net.cpp:165] Memory required for data: 919437312
I0910 10:46:13.174980  7468 layer_factory.hpp:77] Creating layer hg2_low6_up5
I0910 10:46:13.174991  7468 net.cpp:100] Creating Layer hg2_low6_up5
I0910 10:46:13.174995  7468 net.cpp:434] hg2_low6_up5 <- reshg2_low6_low7
I0910 10:46:13.175004  7468 net.cpp:408] hg2_low6_up5 -> hg2_low6_up5
I0910 10:46:13.324862  7468 net.cpp:150] Setting up hg2_low6_up5
I0910 10:46:13.324890  7468 net.cpp:157] Top shape: 1 512 32 32 (524288)
I0910 10:46:13.324894  7468 net.cpp:165] Memory required for data: 921534464
I0910 10:46:13.324914  7468 layer_factory.hpp:77] Creating layer hg2_low6
I0910 10:46:13.324925  7468 net.cpp:100] Creating Layer hg2_low6
I0910 10:46:13.324944  7468 net.cpp:434] hg2_low6 <- reshg2_low6_up4
I0910 10:46:13.324952  7468 net.cpp:434] hg2_low6 <- hg2_low6_up5
I0910 10:46:13.324959  7468 net.cpp:408] hg2_low6 -> hg2_low6
I0910 10:46:13.324990  7468 net.cpp:150] Setting up hg2_low6
I0910 10:46:13.325006  7468 net.cpp:157] Top shape: 1 512 32 32 (524288)
I0910 10:46:13.325011  7468 net.cpp:165] Memory required for data: 923631616
I0910 10:46:13.325026  7468 layer_factory.hpp:77] Creating layer hg2_low6_hg2_low6_0_split
I0910 10:46:13.325044  7468 net.cpp:100] Creating Layer hg2_low6_hg2_low6_0_split
I0910 10:46:13.325049  7468 net.cpp:434] hg2_low6_hg2_low6_0_split <- hg2_low6
I0910 10:46:13.325067  7468 net.cpp:408] hg2_low6_hg2_low6_0_split -> hg2_low6_hg2_low6_0_split_0
I0910 10:46:13.325076  7468 net.cpp:408] hg2_low6_hg2_low6_0_split -> hg2_low6_hg2_low6_0_split_1
I0910 10:46:13.325132  7468 net.cpp:150] Setting up hg2_low6_hg2_low6_0_split
I0910 10:46:13.325139  7468 net.cpp:157] Top shape: 1 512 32 32 (524288)
I0910 10:46:13.325155  7468 net.cpp:157] Top shape: 1 512 32 32 (524288)
I0910 10:46:13.325160  7468 net.cpp:165] Memory required for data: 927825920
I0910 10:46:13.325165  7468 layer_factory.hpp:77] Creating layer hg2_low6_bn
I0910 10:46:13.325184  7468 net.cpp:100] Creating Layer hg2_low6_bn
I0910 10:46:13.325188  7468 net.cpp:434] hg2_low6_bn <- hg2_low6_hg2_low6_0_split_0
I0910 10:46:13.325211  7468 net.cpp:408] hg2_low6_bn -> hg2_low6_bn
I0910 10:46:13.325430  7468 net.cpp:150] Setting up hg2_low6_bn
I0910 10:46:13.325438  7468 net.cpp:157] Top shape: 1 512 32 32 (524288)
I0910 10:46:13.325454  7468 net.cpp:165] Memory required for data: 929923072
I0910 10:46:13.325464  7468 layer_factory.hpp:77] Creating layer hg2_low6_bn_scale
I0910 10:46:13.325472  7468 net.cpp:100] Creating Layer hg2_low6_bn_scale
I0910 10:46:13.325476  7468 net.cpp:434] hg2_low6_bn_scale <- hg2_low6_bn
I0910 10:46:13.325484  7468 net.cpp:395] hg2_low6_bn_scale -> hg2_low6_bn (in-place)
I0910 10:46:13.326469  7468 net.cpp:150] Setting up hg2_low6_bn_scale
I0910 10:46:13.326483  7468 net.cpp:157] Top shape: 1 512 32 32 (524288)
I0910 10:46:13.326486  7468 net.cpp:165] Memory required for data: 932020224
I0910 10:46:13.326494  7468 layer_factory.hpp:77] Creating layer hg2_low6_bn_scale_relu
I0910 10:46:13.326503  7468 net.cpp:100] Creating Layer hg2_low6_bn_scale_relu
I0910 10:46:13.326509  7468 net.cpp:434] hg2_low6_bn_scale_relu <- hg2_low6_bn
I0910 10:46:13.326519  7468 net.cpp:395] hg2_low6_bn_scale_relu -> hg2_low6_bn (in-place)
I0910 10:46:13.326527  7468 net.cpp:150] Setting up hg2_low6_bn_scale_relu
I0910 10:46:13.326534  7468 net.cpp:157] Top shape: 1 512 32 32 (524288)
I0910 10:46:13.326539  7468 net.cpp:165] Memory required for data: 934117376
I0910 10:46:13.326542  7468 layer_factory.hpp:77] Creating layer reshg2_low7_branch2a
I0910 10:46:13.326555  7468 net.cpp:100] Creating Layer reshg2_low7_branch2a
I0910 10:46:13.326560  7468 net.cpp:434] reshg2_low7_branch2a <- hg2_low6_bn
I0910 10:46:13.326570  7468 net.cpp:408] reshg2_low7_branch2a -> reshg2_low7_branch2a
I0910 10:46:13.327869  7468 net.cpp:150] Setting up reshg2_low7_branch2a
I0910 10:46:13.327878  7468 net.cpp:157] Top shape: 1 256 32 32 (262144)
I0910 10:46:13.327883  7468 net.cpp:165] Memory required for data: 935165952
I0910 10:46:13.327891  7468 layer_factory.hpp:77] Creating layer bnhg2_low7_branch2a
I0910 10:46:13.327900  7468 net.cpp:100] Creating Layer bnhg2_low7_branch2a
I0910 10:46:13.327905  7468 net.cpp:434] bnhg2_low7_branch2a <- reshg2_low7_branch2a
I0910 10:46:13.327914  7468 net.cpp:395] bnhg2_low7_branch2a -> reshg2_low7_branch2a (in-place)
I0910 10:46:13.328070  7468 net.cpp:150] Setting up bnhg2_low7_branch2a
I0910 10:46:13.328078  7468 net.cpp:157] Top shape: 1 256 32 32 (262144)
I0910 10:46:13.328081  7468 net.cpp:165] Memory required for data: 936214528
I0910 10:46:13.328091  7468 layer_factory.hpp:77] Creating layer scalehg2_low7_branch2a
I0910 10:46:13.328100  7468 net.cpp:100] Creating Layer scalehg2_low7_branch2a
I0910 10:46:13.328105  7468 net.cpp:434] scalehg2_low7_branch2a <- reshg2_low7_branch2a
I0910 10:46:13.328112  7468 net.cpp:395] scalehg2_low7_branch2a -> reshg2_low7_branch2a (in-place)
I0910 10:46:13.328687  7468 net.cpp:150] Setting up scalehg2_low7_branch2a
I0910 10:46:13.328699  7468 net.cpp:157] Top shape: 1 256 32 32 (262144)
I0910 10:46:13.328703  7468 net.cpp:165] Memory required for data: 937263104
I0910 10:46:13.328711  7468 layer_factory.hpp:77] Creating layer reshg2_low7_branch2a_relu
I0910 10:46:13.328721  7468 net.cpp:100] Creating Layer reshg2_low7_branch2a_relu
I0910 10:46:13.328725  7468 net.cpp:434] reshg2_low7_branch2a_relu <- reshg2_low7_branch2a
I0910 10:46:13.328735  7468 net.cpp:395] reshg2_low7_branch2a_relu -> reshg2_low7_branch2a (in-place)
I0910 10:46:13.328743  7468 net.cpp:150] Setting up reshg2_low7_branch2a_relu
I0910 10:46:13.328750  7468 net.cpp:157] Top shape: 1 256 32 32 (262144)
I0910 10:46:13.328754  7468 net.cpp:165] Memory required for data: 938311680
I0910 10:46:13.328758  7468 layer_factory.hpp:77] Creating layer reshg2_low7_branch2b
I0910 10:46:13.328770  7468 net.cpp:100] Creating Layer reshg2_low7_branch2b
I0910 10:46:13.328775  7468 net.cpp:434] reshg2_low7_branch2b <- reshg2_low7_branch2a
I0910 10:46:13.328783  7468 net.cpp:408] reshg2_low7_branch2b -> reshg2_low7_branch2b
I0910 10:46:13.334552  7468 net.cpp:150] Setting up reshg2_low7_branch2b
I0910 10:46:13.334578  7468 net.cpp:157] Top shape: 1 256 32 32 (262144)
I0910 10:46:13.334583  7468 net.cpp:165] Memory required for data: 939360256
I0910 10:46:13.334591  7468 layer_factory.hpp:77] Creating layer bnhg2_low7_branch2b
I0910 10:46:13.334602  7468 net.cpp:100] Creating Layer bnhg2_low7_branch2b
I0910 10:46:13.334609  7468 net.cpp:434] bnhg2_low7_branch2b <- reshg2_low7_branch2b
I0910 10:46:13.334620  7468 net.cpp:395] bnhg2_low7_branch2b -> reshg2_low7_branch2b (in-place)
I0910 10:46:13.334784  7468 net.cpp:150] Setting up bnhg2_low7_branch2b
I0910 10:46:13.334794  7468 net.cpp:157] Top shape: 1 256 32 32 (262144)
I0910 10:46:13.334797  7468 net.cpp:165] Memory required for data: 940408832
I0910 10:46:13.334806  7468 layer_factory.hpp:77] Creating layer scalehg2_low7_branch2b
I0910 10:46:13.334817  7468 net.cpp:100] Creating Layer scalehg2_low7_branch2b
I0910 10:46:13.334822  7468 net.cpp:434] scalehg2_low7_branch2b <- reshg2_low7_branch2b
I0910 10:46:13.334828  7468 net.cpp:395] scalehg2_low7_branch2b -> reshg2_low7_branch2b (in-place)
I0910 10:46:13.335405  7468 net.cpp:150] Setting up scalehg2_low7_branch2b
I0910 10:46:13.335417  7468 net.cpp:157] Top shape: 1 256 32 32 (262144)
I0910 10:46:13.335422  7468 net.cpp:165] Memory required for data: 941457408
I0910 10:46:13.335428  7468 layer_factory.hpp:77] Creating layer reshg2_low7_branch2b_relu
I0910 10:46:13.335438  7468 net.cpp:100] Creating Layer reshg2_low7_branch2b_relu
I0910 10:46:13.335443  7468 net.cpp:434] reshg2_low7_branch2b_relu <- reshg2_low7_branch2b
I0910 10:46:13.335453  7468 net.cpp:395] reshg2_low7_branch2b_relu -> reshg2_low7_branch2b (in-place)
I0910 10:46:13.335461  7468 net.cpp:150] Setting up reshg2_low7_branch2b_relu
I0910 10:46:13.335467  7468 net.cpp:157] Top shape: 1 256 32 32 (262144)
I0910 10:46:13.335472  7468 net.cpp:165] Memory required for data: 942505984
I0910 10:46:13.335476  7468 layer_factory.hpp:77] Creating layer reshg2_low7_branch2c
I0910 10:46:13.335489  7468 net.cpp:100] Creating Layer reshg2_low7_branch2c
I0910 10:46:13.335494  7468 net.cpp:434] reshg2_low7_branch2c <- reshg2_low7_branch2b
I0910 10:46:13.335501  7468 net.cpp:408] reshg2_low7_branch2c -> reshg2_low7_branch2c
I0910 10:46:13.336657  7468 net.cpp:150] Setting up reshg2_low7_branch2c
I0910 10:46:13.336673  7468 net.cpp:157] Top shape: 1 512 32 32 (524288)
I0910 10:46:13.336676  7468 net.cpp:165] Memory required for data: 944603136
I0910 10:46:13.336685  7468 layer_factory.hpp:77] Creating layer reshg2_low7
I0910 10:46:13.336695  7468 net.cpp:100] Creating Layer reshg2_low7
I0910 10:46:13.336702  7468 net.cpp:434] reshg2_low7 <- hg2_low6_hg2_low6_0_split_1
I0910 10:46:13.336709  7468 net.cpp:434] reshg2_low7 <- reshg2_low7_branch2c
I0910 10:46:13.336717  7468 net.cpp:408] reshg2_low7 -> reshg2_low7
I0910 10:46:13.336745  7468 net.cpp:150] Setting up reshg2_low7
I0910 10:46:13.336752  7468 net.cpp:157] Top shape: 1 512 32 32 (524288)
I0910 10:46:13.336757  7468 net.cpp:165] Memory required for data: 946700288
I0910 10:46:13.336761  7468 layer_factory.hpp:77] Creating layer hg2_up5
I0910 10:46:13.336772  7468 net.cpp:100] Creating Layer hg2_up5
I0910 10:46:13.336777  7468 net.cpp:434] hg2_up5 <- reshg2_low7
I0910 10:46:13.336784  7468 net.cpp:408] hg2_up5 -> hg2_up5
I0910 10:46:13.486109  7468 net.cpp:150] Setting up hg2_up5
I0910 10:46:13.486135  7468 net.cpp:157] Top shape: 1 512 64 64 (2097152)
I0910 10:46:13.486140  7468 net.cpp:165] Memory required for data: 955088896
I0910 10:46:13.486160  7468 layer_factory.hpp:77] Creating layer hg2
I0910 10:46:13.486169  7468 net.cpp:100] Creating Layer hg2
I0910 10:46:13.486186  7468 net.cpp:434] hg2 <- reshg2_up4
I0910 10:46:13.486196  7468 net.cpp:434] hg2 <- hg2_up5
I0910 10:46:13.486203  7468 net.cpp:408] hg2 -> hg2
I0910 10:46:13.486232  7468 net.cpp:150] Setting up hg2
I0910 10:46:13.486248  7468 net.cpp:157] Top shape: 1 512 64 64 (2097152)
I0910 10:46:13.486253  7468 net.cpp:165] Memory required for data: 963477504
I0910 10:46:13.486268  7468 layer_factory.hpp:77] Creating layer linear3
I0910 10:46:13.486312  7468 net.cpp:100] Creating Layer linear3
I0910 10:46:13.486318  7468 net.cpp:434] linear3 <- hg2
I0910 10:46:13.486335  7468 net.cpp:408] linear3 -> linear3
I0910 10:46:13.489066  7468 net.cpp:150] Setting up linear3
I0910 10:46:13.489078  7468 net.cpp:157] Top shape: 1 512 64 64 (2097152)
I0910 10:46:13.489081  7468 net.cpp:165] Memory required for data: 971866112
I0910 10:46:13.489099  7468 layer_factory.hpp:77] Creating layer bn_linear3
I0910 10:46:13.489120  7468 net.cpp:100] Creating Layer bn_linear3
I0910 10:46:13.489125  7468 net.cpp:434] bn_linear3 <- linear3
I0910 10:46:13.489132  7468 net.cpp:395] bn_linear3 -> linear3 (in-place)
I0910 10:46:13.489326  7468 net.cpp:150] Setting up bn_linear3
I0910 10:46:13.489333  7468 net.cpp:157] Top shape: 1 512 64 64 (2097152)
I0910 10:46:13.489336  7468 net.cpp:165] Memory required for data: 980254720
I0910 10:46:13.489356  7468 layer_factory.hpp:77] Creating layer scale_linear3
I0910 10:46:13.489375  7468 net.cpp:100] Creating Layer scale_linear3
I0910 10:46:13.489379  7468 net.cpp:434] scale_linear3 <- linear3
I0910 10:46:13.489385  7468 net.cpp:395] scale_linear3 -> linear3 (in-place)
I0910 10:46:13.492513  7468 net.cpp:150] Setting up scale_linear3
I0910 10:46:13.492547  7468 net.cpp:157] Top shape: 1 512 64 64 (2097152)
I0910 10:46:13.492550  7468 net.cpp:165] Memory required for data: 988643328
I0910 10:46:13.492563  7468 layer_factory.hpp:77] Creating layer linear3_relu
I0910 10:46:13.492585  7468 net.cpp:100] Creating Layer linear3_relu
I0910 10:46:13.492594  7468 net.cpp:434] linear3_relu <- linear3
I0910 10:46:13.492604  7468 net.cpp:395] linear3_relu -> linear3 (in-place)
I0910 10:46:13.492614  7468 net.cpp:150] Setting up linear3_relu
I0910 10:46:13.492620  7468 net.cpp:157] Top shape: 1 512 64 64 (2097152)
I0910 10:46:13.492624  7468 net.cpp:165] Memory required for data: 997031936
I0910 10:46:13.492629  7468 layer_factory.hpp:77] Creating layer linear4
I0910 10:46:13.492643  7468 net.cpp:100] Creating Layer linear4
I0910 10:46:13.492648  7468 net.cpp:434] linear4 <- linear3
I0910 10:46:13.492656  7468 net.cpp:408] linear4 -> linear4
I0910 10:46:13.495497  7468 net.cpp:150] Setting up linear4
I0910 10:46:13.495510  7468 net.cpp:157] Top shape: 1 512 64 64 (2097152)
I0910 10:46:13.495514  7468 net.cpp:165] Memory required for data: 1005420544
I0910 10:46:13.495522  7468 layer_factory.hpp:77] Creating layer bn_linear4
I0910 10:46:13.495534  7468 net.cpp:100] Creating Layer bn_linear4
I0910 10:46:13.495539  7468 net.cpp:434] bn_linear4 <- linear4
I0910 10:46:13.495548  7468 net.cpp:395] bn_linear4 -> linear4 (in-place)
I0910 10:46:13.495724  7468 net.cpp:150] Setting up bn_linear4
I0910 10:46:13.495733  7468 net.cpp:157] Top shape: 1 512 64 64 (2097152)
I0910 10:46:13.495738  7468 net.cpp:165] Memory required for data: 1013809152
I0910 10:46:13.495748  7468 layer_factory.hpp:77] Creating layer scale_linear4
I0910 10:46:13.495754  7468 net.cpp:100] Creating Layer scale_linear4
I0910 10:46:13.495760  7468 net.cpp:434] scale_linear4 <- linear4
I0910 10:46:13.495769  7468 net.cpp:395] scale_linear4 -> linear4 (in-place)
I0910 10:46:13.499114  7468 net.cpp:150] Setting up scale_linear4
I0910 10:46:13.499150  7468 net.cpp:157] Top shape: 1 512 64 64 (2097152)
I0910 10:46:13.499155  7468 net.cpp:165] Memory required for data: 1022197760
I0910 10:46:13.499173  7468 layer_factory.hpp:77] Creating layer linear4_relu
I0910 10:46:13.499209  7468 net.cpp:100] Creating Layer linear4_relu
I0910 10:46:13.499270  7468 net.cpp:434] linear4_relu <- linear4
I0910 10:46:13.499285  7468 net.cpp:395] linear4_relu -> linear4 (in-place)
I0910 10:46:13.499300  7468 net.cpp:150] Setting up linear4_relu
I0910 10:46:13.499307  7468 net.cpp:157] Top shape: 1 512 64 64 (2097152)
I0910 10:46:13.499312  7468 net.cpp:165] Memory required for data: 1030586368
I0910 10:46:13.499317  7468 layer_factory.hpp:77] Creating layer output
I0910 10:46:13.499331  7468 net.cpp:100] Creating Layer output
I0910 10:46:13.499336  7468 net.cpp:434] output <- linear4
I0910 10:46:13.499362  7468 net.cpp:408] output -> output
I0910 10:46:13.499745  7468 net.cpp:150] Setting up output
I0910 10:46:13.499758  7468 net.cpp:157] Top shape: 1 16 64 64 (65536)
I0910 10:46:13.499763  7468 net.cpp:165] Memory required for data: 1030848512
I0910 10:46:13.499773  7468 layer_factory.hpp:77] Creating layer heatmap_loss
I0910 10:46:13.499781  7468 net.cpp:100] Creating Layer heatmap_loss
I0910 10:46:13.499786  7468 net.cpp:434] heatmap_loss <- output
I0910 10:46:13.499794  7468 net.cpp:434] heatmap_loss <- label
I0910 10:46:13.499799  7468 net.cpp:434] heatmap_loss <- data_data_0_split_1
…
